jengazero_data/jengazero_union_featureset/checkpoints/10/model.pkl (torch_old, 139087 bytes, 6 tensors)

nn_layers.0.weight f4 [128, 90]
00000000: 16c2 8e3d 9d39 633d f7df 9fbd 2976 13bb
00000010: 4247 163d f0e9 a9bc 74b2 aebd bf04 68bd
00000020: a006 353d f48e b23c b429 b63d 1687 dbbd
00000030: 4064 9b3d 114d b0bd 4aec b83d 9dcb c5bd
00000040: d090 05bd 0fe9 39bc 5f1d f33c b2ed c4bd
00000050: f897 7b3c c6a5 c53d 2b63 333d ab76 b33d
00000060: 28c8 343c 765b 65bd 340d 16bd 1061 25bc
00000070: ee64 2e3d 44f6 db3c 2d11 afbd 5eb5 933d
00000080: fa25 15bd 5f05 4e3d e2f9 debc 7c2e f03b
00000090: a28d 823d a38b bfbd 1bf4 3dbc 6f6f d0bd
000000a0: cc6d a03c 2fad ff3c e531 cfbd be35 ba3b
000000b0: ca00 a93d a806 b13c 36c1 c93c 8cf4 483a
000000c0: b337 583d 6a28 b23b 1381 0abd f4af 3cbd
000000d0: 7564 043d 4ea2 dcbc 06ce 64bd 676e 853d
000000e0: 2b1b a73d 0362 ce3c 8508 f8bc 7ea5 b5bd
000000f0: 504f 8b3d 3b10 813d ad72 c53d 3bb3 9dbd
00000100: 0521 85bd 6460 fb3c a089 9fbd 3dbc 873d
00000110: bb19 923d af82 a83d ee61 c2bd 510c 8ebd
00000120: 6989 a63d 3fb1 a13d 8217 533d 90cf 15bd
00000130: b5c0 df3d 06dc 4d3d 7982 c43d f850 6ebb
00000140: 0d2a 9cbd 63e3 b93d 3a19 58bd df26 973d
00000150: be24 8f3c 4638 e0bd 5f24 cabd 436a 873d
00000160: d4eb a83d 5b7b b6bd eac6 0dbc 5f47 b9bc
00000170: 3c4b 88bd 0aa3 37bc 00c2 ccbd 87fe 313c
00000180: b102 863d 3d77 1bba 4415 663d 2c2c 1a3d
00000190: c065 e0bc 9240 f2bc 63c1 c53d 1568 c7bd
000001a0: f01c 033d 2497 89bd e4c6 183d 82e8 52bd
000001b0: b79c acbd 9005 9abc dcd9 bc3d 50a8 883d
000001c0: 1c8c 863d 0a48 80bd c9c8 7cbd 30b1 aebd
000001d0: a826 88bc 001a 60bb 244c b1bc 7091 8cbb
000001e0: c6b2 323d f34b 92bd 3291 9ebd f59b 303d
000001f0: a6a2 abbb 8ea0 92bd 966e a0bd 2ad5 83bc
00000200: 84c0 4c3c 768d 913c e7c8 81bd f21b c93d
00000210: d718 bfbd c4a6 e93c 0a1e a73d 3add bcbc
00000220: a4eb 0bbc 5766 923c 6b59 c0bd f94e 68bd
00000230: f8c3 f33a b844 4cbb e829 b23d fd86 a1bc
00000240: 0400 f93c cb69 82bc 225f 553d 7794 d7bd
00000250: 4f2b 89bc 5ef7 933d 2742 9a3d a649 103d
00000260: 9fa6 6f3d c03b 273b 992c 953d a8fb 96bc
00000270: 8077 403c d7b5 9cbd 96c2 413d f619 333d
00000280: c826 78bc 2a16 31bd 1608 6a3d 3749 7abd
00000290: 160a 91bd 2cee 973c 0a7d 92bd f6c9 8e3d
000002a0: 36be c5bd 2a6b 9dbd 4b89 bdbd 5fa6 9cbd
000002b0: fb52 e33c 7d15 d0bd 6413 28bd 61bc d8bd
000002c0: b63a c53d 8007 5fbd f56a 77bd a6f5 01bd
000002d0: 7421 cdbc 4143 7a3b 58a5 053d 2f6c f1bb
000002e0: 0ad7 d2bd e59c b83d 8134 a9bd f2d3 8eba
000002f0: 050a bd3d 69b5 ae3b 2db2 483d 7b10 a33d
00000300: aaa7 8abc 3959 56bc 8094 9cbc 32f4 8f3c
00000310: cba2 afbd 114c 1cbd 3ddf abbd 4642 3bbd
00000320: 52b3 a33d 3323 37bb 7ec7 18bd 0000 28b7
00000330: b428 903c 0040 76b7 6eb5 0f3d 406b 76bb
00000340: 985c 183c 7cfa c1bc b994 c8bd ddf8 23bd
00000350: 1485 8fbd 38e9 3c3d cab2 14b9 a8b3 bb3c
00000360: f81d 993d f269 c0bd 11cc 39bc dfd8 ae3d
00000370: 48a4 d03d ea6d 37bd c6db b1bd 1e6d aebd
00000380: cb7c d1bc 0add 9bbd fc7e ba3d e85f 49bd
00000390: 44dc 1d3d 9fa8 843d a81e a63c 32b2 0e3d
000003a0: 93e8 01bd 0548 ad3d 12fd b4bd f767 d9bd
000003b0: b741 9e3d 4d3f 553c b62f 90bc 457b 073d
000003c0: 170e 66bc 47f2 95bd 57aa 90bc 067c afbd
000003d0: 4ec1 493d 69b1 98bd 8ce3 b4bd 2660 14bd
000003e0: f978 8fbd 192b 893d 40d8 c63a 5016 eabb
000003f0: 6330 943d e26c 59bd 0962 923d 8e5d 1c3d
0.06970613 0.055474866 -0.0780639 -0.002250085 0.03668905 -0.020741433 -0.08530131 -0.05664515
0.04419577 0.021796681 0.08894673 -0.10719125 0.075874805 -0.08608449 0.090294436 -0.09657977
-0.032608807 -0.011347069 0.029677091 -0.09615649 0.015356056 0.096507594 0.043795746 0.087628685
0.011034049 -0.055995427 -0.036633685 -0.010093942 0.042576723 0.026850827 -0.08548198 0.072123274
-0.03641317 0.05029809 -0.027218763 0.00732976 0.063746706 -0.093528055 -0.011593844 -0.10177504
0.019583605 0.03121051 -0.101169385 0.005682676 0.082521036 0.02160962 0.024628263 0.0007665835
0.052787494 0.0054369466 -0.0338145 -0.04606624 0.032322366 -0.026932862 -0.05586054 0.06515198
0.08159479 0.02519322 -0.0302775 -0.08869456 0.06802237 0.06301924 0.09641013 -0.07700201
-0.065004386 0.030685611 -0.07789922 0.066277005 0.07133814 0.08228051 -0.09491335 -0.06935943
0.08131678 0.07895135 0.05153609 -0.0365749 0.10925428 0.05025866 0.09595198 -0.003636418
-0.07625208 0.09076574 -0.052758433 0.07380461 0.017473575 -0.10948233 -0.098702185 0.06612065
0.08248106 -0.08910247 -0.008653382 -0.02261704 -0.06654975 -0.011208305 -0.0999794 0.010863907
0.06543482 -0.00059305487 0.056172624 0.03763978 -0.027392268 -0.029571805 0.09656026 -0.09736649
0.03201002 -0.06718281 0.037299052 -0.051491268 -0.084283285 -0.01880148 0.09221241 0.06672728
0.065696925 -0.0626374 -0.06171492 -0.085298896 -0.016619995 -0.0034195185 -0.021642752 -0.0042897984
0.043627523 -0.071433924 -0.077425376 0.043117482 -0.005237895 -0.071595296 -0.078335926 -0.016092855
0.012497071 0.01776765 -0.06337147 0.09819783 -0.0933091 0.028521903 0.08160026 -0.023054708
-0.008540068 0.017871065 -0.09392055 -0.05671594 0.0018597832 -0.003116889 0.08699399 -0.019717688
0.030395515 -0.015919587 0.05209268 -0.10526364 -0.016744284 0.07224916 0.07532149 0.035226487
0.05850851 0.0025517792 0.07283897 -0.018430546 0.011747241 -0.07651871 0.047304712 0.04372593
-0.015145965 -0.043234028 0.057136618 -0.06110498 -0.07082002 0.018546186 -0.071527556 0.06972115
-0.096554205 -0.076864555 -0.09254702 -0.0764892 0.02774953 -0.101603486 -0.041034117 -0.105828054
0.09630339 -0.054450512 -0.060404737 -0.03172841 -0.025040366 0.003818706 0.032628387 -0.007367633
-0.10294922 0.090143 -0.082619675 -0.0010896905 0.09230427 0.0053316844 0.048998047 0.07962128
-0.016925652 -0.013082796 -0.019113779 0.017572496 -0.08575972 -0.03815848 -0.08392189 -0.0457175
0.07993187 -0.0027944564 -0.037299626 -1.001358e-05 0.017597534 -1.4677644e-05 0.035085134 -0.0037600547
0.00929942 -0.02367901 -0.097939916 -0.040032256 -0.070078045 0.046120852 -0.00014180984 0.022912815
0.07476419 -0.093952075 -0.011340157 0.08537459 0.10187584 -0.044782557 -0.086844966 -0.08516906
-0.025572201 -0.07610519 0.091062516 -0.04916373 0.03854014 0.064774744 0.02027829 0.03483791
-0.03171594 0.08461002 -0.08837332 -0.10615533 0.07727378 0.01301558 -0.017600875 0.033076543
-0.014041445 -0.07321601 -0.01765935 -0.085685775 0.049256615 -0.07455713 -0.088324636 -0.036224507
-0.070054956 0.06697673 0.0015170649 -0.007143773 0.072357915 -0.053082354 0.07147605 0.03817516

nn_layers.0.bias f4 [128]
00000000: 4970 bfbd 5fcb 41bc 4b9c 7d3a e6e3 b4bd
00000010: 7e59 0dbd 6669 0e3d 4646 4e3d 8d74 ae3d
00000020: 45e5 49bd 98f3 26bd ce69 cb3d 8e9d 9a39
00000030: 9ad3 9ebd ead4 30bd 6574 bf3d f706 8cbd
00000040: 7a44 9ebc bf58 8c3d 2bee 4a3d f4f5 f1bc
00000050: 2115 b83d 80e1 23bd 38e5 2ebc 1095 02bd
00000060: 6e04 b3bd e06f 543d 7e9d 973d e0ac 97bd
00000070: 39d2 c8bd a071 d43d 92a9 6c3d 325f 6e3d
00000080: d18e aa3d 01fe 653d c40b 75bd b040 cabd
00000090: 1498 10bd d88c afbd e9aa c43d 1b9c 8cbd
000000a0: 608d 72bb c32c b83d 966c e1bc 3cd2 cfbc
000000b0: 6e8c 4f3d 52cc acbd e104 bcbc fcce 0e3d
000000c0: d87b 05bd a348 143d d435 243c aa42 f43c
000000d0: bf52 c3bd d77b 753d da62 583d 0037 6e3c
000000e0: 5f72 24bd 8411 363d 3f6f b73d 7ef9 403d
000000f0: 31da 81bd b37e dabd 4a50 5b3d 8026 7a3b
00000100: b4d5 70bd 2c8c 9bbd 3c33 aabd 55a1 6d3c
00000110: fd94 97bd 925b 073d a44e 933d 1bc0 033d
00000120: 7575 513d 2a5a 7abd 9e36 833d f690 0d3d
00000130: a9db 8d3d ffae d73c 8a32 a1bd e8ca 99bd
00000140: 5789 d93d 1c0a 6cbd b2bd 813d 93ad d2bd
00000150: 1541 05bd 7470 de3d 1160 c1bd 7ad0 713d
00000160: 8a25 583d 7777 b4bc 9dd8 713d a77e a63d
00000170: 7009 1a3d eda4 87bd 882d 81bd 33bc 5c3d
00000180: 3ca5 42bc 2425 eaba 55a9 3dbd 5c5a babc
00000190: 7c63 e4bc fe04 71bd ae81 75bd 9ac0 2abd
000001a0: 2056 b7bb dc27 9fbd 94c0 af3c 3215 ae3c
000001b0: 7af0 c33c 818b 84bd 7071 e7bc d8d0 8e3d
000001c0: 5a5d 0a3d ec74 353d 86ca 25ba 8ec1 403d
000001d0: 823d 423d f661 9f3d 6d24 373a a5d3 f23c
000001e0: 1eaa 55bc e0ca e1bb 0228 f63b 727f 3bbd
000001f0: f846 a03c 804f c3ba f4f5 d03a a977 3abd
-0.093475886 -0.011828273 0.00096744735 -0.08832531 -0.034509175 0.034768485 0.050359987 0.08518324
-0.049290914 -0.040759653 0.0993229 0.00029490556 -0.077552035 -0.0431718 0.09348372 -0.06837266
-0.019319762 0.068528645 0.04954354 -0.029536225 0.08988405 -0.040009975 -0.010674767 -0.03188044
-0.08741079 0.051864505 0.07403086 -0.0740602 -0.09805722 0.10373235 0.057778902 0.058196254
0.08328021 0.05615044 -0.059825674 -0.098756194 -0.035301283 -0.08571786 0.09602911 -0.06865712
-0.0037010536 0.089929126 -0.027517598 -0.025368802 0.050671034 -0.084374085 -0.022951545 0.034865364
-0.03258881 0.036202084 0.010022599 0.029816944 -0.09537267 0.059932556 0.052828647 0.01453948
-0.040148135 0.044450298 0.089567654 0.047112934 -0.06340445 -0.10668697 0.053543366 0.003816992
-0.058797553 -0.07595095 -0.083105534 0.014503797 -0.07401464 0.033046313 0.07192734 0.032165628
0.051137406 -0.061121143 0.06406902 0.034562074 0.069266625 0.026328562 -0.07870968 -0.075094044
0.106218986 -0.05762683 0.0633501 -0.10287013 -0.03253277 0.108612925 -0.09442151 0.05903671
0.052770175 -0.022029622 0.05904447 0.08129626 0.037606657 -0.06623254 -0.063075125 0.05389042
-0.011880215 -0.0017863852 -0.046304066 -0.022748165 -0.02787947 -0.05884265 -0.059938125 -0.041687585
-0.0055949837 -0.077712744 0.021454133 0.021250341 0.02391838 -0.06471921 -0.028252333 0.069734275
0.033780433 0.04430096 -0.0006324429 0.047059588 0.04742194 0.077823564 0.0006986324 0.029641936
-0.013041047 -0.0068906397 0.0075120935 -0.04577584 0.01956509 -0.0014901012 0.001594244 -0.045524273

nn_layers.2.weight f4 [128, 128]
00000000: 9b1c 1a3d b0a7 9bbd 4d79 1cbd 0857 58bd
00000010: 4e6f 93bd fb81 b9bb 28f2 e93c 60b3 4cbd
00000020: 7317 97bd b4fb d8bc 5d8d 4ebd 19f5 863d
00000030: f021 bdbd f6b5 353d 7693 673d f9d7 113d
00000040: 9df4 f33b 17dc b33c e2c3 1939 569d 4e3d
00000050: 821b 31bb e64d a9bd 7a3d 2f3d 1832 283d
00000060: a040 89bd 5c10 26bd 1aeb fabc 0e69 23bd
00000070: 089c 3cbc f247 14bd fe14 2dbd 5d0b ae3d
00000080: c2d0 90bd b2a5 65bd a77f 7abd 0afe 45bd
00000090: f4ab a9bd 584c a9bc 603d 46bb b005 2ebd
000000a0: 4f8a 04bd c3aa 673d 6645 7f3d b6cd 96bd
000000b0: e277 55bd ea73 db3c 3297 aabd 5420 423c
000000c0: fee5 0abd dd0c 00bd 58d7 88bd 4e95 2e3d
000000d0: d087 bc3b fb65 b7bc 7f64 8e3d 22f5 6b3d
000000e0: f11e 6f3d a262 31bd 69f6 2ebd 546c 9a3c
000000f0: 22ca 05bd f665 613d 91c6 f33b 85e6 b33d
00000100: 2d93 0e3d 954d a23d 3097 89bd 3d44 70bc
00000110: 6041 133c 5226 adbd 3a26 903d 9b22 9c3d
00000120: 6dee a13d c212 583d 0541 87bd b4b6 1fbd
00000130: 3942 87bd f088 acbd 627b 413d 97fa 813d
00000140: 9f6d f8bc 85f9 263d 84b0 e23c 4de2 94bd
00000150: 607d 52bd b9fe ac3d e688 8dbd a2d3 0bbd
00000160: 2e8f a93d 5592 093d 3cf4 afbc 3fee 70bd
00000170: b6c2 87bc 45a0 f7bb 2d7a abbd 2711 093d
00000180: 3031 2dbc 6f51 1cbd a214 80bc 339a 62bd
00000190: 7ea5 82bd de10 abbd 3ecf 003d 97df a13c
000001a0: 3cfb a3bd b86f b8bd 639e 95bd 3c00 95bd
000001b0: 7b6f e5bc aa17 6b3d cfc4 983d 96bf 273d
000001c0: 18db 28bd 7544 b7bd 2389 8a3d 7013 fd3c
000001d0: c0ef f63c ad6d 11bc 4ab8 4f3d a221 19bd
000001e0: 16e3 953d e074 633c e0e9 c7bc 86f8 ca3b
000001f0: f471 a3bd 31e4 a7bd 6ddd 763d df03 783d
00000200: 5853 6ebd da58 183c b21e d5bc a445 163d
00000210: 58e1 aabd 21f4 3fbd cba3 5fbd 02f7 66bd
00000220: 1dbb 893d 3e46 203d 06e1 98bd 295b c53c
00000230: 2b52 f7bb 5017 813b d066 233c d27a bb3d
00000240: 7098 80bd 2db7 98bd 26b1 afbd 762a 3e3d
00000250: 0d75 843c 308a 0a3d 2914 9c3d d691 3a3a
00000260: b723 823d f8e4 62bc 0d75 f8bc c0fd fdbc
00000270: 6ddb ac3d 3861 083c 71af 90bc 1434 c63c
00000280: 80a5 21ba df8e b13d 801f 393a e463 6abd
00000290: 7c88 993d 7a26 5ebd 90fd fcbc bf49 91bd
000002a0: 4d6a 8cbd 7365 5e3d 0fe7 dbbc fca2 2fbd
000002b0: a044 d43b 9077 1c3c 4a3b fe3b fb27 adbc
000002c0: b9bb ebbc b88a 913c d79b a6bc d8a9 87bc
000002d0: f66c 253d b01e d53c edce 193d 1f0f ac3d
000002e0: deb6 813d c671 023d 0cd8 2cbd adf3 8d3d
000002f0: 132a 9f3d c05a b53c 4b85 6cbd 40ca 53bd
00000300: 4785 163d c2ec af3c 3075 8b3d 93cf 023d
00000310: 2d52 a33d 766f 14bd b576 79bd fc90 7ebd
00000320: d795 32bd 05c8 87bd ca46 083d e24a 763c
00000330: f454 993d 923b 5e3d f60e b53c 2652 623d
00000340: cca6 89bd 3725 9bbd ac93 4fbd 570d 6cbd
00000350: dfc0 37bd 3df6 a5bc b7ec 55bd 062b 7b3d
00000360: ac90 09bd a0a5 123c a7ef 9e3d 9590 8e3d
00000370: e74c 873d b04d 40bc 00a6 f43c 193d 9a3d
00000380: 55f3 a13d 9c0f 81bc bdc2 bcbd 6029 85bd
00000390: eaa3 73bd 6672 9cbd 1087 5e3d 96b1 59bb
000003a0: 8452 87bd 9969 a03d e939 053d 745f 8bbd
000003b0: 4816 aabd 02c7 02bd e037 493b fcbc 09bd
000003c0: cf24 b03d f989 053d bcf9 0cbd 7c23 2fbd
000003d0: c9a4 acbd a3eb 1bba 06b6 303d 74b5 a13c
000003e0: 638e 923d 4a1c 3a3d 97a3 d2bc 1066 cf3b
000003f0: 8602 73bd cf7f b0bd 3380 5c3d 473e a7bd
0.037624937 -0.07600343 -0.03820162 -0.052817374 -0.07198964 -0.005661247 0.028557852 -0.049975753
-0.073775195 -0.026487209 -0.050427783 0.065897174 -0.09234989 0.044362985 0.056537114 0.03560636
0.0074449317 0.021955533 0.00014664189 0.050443016 -0.0027024453 -0.08266811 0.042783238 0.041063398
-0.06701779 -0.040542945 -0.030629683 -0.03989511 -0.01151181 -0.036201425 -0.042256348 0.08498261
-0.070710674 -0.056066222 -0.061156895 -0.048337974 -0.082847506 -0.020666286 -0.0030248985 -0.042485893
-0.032358464 0.056559335 0.062322043 -0.07363455 -0.052116282 0.02678867 -0.083296195 0.011848528
-0.033910744 -0.031262267 -0.066816986 0.042622857 0.005753495 -0.022387495 0.06952762 0.057606824
0.058379117 -0.043306954 -0.042715464 0.018850483 -0.032663472 0.05502888 0.0074394424 0.087842025
0.034808327 0.07924954 -0.0671829 -0.014664707 0.008987755 -0.08454575 0.07038541 0.07623788
0.07906804 0.052752264 -0.06604198 -0.0389926 -0.06604428 -0.08424556 0.047236808 0.06346624
-0.030325709 0.040765304 0.02767206 -0.07269726 -0.0513891 0.08447022 -0.06910877 -0.034137376
0.082792625 0.03358682 -0.021478765 -0.05882096 -0.016572338 -0.0075569474 -0.083729126 0.033463623
-0.010570809 -0.0381636 -0.015634838 -0.055322837 -0.063792214 -0.083528265 0.03144764 0.019759936
-0.080069035 -0.09005684 -0.073056005 -0.07275435 -0.02800726 0.057395615 0.07459413 0.040954195
-0.04122457 -0.08948604 0.06764438 0.030893058 0.030143619 -0.008876246 0.05071286 -0.03738559
0.07318704 0.013882846 -0.024403512 0.006194177 -0.07980719 -0.08197821 0.06026976 0.060550567
-0.05818495 0.009298528 -0.026015613 0.03668751 -0.08343762 -0.04686368 -0.054599565 -0.05638791
0.06725142 0.03912949 -0.07464795 0.02409132 -0.007547637 0.0039395466 0.009973243 0.091542855
-0.06279075 -0.07456813 -0.0857871 0.046427213 0.016169095 0.033823192 0.07621033 0.0007117068
0.06354468 -0.013848536 -0.030329252 -0.031004786 0.0844029 0.00832396 -0.017661782 0.024194755
-0.0006166324 0.086698286 0.0007061884 -0.05722417 0.074967355 -0.054235913 -0.030882627 -0.07094144
-0.06856213 0.05429597 -0.026843576 -0.042880043 0.0064779073 0.00954999 0.0077585327 -0.021137228
-0.028776037 0.017766342 -0.020337982 -0.01656048 0.040387116 0.02601561 0.037550855 0.084013216
0.06333707 0.031846784 -0.042198226 0.06931243 0.07771697 0.022138 -0.057744306 -0.051706553
0.036748197 0.0214752 0.06809461 0.03193624 0.07974658 -0.03623911 -0.060904223 -0.062149987
-0.04359993 -0.066299476 0.033270635 0.015032502 0.07486907 0.05425603 0.02210186 0.055254124
-0.06721267 -0.075754575 -0.05067794 -0.05762991 -0.04486167 -0.020259017 -0.052227702 0.061320327
-0.033585235 0.008950621 0.07760554 0.069611706 0.06606465 -0.011737272 0.029864311 0.07531185
0.0790774 -0.015754513 -0.09216831 -0.06502032 -0.059482493 -0.07639007 0.054328024 -0.0033217422
-0.066075355 0.07832641 0.03252593 -0.068053156 -0.08305031 -0.03192807 0.003070347 -0.033627495
0.08600771 0.032602284 -0.034417853 -0.04275845 -0.08429868 -0.00059478934 0.04314234 0.019739844
0.07156064 0.045437135 -0.025712771 0.0063293055 -0.05932858 -0.086181276 0.053833198 -0.08166175

nn_layers.2.bias f4 [128]
00000000: d24e a23d a679 a8bd ef6d 8fbd 9723 3fbd
00000010: 360c 133d 2ccf 3b3d 1ecb f7bc 487f fdbb
00000020: 351a 113d 3e28 9fbd de29 853d b673 ae3d
00000030: 72d0 2abd 188d 73bd c7ab a03d d862 ec3c
00000040: 5b2c a43d a2f8 633c da5d 03bd e077 f53b
00000050: 88d8 55bd 1abf 1b3d ee62 09bd 67e2 b1bc
00000060: c052 5b3b 41b2 193c 9816 9e3c c65d 6d3d
00000070: bcbf be3c 709d a4bc 9d3d 8ebd 2b0b 0a3c
00000080: 55eb adbd 169a 24bd abdc aa3d ab66 35bd
00000090: ec0b 183d 06ba 3d3d 26d6 773d 90d2 17bd
000000a0: 5dd2 3c3d 4a1a 95bd 3a82 3a3d 2aca d33c
000000b0: bdbd 7fbd 8f25 94bc 7a17 26bd 5e93 7ebd
000000c0: 4058 8abc 5901 9fbd aab0 953d e0d2 a7bc
000000d0: 84e7 acbd eb5d aebd 284f 873c 807d 22bd
000000e0: 62fa 6dbd a06c 993d 13c4 abbc 6fa5 423d
000000f0: 0872 4ebc 7999 903c c075 5cbc faa6 e1bc
00000100: f690 a43c a99f 5e3d fd15 08bc fb71 9bbd
00000110: b242 82bd cd38 63bd 859b 443d 269a 31bd
00000120: d51e 81bd 5705 483c c53b 8b3b 65ca 873d
00000130: 9946 84bd 5854 0d3c 0249 493d 56f7 373d
00000140: 7ce5 923d fa63 4a3d 1629 77bb 6af7 25bd
00000150: f15e 7c3d a918 db3c 53c2 833d 9176 0ebd
00000160: 32ae 57bd bd67 72bd fb79 cfbb e32d 8dbd
00000170: 7711 8c3d 1683 103d 6ba7 97bd 73d3 cd3c
00000180: 0a9d 08bc 673a 46bd ad43 3dbd 8997 693d
00000190: a3ed 803d a197 c5bc 7e37 6abd 8086 a93c
000001a0: a8f4 35bc b413 1d3b 263e 803d 624a 503d
000001b0: c0ce b23c 1500 81bc 8c4c a43c f831 9d3c
000001c0: 672a b0bd ed60 51bd 7ffa 5bbc 8297 773d
000001d0: 386e e8bc 5420 9a3d 5fb8 b3bd 6a2c 8ebd
000001e0: 0cab 8e3d b46f 82bd 5a4a 0c3d 2c76 99bb
000001f0: 5ed9 42bd 4314 e63c 26b0 9a3d d981 ae3d
0.0792519 -0.082263276 -0.0700339 -0.0466648 0.035900317 0.04585187 -0.030248221 -0.0077361204
0.035425384 -0.077713475 0.06502126 0.08518164 -0.041702695 -0.05946073 0.07845264 0.028855726
0.08016273 0.013914259 -0.032071926 0.007491097 -0.052208453 0.038024046 -0.033541612 -0.021714402
0.003346607 0.009380878 0.019297883 0.057950757 0.023284785 -0.020094603 -0.069453456 0.008425514
-0.08492152 -0.04018601 0.0834287 -0.044287365 0.037120745 0.046319984 0.060506962 -0.037066042
0.046099056 -0.07280405 0.04553435 0.025853235 -0.062436808 -0.018084316 -0.040549733 -0.06215226
-0.016887784 -0.07763929 0.073090866 -0.020486295 -0.084425956 -0.08514007 0.016517237 -0.039670467
-0.05810011 0.07491422 -0.020967519 0.04752105 -0.012600429 0.017651306 -0.013455808 -0.027545441
0.020088654 0.054351483 -0.008306024 -0.075900994 -0.06360377 -0.05547409 0.047999877 -0.043359898
-0.06304709 0.012208304 0.0042490684 0.066304006 -0.06458778 0.008626066 0.04914189 0.044913612
0.07172677 0.04941175 -0.0037713698 -0.040519156 0.06161398 0.026745157 0.06433549 -0.034781042
-0.05265636 -0.059180964 -0.00633168 -0.06893518 0.06839269 0.035281263 -0.07404979 0.02512524
-0.008338222 -0.04839554 -0.04620712 0.05702928 0.062953256 -0.024120154 -0.057181828 0.020694017
-0.011105694 0.0023968043 0.06261854 0.050852187 0.021827102 -0.01574711 0.020056032 0.019188866
-0.086018376 -0.051117826 -0.013426422 0.060447223 -0.028372869 0.07525697 -0.087754 -0.06942065
0.06966218 -0.06368962 0.034250595 -0.0046832766 -0.04757058 0.028085833 0.07553129 0.0852086

nn_layers.4.weight f4 [49, 128]
00000000: ff8c ed3c dd6d 4abd 17c8 133d 6864 6cbc
00000010: 26ed 1c3d 1db3 9b3d c9fd 993b ceea 2dbd
00000020: 5d49 91bd 780b 153d 2add ed3b 4a6b 0e3d
00000030: b80f 41bc f53d 803d 2cd5 933d 7b07 74bd
00000040: 2cb4 cdbc dc39 fa3b 11fd 81bd 8e10 ebbc
00000050: dcca 61bc 094d 87bd 82d6 adbd 3c0f 2cbb
00000060: 008d 123a 11bd a1bc e010 553b e32d 733d
00000070: 01c4 75bc 9e2d 453d 4c63 e0bc 885a 9cbd
00000080: 0abf 3b3d f143 843c 2041 94bd 555d 943d
00000090: f0e2 073c 5785 5d3d 5be7 18bd 388f 063b
000000a0: 9438 1fbd c143 523d 0971 33bc 614b bfbd
000000b0: bd96 613d 5dbd 713d 09f5 66bd c0f4 64bd
000000c0: be89 28bd 7041 edbb 8090 bbbc 5028 84bd
000000d0: 09b8 c6bd 97db 37bd 0a13 273d 08ca f5bc
000000e0: 9446 e43c 5b45 7ebd b994 94bd 3dee 5fbd
000000f0: 0485 aabc e54a 4e3d e3e2 4abd 23bf 05bd
00000100: b012 c8bd 6859 b63b c119 a13d c2ce 79bd
00000110: 7bce 0ebd 945b 7e3c 4df0 41bd f50d abbd
00000120: 6d96 35bd 0879 8c3c fc3f b7ba 2056 cd3c
00000130: 92b6 2b3c 6e68 3e3d 7a6e 383d 0704 b33d
00000140: 2b45 943b 0039 78ba d02a b3bd 0848 a63d
00000150: c35c 1fbd 4ce0 9fbb cc82 a23c 0f70 62bd
00000160: fa48 98bc 429c 3cbd baef eeba fa41 2cbb
00000170: 6840 74bd 0e04 5a3d 42d9 14bc 2a11 843d
00000180: 5172 dbbc 5102 833d 0880 773c 97fe 143d
00000190: 9c5d a23d f0b5 81bd 0a8b 23bd 0d5e 943d
000001a0: 3f04 45bd 9b81 723d 78f7 9fbd 1223 b0bd
000001b0: 68fc 5f3c 793d 73bc 38bb 023a b2fb 40bd
000001c0: 825a 903c f04c e33c 034c b73c 8e44 a5bc
000001d0: 687b 123d 7ebe bebd 3eae 53bc a8ba eb3c
000001e0: fa54 613d b810 23bd 38ab 7a3c 57a6 3f3c
000001f0: e854 2e3c 99fd fe3c c189 79bd ef61 1e3d
00000200: 9406 573d 78d7 9cbc d05a f53c 96c1 403d
00000210: 1c15 923c 50c2 eebc 540b 9fbd f398 8cbd
00000220: 857a 563d 1d1d 9e3c 6d7f a3bc 82ee 203c
00000230: ecb0 28bd 80d3 f7bc c4da 7b3d 1eda 413d
00000240: 4c7f 88bd 5ec5 42bd 6d17 633c 93f9 9d3d
00000250: e8df 523c 54d6 5f3d eb16 203d daf9 653d
00000260: 9481 98bc b863 79bd 055c 9c3d eacb a7bd
00000270: 6007 a83d e27b 703d f9ee aa3d 830e 80bd
00000280: f230 0dbd c200 fd3c 57b1 993d 88a0 273d
00000290: be0e 3cbb b534 75bd 4cb1 083d 324d 7fba
000002a0: 8083 82bd 08ac 75bd 73a9 a43d 671a f6bb
000002b0: 3381 7fbd 9857 523c dbfe c13d 1def a03d
000002c0: 6051 afbc faa3 4a3d 2e92 a23c d483 95bd
000002d0: 7517 99bd 7268 f03c a9bd 69bd 98fa 073c
000002e0: 82be 633d 0067 2a3c 6d6d 05bd d300 fabc
000002f0: 6088 1fbb efc3 433b c471 abbc fa04 fcbc
00000300: cbbc a0bc 39ea 423c ddbd 613d 51be 2cbd
00000310: 6a67 2e3d ba0e 7d3d 77fa acbd bed3 77bd
00000320: 8f73 aebd 87e4 8bbd 2173 83bd a05f 253c
00000330: df42 46bd 376b 873d 8afe 283d 012b 2ebd
00000340: f3be 003d 61ec 9d3d c53b aabd 9bcc 463d
00000350: b362 8b3d f667 9b3d 90e3 abbd 0953 a8bd
00000360: fc2e 363d 511c 93bd dd72 bd3b 8ee8 19bd
00000370: 8095 da3b ce4a 7f3d 1ec7 1d3d 6d76 6dbc
00000380: ebfd 683c 33a0 233d e80f 89bd 8f9e b03d
00000390: e8c8 343d de9c b639 7e55 973d 1fa9 2e3d
000003a0: 580e 443c e0cb 5abb 22b1 94bd 5a64 9bbc
000003b0: 0ee6 89bd fc97 f13c 89ac 0f3c aafa 4f3d
000003c0: 5c60 713b dca4 b1bc 5859 7f3d b840 87bd
000003d0: 4e3b 95bd 5df8 573d 08c5 30bc 6692 573d
000003e0: fca6 383b da88 983c aa34 aabd d055 22bd
000003f0: a656 433d 7e77 dc3c f688 9dbb 3e95 7d3d
0.028997896 -0.04942118 0.036079492 -0.014428236 0.0383121 0.076025225 0.004699443 -0.042460255
-0.07094071 0.03638789 0.007259031 0.034770288 -0.011783533 0.06261817 0.07218394 -0.059577446
-0.025110327 0.007636292 -0.06347097 -0.028694417 -0.013781276 -0.0660649 -0.0848818 -0.0026254198
0.00055904686 -0.019743474 0.003251128 0.059369933 -0.015000344 0.048139207 -0.027391098 -0.07634455
0.045836486 0.016145678 -0.07238984 0.07244364 0.008293852 0.05408224 -0.037330013 0.0020532142
-0.038872316 0.051334146 -0.010952243 -0.09340549 0.055075396 0.05901848 -0.056386027 -0.055897474
-0.041146986 -0.007240467 -0.022896051 -0.064530015 -0.09703071 -0.04488715 0.04078964 -0.030003563
0.027865686 -0.06207786 -0.07254929 -0.05467056 -0.02081538 0.050364394 -0.049532782 -0.032652985
-0.09769189 0.0055648573 0.0786624 -0.060988195 -0.034864884 0.015524764 -0.04734831 -0.083522715
-0.04433291 0.017147556 -0.0013980861 0.025065482 0.01048054 0.04648631 0.045027234 0.087410025
0.004524847 -0.0009468943 -0.087484 0.081192076 -0.038906824 -0.004879033 0.01983776 -0.05528265
-0.018589485 -0.046047457 -0.0018229403 -0.0026284442 -0.059631735 0.053226523 -0.009085001 0.06448586
-0.026787909 0.06396926 0.015106209 0.03637561 0.07928011 -0.0633353 -0.03992752 0.07244501
-0.048099753 0.059205633 -0.07810873 -0.08600439 0.013671018 -0.014846199 0.0004987004 -0.047115035
0.017621282 0.027746648 0.022375112 -0.020174291 0.03576222 -0.09313677 -0.012919961 0.028775528
0.05501268 -0.039810866 0.015299611 0.011697373 0.01064036 0.031126784 -0.060922388 0.038667616
0.052496508 -0.019145712 0.02995053 0.047059618 0.017832331 -0.02914539 -0.077658325 -0.0686511
0.052362937 0.019300992 -0.019958222 0.00982249 -0.04118435 -0.030252218 0.061487928 0.047327153
-0.06664905 -0.047551505 0.013860566 0.07713618 0.012870766 0.05464776 0.039084356 0.05614648
-0.018616475 -0.060886115 0.07634739 -0.081931904 0.08204532 0.058711894 0.08346362 -0.06252768
-0.034470506 0.03088415 0.07504528 0.04092458 -0.002869531 -0.05986472 0.03337221 -0.0009738981
-0.06372738 -0.059978515 0.080401324 -0.0075104716 -0.062379073 0.012838267 0.09472438 0.07858107
-0.021401107 0.049472786 0.019845095 -0.07300535 -0.07475177 0.029346678 -0.05706564 0.008299492
0.055601604 0.010400534 -0.03257506 -0.030517971 -0.002434276 0.0029871424 -0.020928271 -0.030764092
-0.019621274 0.011896663 0.05511271 -0.042173687 0.042579092 0.061781622 -0.0844621 -0.060504667
-0.08518135 -0.068306975 -0.064184435 0.0100936 -0.048403617 0.066122465 0.041258372 -0.04252148
0.031432103 0.07711101 -0.083121814 0.04853497 0.06805935 0.07588188 -0.083930135 -0.08218963
0.0444784 -0.07183135 0.005781515 -0.037575297 0.006670654 0.0623272 0.03851997 -0.014493567
0.014220695 0.0399477 -0.06692487 0.08623993 0.04413691 0.0003483062 0.07389353 0.042641755
0.01196631 -0.003338568 -0.07260348 -0.01896875 -0.067333326 0.029491417 0.008769163 0.05077616
0.0036831116 -0.021685056 0.062341064 -0.06604141 -0.07286702 0.052727092 -0.010789163 0.05262985
0.0028175702 0.018619943 -0.08310826 -0.03963262 0.047690056 0.026912447 -0.004807587 0.061909907

nn_layers.4.bias f4 [49]
00000000: dd4d d3bc 9ee0 0dbd 9a61 8abd 8789 0abd
00000010: d5d6 923c 927b 073d 8c07 953d c4f7 75bd
00000020: e884 c63b 76ff 8abd 521c fd3c 8ecc ad3c
00000030: c26a 2a3d 49c1 443d 5d86 88bc c4ee 023d
00000040: a262 39bc 6625 be3d 9cd5 9c3c 9d49 143d
00000050: 2574 fdbc 0eac 3ebc 3a62 833d 34ab 90bd
00000060: f30c 223d 6b32 a43d 488e 6fbd c6f4 78bd
00000070: 5056 be3c 0811 bf3c d27a 1fbd 1532 07bd
00000080: ccef 98bd eff5 813d e288 39bd 70c1 87bd
00000090: 7076 e43c c4ee 75bd c1bb 8d3d 4b60 1bbd
000000a0: cade 223d 601b 273c 9045 f43c 00fd dabb
000000b0: 9c50 8a3c 2ce0 873d 7dfe 35bb 66a7 5bbc
000000c0: 8655 99ba
-0.025793964 -0.03463804 -0.06756897 -0.033822563 0.017924706 0.03307683 0.0727683 -0.06005074
0.006058324 -0.067870066 0.030897293 0.021215703 0.04160572 0.048035894 -0.016665632 0.031965986
-0.01131502 0.09284477 0.019144826 0.036203016 -0.030939171 -0.011637701 0.064152196 -0.070639044
0.03956313 0.08017429 -0.0584853 -0.06078031 0.023234516 0.02332355 -0.03893549 -0.033006746
-0.074676126 0.06345736 -0.045296557 -0.06628692 0.027888507 -0.060042158 0.06920577 -0.03793363
0.03976325 0.010199398 0.029818326 -0.006682992 0.01688414 0.06634554 -0.0027770095 -0.01340661
-0.0011698462
