jengazero_data/old_jengazero_nim_featureset/checkpoints/90/model.pkl (torch_old, 100175 bytes, 6 tensors)

nn_layers.0.weight f4 [128, 14]
00000000: 5d1d 633e 3e1b 1e3e 6990 3abe e894 acbc
00000010: 9c3a bb3d 8dfd b1bd 4b2a 7abe ee75 31be
00000020: 68c7 993d c25a 893d da76 4f3e 1d7e 79be
00000030: 595d 293e 6239 7dbe 7309 7f3e f2d7 86be
00000040: d323 96bd 14d8 2fbd 4a11 9e3d 341e 86be
00000050: 2d86 4a3d ea78 7d3e 724c d63d f782 633e
00000060: ca2e e53c b761 11be 9f39 bebd 01a8 d1bc
00000070: 3040 f83d 306f d03d 8a70 3abe 7776 493e
00000080: 90e7 7abc 7def 103e 85b7 bdbc 7620 d9bc
00000090: dd4d 3f3e 64ef 54be 626e c03a 5699 79be
000000a0: 466f 3d3d 651b 403d 5626 68be 02b1 953c
000000b0: cff6 593e ac62 1b3d 9966 9b3d 35ec 06bc
000000c0: 96db 0a3e 37ad 59bc 1b99 37bd 3da0 fbbd
000000d0: d969 cd3d 377c 73bd 45df 35be 9d6d 193e
000000e0: ec2b 433e 5c8a 873d 318b 9bbd 63f0 3dbe
000000f0: 40bc 173e efc9 603e 2c97 243e 7872 51be
00000100: 280a 18be e748 9e3d 570f 44be 74eb 1a3e
00000110: 12a8 4a3e 6235 6d3e f171 63be b1c5 20be
00000120: bcb4 5f3e 395f 7f3e 235f 6b3d 2e48 32bd
00000130: e432 8e3e 1ffe 093e 0779 953e 0af8 63bd
00000140: 0b4b 79be 1038 613e ea6a fdbd 53b4 813e
00000150: fdf4 a73c 40d9 82be 30ca 77be ffad 3e3e
00000160: 9a31 4d3e ea55 55be 34a9 22bd 87be 77bd
00000170: 4b4e 2abe 1f27 01bd 4d01 81be be00 e13c
00000180: 62b8 2c3e 92ad 1e3a 88fb 203e 6fce c63d
00000190: 7f9d 69bd 4b31 eebd 5b4e 6e3e 8483 94be
000001a0: 0738 af3d 669a 44be 9d36 ab3d a93b f3bd
000001b0: a88e 65be 6c03 1bbd 54bf 593e 32f9 333e
000001c0: 6ddf 253e 58a0 22be 363b 20be 7476 5dbe
000001d0: 559a 2cbd e60c 0ebc f9c3 60bd e433 32bc
000001e0: 9f8a e23d 66fc 4bbe 1bab 4fbe d5d9 ba3d
000001f0: 4e4c bcbc 1e66 4cbe e3d8 47be 215f 81bd
00000200: cd2d 053d 395a b43c 3b83 30be f3ee 6e3e
00000210: ce3a 82be 1889 6a3d 027b 483e 28a4 89bd
00000220: 7cf6 57bd 5729 413d c295 85be 0e68 2cbe
00000230: 39b5 83bd ffc8 51bd d0e5 463e 51e5 ecbd
00000240: 9f82 913d 45f7 b1bd debd 213e b114 70be
00000250: 231b 85bd a99d 603e 4397 493e 1544 cb3d
00000260: 0348 cc3d c983 823b 07b6 0d3e 94ba 2dbd
00000270: f416 583d 941c 41be 678e 1e3e 9629 ee3d
00000280: d294 98bd d98b c6bd 50f1 0c3e be34 f7bd
00000290: 49a7 14be c73d 903d 9a02 40be 9d54 393e
000002a0: 4959 83be cfcf 60be 09ec 7cbe 54d6 5fbe
000002b0: 3e3c a63d c960 6ebe 0371 04be 8b4c 7abe
000002c0: 3610 703e 7bff 0ebe f7e5 34be 9555 67bd
000002d0: 96b8 8fbd 40fd dabb 4387 dd3d 15e1 69bc
000002e0: 8a06 79be 3d2e 7f3e 4897 33be a0a4 8b3c
000002f0: 085f 7d3e 2e5f 89bd f6bb 0f3e b0e7 6c3e
00000300: c984 a9bc 7767 1cbd 9472 8abd 2d30 343d
00000310: 1d6f 67be a0bf eabd fc89 65be 27f6 08be
00000320: a227 453e 9875 52bc 8b23 babd d801 d5b7
00000330: 40c1 363d a014 1cb8 1b2f b63d 4a32 1cbc
00000340: 5627 c13c 9ee9 75bd d43c 7cbe 974f fcbd
00000350: d311 2abe c41d c33d 04cb 69bb 4845 193d
00000360: 668a 2e3e dde6 75be e100 5bbd 09aa 4e3e
00000370: f30d 773e 8a4a 0abe b72e 53be 00ca 5ebe
00000380: 31c9 a1bd 01cd 49be 0337 693e 01ac 0bbe
00000390: be6c aa3d 80b8 1d3e 61cc 093d 6a9f a73d
000003a0: 99e9 b4bd a0bd 503e 2b22 6abe 49bf 88be
000003b0: 8aea 5e3e d96f f53c d5dc 743c fa28 d13d
000003c0: af53 7bbd 1522 6abe 9abe d4bb 1841 85be
000003d0: 0ffa 123e 12b6 7dbe e868 46be 5925 0ebe
000003e0: aabd 36be 65f2 3a3e 5778 283a febf 4fbd
000003f0: 26dd 3b3e 86d1 09be 0193 393e ba3a c63d
0.2217917 0.1544008 -0.1821915 -0.021067098 0.09142038 -0.08690939 -0.24430196 -0.17330143
0.07508737 0.06706764 0.20260182 -0.24364515 0.16539516 -0.24728921 0.24905948 -0.26336628
-0.07331052 -0.042930678 0.077181414 -0.26194918 0.049444366 0.24753156 0.104637995 0.22217928
0.027976412 -0.14197432 -0.09288334 -0.025592806 0.12121618 0.10177457 -0.18206993 0.19674097
-0.015313998 0.14153858 -0.023158798 -0.026504736 0.18682046 -0.20794445 0.0014681334 -0.243749
0.046248697 0.046901125 -0.22670874 0.01827288 0.21285556 0.037935898 0.07587928 -0.008235027
0.13560328 -0.013285927 -0.044823747 -0.122864224 0.100299545 -0.059444632 -0.17760952 0.1498322
0.19059724 0.06618187 -0.07594908 -0.18548732 0.14817905 0.21952032 0.16073292 -0.20453823
-0.14847624 0.07728749 -0.19146477 0.1512888 0.19790676 0.23164895 -0.22211434 -0.15700413
0.21846288 0.24938668 0.057463776 -0.043525867 0.277732 0.13475846 0.291939 -0.05565647
-0.24345033 0.21994042 -0.12373908 0.2533289 0.020502562 -0.25556374 -0.24198222 0.18621062
0.20038453 -0.20833555 -0.039712146 -0.060484435 -0.16631429 -0.03153145 -0.25196305 0.027466174
0.16867211 0.00060530857 0.15720952 0.09707343 -0.057034966 -0.11630496 0.23272078 -0.29006588
0.08555608 -0.19199523 0.08360026 -0.11876614 -0.224177 -0.03784506 0.21264392 0.17575529
0.16198511 -0.15881479 -0.15647587 -0.21627218 -0.04213937 -0.008670067 -0.054874394 -0.0108766295
0.11061596 -0.19920501 -0.20280115 0.091235794 -0.022985604 -0.1996083 -0.1951633 -0.063169725
0.032514382 0.022015678 -0.1723756 0.2333334 -0.2543549 0.05725965 0.19578174 -0.067207634
-0.0527253 0.047158565 -0.2609082 -0.16836569 -0.0643105 -0.051217075 0.19423604 -0.11567176
0.07104992 -0.08689741 0.15795085 -0.23445393 -0.064993165 0.21935143 0.19686608 0.09925095
0.09974673 0.003982995 0.13838969 -0.042414263 0.052756265 -0.18858558 0.1548401 0.11629026
-0.0745026 -0.096946426 0.13763928 -0.12070607 -0.14516939 0.07043033 -0.18750992 0.18098684
-0.25654057 -0.21954273 -0.24699415 -0.21859103 0.08116959 -0.23279108 -0.12933736 -0.24443261
0.23443684 -0.13964646 -0.1766585 -0.0564781 -0.07017629 -0.006683022 0.10816815 -0.014274855
-0.243189 0.24919982 -0.17538178 0.017046273 0.24743283 -0.06707607 0.14036545 0.23135257
-0.0206932 -0.03818461 -0.06760135 0.043991257 -0.2260098 -0.11462331 -0.22415918 -0.1337515
0.192534 -0.012845419 -0.090888105 -2.5392437e-05 0.04461789 -3.7212507e-05 0.088957034 -0.009533474
0.023578327 -0.060037248 -0.24632579 -0.12319868 -0.16608362 0.09527162 -0.0035673985 0.037419587
0.17044982 -0.24013849 -0.053467635 0.20182051 0.24126415 -0.13504997 -0.20623289 -0.21756744
-0.07899702 -0.19707109 0.22774892 -0.13639833 0.08321522 0.15402412 0.033642177 0.08184703
-0.08833618 0.20384836 -0.22864597 -0.2670844 0.21769157 0.02996056 0.014945229 0.10212894
-0.061359104 -0.22864564 -0.006492448 -0.26026225 0.14353202 -0.24776486 -0.19375956 -0.13881435
-0.17845789 0.18256529 0.00064266234 -0.050720207 0.1834608 -0.13458833 0.18122484 0.0967917

nn_layers.0.bias f4 [128]
00000000: 4690 cb3d d665 163e ef8f 2bbe d395 66be
00000010: 54e3 17bd 664a cebd e4f6 213e 8d76 c03d
00000020: 360a a6bd c7f0 673e fd1e 50bc 70ce 593c
00000030: 2571 04be e33b 553c 743e 973d 67e0 bf3d
00000040: 3a74 4d3e f904 333e cac0 21be d567 0c3c
00000050: a991 a6bc 2b65 8abd e951 44bd 33b4 7abe
00000060: 2fe5 603e 026d 613e 44a6 713e d396 a13d
00000070: c90f 26be 0142 49be 77f1 dc3d 82bd 5fbd
00000080: 5397 863e 40c0 ba3d c04d 623d f04c de3c
00000090: ed18 68be 97b4 97be 67ed 66bd b086 09be
000000a0: 6c3d 77bd b84e 943d bfcd ec3d ddd1 51be
000000b0: 4d03 e7bb a8bd 47bd 31a3 5a3d 5ed6 7fbe
000000c0: f545 ea3d 4349 193e a202 ff3d 7058 debd
000000d0: 0a36 23be ab18 f4bd 30bd 14be c7c6 433e
000000e0: fafb 0abc f265 be3d c050 133e 4c14 73be
000000f0: 3dd0 583b f924 f2bd 3c1e 553e 8298 6ebe
00000100: 7a76 263e 7453 a53d 402f 383e 0f81 5fbe
00000110: e34a 12be ce79 823e 22ef 9d3d 85cc 233d
00000120: dd2d 7a3e 7d6c 4dbc 6440 df3d c0fd fc3d
00000130: 6d09 14bd 0b66 e33d 0be2 7e3e ac8b 683d
00000140: 6208 503e 1bcd 533d 3ae6 11bd 9a32 7cbe
00000150: f400 35bd f9bd 923d 2e23 c83d 48f5 27be
00000160: a710 0b3e 38e6 723e b8d4 4b3e 5bff 93bd
00000170: 93ca 67bd 8609 283e d6b7 2ebd 44b5 053e
00000180: e40f a03c b78f ddbc 9516 f4bd bca5 eabd
00000190: f325 55be b048 d3bd d8cc 26bb e3b1 493e
000001a0: 2376 58bd 23d4 b43d 88a5 fabd 0b05 1b3e
000001b0: c581 35bc cfbe 44be 1113 6fbe 5164 85be
000001c0: 2139 debd 3e03 613e 4501 31bd 7f5c debc
000001d0: 1748 71be 7a70 af3d e0c8 d73d c274 8bbe
000001e0: c7b2 63be 260a b83c d9c7 2a3e 5842 5dbe
000001f0: c11e 9ebd 5408 32be 34ab 9e3d 4264 1b3e
0.09939627 0.14687285 -0.16754125 -0.22518091 -0.03708203 -0.10072784 0.15816838 0.09397612
-0.08107416 0.22650443 -0.012702701 0.013293847 -0.12933786 0.013014766 0.07384959 0.09368973
0.20063868 0.17482366 -0.157962 0.008569677 -0.020333128 -0.067575775 -0.047929678 -0.24482803
0.21962427 0.2201424 0.23598582 0.078900956 -0.16216959 -0.19654085 0.10788243 -0.054624088
0.26287326 0.091187 0.05524993 0.027136296 -0.22665758 -0.29629967 -0.05637875 -0.13430285
-0.06036131 0.07241577 0.115626805 -0.20490213 -0.007049954 -0.048764855 0.053378288 -0.24984118
0.114391245 0.14969353 0.12451674 -0.10856712 -0.15938583 -0.119187675 -0.14525294 0.19118796
-0.008482927 0.09296788 0.14386272 -0.23738211 0.0033083104 -0.11823458 0.20812315 -0.23300365
0.16256133 0.08072558 0.17986774 -0.21826576 -0.1428638 0.25483555 0.077116266 0.039989967
0.24431558 -0.012538073 0.109009534 0.123530865 -0.0361418 0.111034475 0.24890916 0.056773826
0.20315698 0.051709276 -0.03561995 -0.24628678 -0.044190362 0.07165141 0.09772335 -0.16402161
0.13580571 0.23720634 0.19905365 -0.072264396 -0.056589674 0.16409883 -0.04265579 0.13057429
0.019538827 -0.027046068 -0.1191837 -0.114573926 -0.20815258 -0.103165984 -0.0025451686 0.19696765
-0.05284704 0.08829524 -0.12238604 0.15138642 -0.011078303 -0.19213413 -0.23347117 -0.26053098
-0.1085074 0.21973893 -0.0432141 -0.027143715 -0.23562656 0.08566375 0.10536361 -0.27237517
-0.22236167 0.022465777 0.16677798 -0.2160734 -0.077207096 -0.1738599 0.07747498 0.15174964

nn_layers.2.weight f4 [128, 128]
00000000: e7be 8d3d 305e 593d f50a 61bd a9e0 b2bd
00000010: b65d 473d a457 7fbd bcd5 00bd c0bb 9e3d
00000020: 3e85 b2bd 6a32 073a 564d abbd ff1d 643d
00000030: d580 0ebc 8f75 8c3b 57f5 233d ad2e 63bd
00000040: df54 77bd cf1b dc3d 2a64 dfbc 7357 903d
00000050: 1afb 313d a4eb 86bd 0de7 eb3c 4238 503d
00000060: 0505 17bc 2a0f ea3b 31bb 93bd 9939 a63c
00000070: efc1 0bbd 1fff b33d c3ec 6d3b f42d 053d
00000080: 0b3a 263b 29d8 993d 5f06 3ebd 34dc 513d
00000090: 6c9c 4d3d d611 92bd 6efd e73c a7bc c1bc
000000a0: 7e6c ab3b 8833 23bc 71fd 883d 4c51 1d3b
000000b0: 0a49 853c 6c03 8bbd e907 e7bc 6f70 943c
000000c0: 6452 69bd 2a97 1f3d 777f 8a3d a6b8 ec3d
000000d0: f18f 92bd 4781 023c 2b7a 3f3d bd04 a83c
000000e0: ba7f 9d3d c645 eb3c e970 6dbd 9716 68bd
000000f0: 243f 18be df31 ae3d d880 8cbd ee85 b03d
00000100: d226 47bd 3c06 87bd 1528 08bd 69cc 0a3d
00000110: b101 2f3d c1b7 19bc 57a5 a2bb 5477 213d
00000120: 38bd 3bbd ea52 aabc edc8 94bd b592 753d
00000130: 66a1 afbd b4ee e03d b04d 7f3c d51d 023d
00000140: dde8 ad3d bf40 1abd 9603 003b 1831 af3c
00000150: 2c43 6a3d 0aa3 a7bc ef99 51bd 17c0 4b3d
00000160: 3ffa a0bc b3b4 263d 2f1e 0a3d 2b31 193d
00000170: af54 453d 8361 cdbd f115 3ebd dc52 a53c
00000180: 68ae 6d3d 70d3 0fbd 36e6 80bd a2fe 883d
00000190: cbe0 afbd ea60 763d 435e 343d 0db3 aebc
000001a0: 05d3 a73c b504 a63d f131 50bd ed2d 9abc
000001b0: 8913 b53c f953 04bd 50cf 58bc da3d c03d
000001c0: f1ec 8a3d 73b1 9ebd 127a aa3c 6602 a63d
000001d0: 9bb5 8d3d 4062 6f3d 1846 903d 154c dfbc
000001e0: d1d9 5b3d ae48 6d3d b34f 043c cf88 ae3c
000001f0: c0a4 9a3d 2765 a73d 5fc0 173d 4905 b8bd
00000200: 91cd 163d 57cf b3bd eb09 793b d610 41bd
00000210: 483e 953d 5d3a 383d e7c6 3ebd 07b3 3c3d
00000220: f84e 0ebd 7e74 35bc e013 693d c55d e33c
00000230: 0c64 88bb 6eec ccbc 63ad 173d 9963 3f3d
00000240: 1d80 25bc 991b d5bd 1fa1 a3bd e808 56bc
00000250: 03cf 0ebd e343 91bd e3b7 66bd 9d38 e4bd
00000260: 6d8d 9f3d c059 253d ebf4 62bd e6d9 6c3d
00000270: c96c 8f3b b592 a8bd 14d8 193c a96c 2dbd
00000280: 454e 973d 33d2 3d3d 2c08 98bd 4374 48bd
00000290: 375d 8dbc 2268 a8bd 60bc 033e 8faa 97bd
000002a0: 8504 d8bd eb68 393c 595a 89bd 1293 963d
000002b0: 6d80 7dbd d415 92bc 1772 15bd d3a2 8d3d
000002c0: 8049 91bd e09e 4abd 0378 02bd b3ad adbd
000002d0: 0e1c 39bc f14c ddbb e575 8b3c e6f1 04bd
000002e0: b6bf 79bc 2a8c 5ebb 0652 21bc c2bc 983d
000002f0: 1adc e3ba f01c 813d 940c 9ebd a6ec a8bd
00000300: 5677 8b3d 0fb4 a73d ac49 9ebd 63c7 4b3d
00000310: f467 a4bd fb3f 073d 8234 a3bd 30fa 9bbc
00000320: 4ba4 39bc 950f ab3d 234a 313d 50f4 d53b
00000330: b33e 48bc 7030 133d aa03 6bbc 8a06 f43c
00000340: 1999 8d3d 3fe3 34bd d5b0 b13d d9e6 04bd
00000350: cbb5 f43c 2265 493d b029 173c 37c5 35bd
00000360: ba00 2dbd c874 073c 1109 92bd 86c4 28bd
00000370: 0fa8 aebd 340f bd3d 69cc d13b c9e6 493d
00000380: 885d 903c 8acd 843c fc6b e43c 3eba 5b3d
00000390: 6538 9d3d 8c8f a0bd 70a3 413d 04cc 92bd
000003a0: da13 723d 6c14 ebbc 81f0 c13d d7d8 8e3d
000003b0: ae26 b03d 30ec a9bd f6e7 84bd f1b9 3bbd
000003c0: 552a 813d a5bd 96b9 4db1 8b3c 00c8 44b8
000003d0: 0887 053d 4dcf bb3d 9d3b 14bd 07e4 15bd
000003e0: 1cef cf3d d7a5 823c 7df1 063e 975f bc3c
000003f0: c88a 803c d67f 21ba 3526 88bd f84d 5b3d
0.06921177 0.05306834 -0.05494209 -0.08734257 0.048673354 -0.06233944 -0.031453833 0.07750654
-0.0871682 0.00051573536 -0.0836436 0.05569267 -0.008697708 0.004286475 0.040028896 -0.055464435
-0.060383674 0.107474916 -0.027269442 0.070479296 0.04345236 -0.06587914 0.028796697 0.0508349
-0.009217505 0.007142921 -0.07213438 0.020291137 -0.034120496 0.08788895 0.003630445 0.032514527
0.0025364186 0.075119324 -0.046392795 0.051235393 0.050198004 -0.07132308 0.028319087 -0.023649527
0.005231439 -0.0099610165 0.06688965 0.0024004756 0.01627018 -0.06787762 -0.028202014 0.018120019
-0.05696334 0.03896252 0.06762593 0.115586564 -0.07156361 0.007965392 0.046747368 0.020510072
0.076903775 0.028719794 -0.057969008 -0.05666217 -0.14867836 0.08505606 -0.068605125 0.08619295
-0.048621006 -0.06592986 -0.03324135 0.033886347 0.042726222 -0.009382189 -0.0049635577 0.03942044
-0.04583475 -0.02079149 -0.07264886 0.059954364 -0.08575706 0.10983029 0.015582487 0.03176673
0.08491681 -0.037659403 0.0019533387 0.021385714 0.057192966 -0.020463485 -0.051172193 0.049743738
-0.019650577 0.040699672 0.03372019 0.037400406 0.048176464 -0.100283645 -0.046407644 0.020181112
0.058027655 -0.035113752 -0.06293909 0.06689192 -0.08587798 0.06015102 0.044035207 -0.021325612
0.020486364 0.081063665 -0.050828878 -0.018820727 0.022104042 -0.032306645 -0.013233021 0.09386797
0.06783474 -0.077486895 0.02081016 0.08105926 0.06919404 0.058443308 0.07044619 -0.027257958
0.053674523 0.05793064 0.008075642 0.02130547 0.07550955 0.0817359 0.037048694 -0.08985383
0.036817137 -0.08779781 0.0038000296 -0.047135197 0.0728727 0.044977535 -0.046576407 0.04606917
-0.03474328 -0.011075137 0.05690372 0.027754674 -0.004162317 -0.025015082 0.03703059 0.046725843
-0.010101345 -0.104056545 -0.07989716 -0.013063647 -0.03486539 -0.070930265 -0.05632771 -0.111436106
0.07790647 0.040368795 -0.055409353 0.05782499 0.004376982 -0.08231107 0.009389896 -0.042339955
0.073879756 0.04634304 -0.07423434 -0.048939 -0.017256362 -0.08222987 0.12864828 -0.07405578
-0.10547737 0.011316518 -0.067066856 0.0735227 -0.061890054 -0.017832674 -0.036485758 0.06915822
-0.07094097 -0.04946792 -0.031852733 -0.08480396 -0.011298193 -0.006753557 0.01702399 -0.032457255
-0.015243461 -0.0033958056 -0.009846216 0.07457878 -0.0017384321 0.063043475 -0.07717243 -0.08248262
0.06809871 0.0818864 -0.077288955 0.049750697 -0.0802764 0.03302 -0.079689994 -0.019040197
-0.011330674 0.083525814 0.043283593 0.0065293685 -0.01222198 0.035934865 -0.014344135 0.029788274
0.06913967 -0.04416203 0.08676306 -0.032446716 0.029871842 0.049168713 0.009226248 -0.04437753
-0.04223702 0.008267589 -0.071306355 -0.041203044 -0.085281484 0.092314154 0.0064025414 0.04929236
0.017622724 0.01621129 0.027883522 0.05364441 0.07676772 -0.078398794 0.047275007 -0.07167819
0.059100963 -0.028696261 0.094697006 0.06974953 0.086011276 -0.08297002 -0.064895555 -0.045831624
0.06306902 -0.00028751526 0.017052317 -4.6916306e-05 0.03259948 0.09170399 -0.036189664 -0.036594417
0.10153028 0.01594822 0.13178058 0.0229948 0.015691176 -0.00061607116 -0.066479124 0.053541154

nn_layers.2.bias f4 [128]
00000000: b0d4 4e3d 0120 a23d e45e 96bb 60e8 83bd
00000010: 9bac 73bb 2d03 723b 9a02 b7bd c436 2f3d
00000020: 4e0b 3f3c 2212 bdbb 3cdc 9bbd c4ca 68bc
00000030: 1e5d 813d 4f6c a13d c261 803d 47e2 983d
00000040: 55f4 a63d ade8 393d 4cfd 80bd 362e 2ebd
00000050: f80f 84bd 68cc 8a3d 09dd b6bd ce45 c6bb
00000060: 20ea 8e3c 391d b6bd e48c 38bb 01e1 253d
00000070: 188a 90bd d4d6 01bd 3350 23bd d237 e9bc
00000080: 37d0 75bd 2e6f dabc 79eb 2cbd c653 843d
00000090: 785b c43c e513 d339 ca39 92bd 3d16 acbc
000000a0: 92bd 9e3d 2a83 923d 53b3 e63a 4f00 67bd
000000b0: 40f6 b33d a7ed 44bd 4f07 e03b bd61 803d
000000c0: cb73 f23c 274b e53b 6a6e af3d 8475 29bd
000000d0: 394b e7bc 4215 4b3d d791 ab3c 1b37 9abd
000000e0: f1b2 e43c e96b 43bd 6190 96bd c825 4fbd
000000f0: dad1 9b3d 6d35 063a 2c3e 143c 55f4 953c
00000100: b35c 86bd 3485 51bd 1224 d1bc ba20 8c3c
00000110: 80e6 62bd f005 0e3d 48ba 95bd ce98 e7bc
00000120: f943 2bbc 1e36 953d dfa0 71bd c3d3 603d
00000130: 2121 b63c c336 a03d 8d96 8cbd 427a f4bc
00000140: dcbe 573d af74 6ebd d2dc 8abb 943e 5d3d
00000150: 4933 913d 1082 b4bd c779 453d 4377 373c
00000160: cf13 093d 88c6 5b3d 71d9 96bd ffd5 8e3d
00000170: 56c4 8abc 14c0 91bc a901 b33d d6c4 063a
00000180: f47f 1b3d ffbb d5bc 2680 8b3c d1e7 f6bc
00000190: c7f4 12bd b923 283d 3cff e03c 1fca 86bd
000001a0: c810 aebd 7f59 97bd 2cd9 35bb 0351 a33d
000001b0: 9870 ac3d 4c66 75bd dd90 443d 292b bd3d
000001c0: 1bf7 313d 9585 6dbb e204 483d b4a3 a8bd
000001d0: 9119 a1bd 7a73 723c 6b07 91bd 1a68 15bd
000001e0: 3d85 c83c e741 9a3d 246f 67bc 06a2 b43d
000001f0: f4de a83d 2d18 97bd 721e 8a3d 33c1 87bd
0.050495803 0.079162605 -0.0045889486 -0.064408064 -0.0037181738 0.0036928162 -0.08936043 0.042776838
0.01166041 -0.005769984 -0.07610366 -0.014208499 0.06316589 0.07881986 0.06268646 0.07465034
0.081520714 0.045387913 -0.062983125 -0.04252454 -0.06448358 0.06777269 -0.08928878 -0.006050802
0.017445624 -0.088922925 -0.002816015 0.040497784 -0.07057589 -0.031699017 -0.039871406 -0.028469
-0.060013022 -0.026664343 -0.04221675 0.06461291 0.023969397 0.0004025988 -0.07139929 -0.021006698
0.077510014 0.07153924 0.001760105 -0.05639678 0.08787203 -0.048078205 0.0068368088 0.06268642
0.02959623 0.0069974842 0.08565982 -0.041371837 -0.028234111 0.04958082 0.020943565 -0.07530042
0.027917357 -0.047710333 -0.07351757 -0.05057314 0.076083854 0.00051196554 0.009048026 0.018304983
-0.0656065 -0.051152423 -0.025529895 0.017105449 -0.055395603 0.03467363 -0.07310921 -0.028271105
-0.010453218 0.07285713 -0.05899131 0.05488945 0.022232594 0.07822945 -0.06864653 -0.029843453
0.052672252 -0.058216747 -0.0042377496 0.054014757 0.0708986 -0.0881387 0.04821184 0.011197868
0.033466157 0.05365613 -0.073656924 0.0697441 -0.016939323 -0.017791785 0.08740551 0.0005141025
0.037963822 -0.02609062 0.01702888 -0.030139836 -0.03587797 0.041049693 0.027465455 -0.0658152
-0.084992945 -0.07390117 -0.0027747853 0.07974436 0.08419913 -0.05991201 0.047989715 0.09236748
0.04344855 -0.0036242951 0.04883278 -0.08234349 -0.078662045 0.01479804 -0.07081493 -0.036476232
0.024477595 0.07532101 -0.014125619 0.08819966 0.0824565 -0.07377658 0.06744088 -0.06628647

nn_layers.4.weight f4 [49, 128]
00000000: 42a8 053d 84b6 58bd 9934 e6bc eec3 3bbd
00000010: 952e d2ba 917a 233d 8f5b 703d 672d e03b
00000020: 2195 a83d 4d0c b63d 17d3 ab3d 84fa b43d
00000030: 5e4b 1f3d d388 f0bc d856 67bd 662e 593c
00000040: cb36 ad3d 4c83 8abd f18f 623d a308 aa3d
00000050: 6cbb 9f3c 08ee 753c e4c4 513c 2da2 123a
00000060: 27ab bdbd 62e1 483d ae8d a23d 3a49 b0bd
00000070: d3ca 25bd aa09 c03d fcf0 fabb 8cef 71bd
00000080: 2d09 8fbd 0592 543d f217 b23c 4d13 123d
00000090: b6ff 453d 07cf fbbc ac8f c83c f667 7f3d
000000a0: 57f5 893c c6a0 9f3d 87c4 423d 9f42 773d
000000b0: 6575 693d 2156 9c3d 62ba 91bd 2649 c93d
000000c0: a3e0 923d c02c bb3d 115c 833c 5491 953d
000000d0: 237b b43d d98c 18bc 34fe b53b be36 2e3d
000000e0: 70a8 9a3d f133 b63c f0c5 31bd 9e4f e33c
000000f0: 1936 8bbb d805 6a3d afd8 993d acf3 653c
00000100: 1bb6 79bd dd6d 8ebd 230c 9fbc 2dc2 633d
00000110: 8f10 643d 131d d33c 32c0 1f3d 3493 c23b
00000120: d02c 7fbd 9c9f 393c ecad f43c 6e7b 93bd
00000130: 15b0 af3d 517c 21bd 7245 f13c b66a e8bd
00000140: 8a55 9fbd ad45 153d c654 313d 870d c53c
00000150: 3d09 4abd 0de3 0fbd d324 243d 6682 7c3d
00000160: b898 a33d 58bd 8cbd 237a 65bd cb12 b1bd
00000170: 8d9e 063d 207d 5dbd a72f 3abd 208f 52bc
00000180: 8047 99bd 2b85 16bd e5c4 d8bc cf3d ff3c
00000190: 1c6d babb b1fc 9c3d f613 a7bc 877a 4a3c
000001a0: 11a4 3ebc 77d0 ae3d 0ee6 6b3b bd0e d13c
000001b0: eaeb e23c 9c6b 58ba 8253 bb3c 84d7 333a
000001c0: 66ce 3b3d d0d9 23bb 0ef5 183c 863e 443d
000001d0: 5c8a bf3c d61e 8a3d 8620 9d3d ae54 7fbc
000001e0: a877 17bc 671b 18bc 40b5 803c 8d0a cebc
000001f0: 2004 50bd 2b09 94bd a904 b23c 07ed 85bd
00000200: 595c 343c 7792 a3bd d1d7 d7bc e91c f03c
00000210: 0036 f9ba 0a5d fe3b 413a 05be 700f b2bd
00000220: a606 83bd f86d edbb a668 c1bd f261 cf3c
00000230: 3892 0f3d d1e4 923c 55ec 3abd 6283 e1bc
00000240: 8878 96bd 83cd 6dbc 1910 c43b fe07 afbd
00000250: 1597 303d 1b47 69bd 1a18 b6bd dad5 973d
00000260: 40c8 a2bd eb21 8cbc 674e d7bc 88a9 6dbd
00000270: e3d5 d4bd f1d9 bd3b deba a8bd 1d5a 61bd
00000280: 0e9e 453d a0bb 01bd 5b4c 0bbe be1f 57bd
00000290: 653a 113d 794f 0fbe aec5 cfbd 1e88 a5bd
000002a0: ad88 5bbd f700 713c 2806 50bc 0aa4 093d
000002b0: 436b 47bd fec6 0d3d 0ae1 3d3d 1aac 913c
000002c0: c328 14bd 6381 8cbd 223a 02be 594f 28bd
000002d0: a18f 2cbd 1bfd 34bd 3430 afbc 7dee 13bc
000002e0: 9efb 4dbd 935c c2bd 4c1e fcbd 350a 963d
000002f0: e976 083b f5c6 03bd 83a5 6d3b 3bb2 713d
00000300: 2919 8f3d f422 e5bd 68b7 8ebd 90f1 a8bd
00000310: ce91 14bd 206b 543c 6620 243b f54d d6bd
00000320: 16d8 cdbd e9d0 453c 9909 ccbd 7f25 a0bd
00000330: e129 303d 77f1 8ebd 7ed7 aabd 0db2 90bd
00000340: 5137 24bc e3da 83bd b7bb 0f3a 6278 cabc
00000350: 0ed6 c3bd fa24 adbc 2634 e4bd 2aea 003d
00000360: 2828 93bd 53b9 c53c e869 8ebc 39b6 02bd
00000370: 9132 073d 2c28 b43d 4203 d0bd a45e 5dbd
00000380: ebf7 f23c 6fa0 1abc 67f8 a1bd 0ca1 b0bd
00000390: 165f eb3c 3a81 0d3a 4f4e 9abd d57b d4bc
000003a0: da2a e6bb df7b 323d 9bb0 ddbd a667 b5bd
000003b0: 80e4 a5bd 91f1 ccbd 5f48 f03c d4ab da3b
000003c0: 3e02 ae3c ca06 5b3b bc15 193d 607d 84bd
000003d0: 5ac6 033d 490c f3bc f0cf 39bc 92cb 72bd
000003e0: 3a5d 3fbd a04b 123c cefb 223c 9054 ecbc
000003f0: 9032 dfbd 829c bebd 4979 38bd 27d8 97bd
0.032631166 -0.052908435 -0.028101252 -0.04584115 -0.0016035611 0.03991181 0.058681067 0.00684135
0.08231569 0.08889065 0.083898716 0.088368446 0.038890235 -0.029362118 -0.056479305 0.013255691
0.084577166 -0.06763324 0.055313054 0.083024286 0.01949855 0.015010364 0.01280329 0.0005593624
-0.0926116 0.049043067 0.079371795 -0.08607717 -0.04047663 0.09376843 -0.007658122 -0.05906634
-0.06984172 0.051897068 0.021739934 0.035662938 0.048339568 -0.030738367 0.02448257 0.062355004
0.01684062 0.07794337 0.047550704 0.06036627 0.05699672 0.07633615 -0.07115628 0.09828405
0.07171752 0.09139395 0.016035112 0.0730311 0.08812549 -0.009310924 0.005553985 0.042532675
0.07551658 0.022241564 -0.04340166 0.027747925 -0.0042483923 0.05713448 0.07512032 0.014035147
-0.060964685 -0.069545485 -0.019414967 0.055605102 0.055679854 0.0257707 0.03900165 0.005937958
-0.062298596 0.011329558 0.029868089 -0.07201277 0.08578507 -0.039425198 0.02945206 -0.113484785
-0.07779987 0.0364434 0.043293737 0.024054302 -0.049325217 -0.035128642 0.04007418 0.061647795
0.07988113 -0.06872052 -0.05602468 -0.086461626 0.03286605 -0.054074407 -0.0454556 -0.0128515065
-0.07484341 -0.036748093 -0.026461074 0.031157402 -0.0056892764 0.076653846 -0.02039526 0.012358314
-0.011635796 0.08535855 0.0035995278 0.025519723 0.027700383 -0.0008255781 0.022866968 0.00068604224
0.045851134 -0.0025001653 0.009335769 0.04791119 0.023381405 0.06744163 0.07672219 -0.015584154
-0.009244837 -0.009283877 0.015711427 -0.025151515 -0.050785184 -0.07228311 0.021730738 -0.0653935
0.0110083455 -0.0798692 -0.026348026 0.02931066 -0.0019013286 0.007762556 -0.13010503 -0.08694351
-0.063977525 -0.0072457753 -0.09443788 0.025315259 0.035051554 0.017931374 -0.04563554 -0.027528469
-0.07347208 -0.01451433 0.0059833643 -0.08546446 0.043112833 -0.056952577 -0.08891316 0.07413836
-0.07948351 -0.017106017 -0.026282502 -0.058023006 -0.10392358 0.005793803 -0.08238767 -0.05501758
0.048246436 -0.031673074 -0.13603346 -0.052520506 0.03545608 -0.1399516 -0.10145126 -0.08082603
-0.05359714 0.014709703 -0.01269678 0.033603705 -0.048686277 0.034613602 0.046357192 0.01778226
-0.036171686 -0.06860616 -0.12717488 -0.041091297 -0.042129163 -0.044186693 -0.02138529 -0.009029028
-0.05028879 -0.094903134 -0.12310466 0.073261656 0.002082283 -0.032172162 0.0036261983 0.059007864
0.06987221 -0.111883074 -0.06968576 -0.082491994 -0.036271863 0.012964994 0.0025043725 -0.10464088
-0.10050981 0.012073734 -0.09962768 -0.07819652 0.04300869 -0.069796495 -0.08341883 -0.070652105
-0.010022954 -0.06438234 0.0005482989 -0.024715606 -0.09562312 -0.021135796 -0.11142759 0.031473316
-0.071853936 0.024136221 -0.017384484 -0.031912062 0.03300721 0.08796725 -0.101568714 -0.054045334
0.029659232 -0.009437664 -0.07908707 -0.08624467 0.028731864 0.00053979794 -0.075344674 -0.025937954
-0.0070241513 0.043575164 -0.108247004 -0.0885766 -0.081002235 -0.10007013 0.029331384 0.0066733155
0.021241304 0.0033420795 0.037374243 -0.06469226 0.032171585 -0.029668944 -0.01134108 -0.05927617
-0.046719767 0.008929163 0.00994773 -0.028848916 -0.10898316 -0.09307195 -0.04503754 -0.07414275

nn_layers.4.bias f4 [49]
00000000: 0835 97bc 0b48 343d b86f 7cbd 7849 08bc
00000010: 574d 3cbd 67b2 8b3d 7b52 ae3d 943a cb3c
00000020: 3578 c4bc 22e4 113c b55e 9fbd 28ec 9cbc
00000030: 3619 eb3d 33f5 d23b baac f83a 8a67 4ebd
00000040: 8f38 ff3c c8d3 c93d 4ac1 81bd 7e2f d2bd
00000050: f591 5a3d 79c8 893d 6935 18bd 75ec b73d
00000060: db21 40bd f089 71bb 0c8b 44bc 0aad f7bd
00000070: 7e8d 023c 708b ac3c 321f 1bbd 3e95 6cbd
00000080: 8910 8e3d 5adf 3a3d c755 e4bb 263d 92bb
00000090: a651 0fbb f7f9 563d b0bd 96bc 6783 913c
000000a0: 2235 abbd 612c b13d 1252 d23c 586a 523d
000000b0: eb07 85bc 9178 d5bc c4f6 4bbd 38ef dabd
000000c0: f2ca 91bc
-0.018457904 0.044014018 -0.06162998 -0.008318298 -0.045972195 0.06821137 0.08511826 0.024808206
-0.0239831 0.008904489 -0.07781736 -0.019155577 0.11479418 0.0064379214 0.0018972375 -0.05039171
0.031154899 0.09854847 -0.06335695 -0.10262965 0.05336185 0.0672769 -0.03716031 0.089806475
-0.046907287 -0.0036855899 -0.011996042 -0.120935515 0.007968305 0.021062583 -0.037871547 -0.057759516
0.069367476 0.04562316 -0.0069682333 -0.004462856 -0.0021868735 0.05248448 -0.018400997 0.017762853
-0.08359744 0.08651043 0.0256739 0.05137095 -0.016239127 -0.026058467 -0.04979588 -0.106901586
-0.017796967
