jengazero_data/jengazero_nim_featureset/model.pkl (torch_old, 100175 bytes, 6 tensors)

nn_layers.0.weight f4 [128, 14]
00000000: 549b 973e bbb9 2a3e 05a5 66be f6cf 32bd
00000010: cb0c b83d 5340 e0bd 99ff 70be 8035 5fbe
00000020: 97a1 e93d 7444 733d 99d3 4a3e 9271 8cbe
00000030: f66e 3e3e 34c2 92be 7309 7f3e f2d7 86be
00000040: d323 96bd 14d8 2fbd 4a11 9e3d 341e 86be
00000050: 2d86 4a3d ea78 7d3e 724c d63d f782 633e
00000060: ca2e e53c b761 11be 9f39 bebd 01a8 d1bc
00000070: 6f93 543e 3bd3 a13d 43ed 82be 0815 393e
00000080: 4609 f1bd 148e 003e ceea b8bc 7784 813d
00000090: 4973 523e 4ce7 a0be 29dd 413d a56c aabe
000000a0: 2beb 443c a878 f33d a0e2 87be 78cc f03c
000000b0: b613 793e c756 213e 621a 833d b01e e43d
000000c0: 5393 113e 714d 573d 736b 04bd 07e1 e4bd
000000d0: fc28 213e bf91 80bd 244a c9bd fa05 383e
000000e0: 7525 2e3e 7aa5 823d 8ab1 21bd acb4 68be
000000f0: 2fd9 2b3e a405 363e 0e23 773e fdb6 33be
00000100: 10d8 31be 5f4f a43d 6ac3 23be 7215 3b3e
00000110: a92b 563e 3683 753e 7edc 4ebe a0e0 31be
00000120: e429 943e 4189 563e b041 593d f8cf aabd
00000130: 872c 913e 192c d83d 1d4a 6b3e 5a4d 77bd
00000140: f9e7 54be 109a 553e f3df 14be edac 7f3e
00000150: fdf4 a73c 40d9 82be 30ca 77be ffad 3e3e
00000160: 9a31 4d3e ea55 55be 34a9 22bd 87be 77bd
00000170: 4b4e 2abe 1f27 01bd 4d01 81be be00 e13c
00000180: 62b8 2c3e 92ad 1e3a eb39 793e 3289 d33d
00000190: 5186 cabd a636 08be bc28 463e 8b12 9dbe
000001a0: f526 ae3c a42b 8bbe 431e eb3d 3a5b 57be
000001b0: 6c8c 71be a856 e2bd bf25 873e 665c 033e
000001c0: 6ddf 253e 58a0 22be 363b 20be 7476 5dbe
000001d0: 559a 2cbd e60c 0ebc f9c3 60bd e433 32bc
000001e0: 9f8a e23d 66fc 4bbe 1bab 4fbe d5d9 ba3d
000001f0: 4e4c bcbc 1e66 4cbe b6c3 e3bd b5ed 39bd
00000200: 7a44 c5bd 4221 d83d 9975 14bd 263a a23e
00000210: 1c09 68be 1f40 b93d 680a 773e 4f7b 6fbe
00000220: 7ded a03d ba01 a5bd 8714 89be 375c 1bbe
00000230: bb3a c0bc 7731 dabc e698 603e 8e21 85bd
00000240: 5c71 9d3d ed66 14bd 70a2 fc3d df84 96be
00000250: d761 f0bb bf2d 6e3e 675d 4d3e f576 e23d
00000260: 94a1 0a3e d2ea 01bd 9bc5 793e f6e1 2b3b
00000270: 3075 ff3d 7b41 60be b465 7c3d c4df af3d
00000280: ca13 2bbd ca11 94be df10 023e 37a2 50be
00000290: 6814 b6bd 07c1 fd3d b438 35be 1d85 8f3e
000002a0: 4959 83be cfcf 60be 09ec 7cbe 54d6 5fbe
000002b0: 3e3c a63d c960 6ebe 0371 04be 8b4c 7abe
000002c0: 3610 703e 7bff 0ebe f7e5 34be 9555 67bd
000002d0: 96b8 8fbd 40fd dabb ae9f 77bd 7813 febc
000002e0: 097a 90be 2e76 7a3e 2957 56be 6fc9 4b3c
000002f0: fc55 113e b9bd 97bc 8e63 0b3e 846f 8f3e
00000300: f294 5fbd 64d9 a2bc 9f12 2abc a25d 273d
00000310: 1d6f 67be a0bf eabd fc89 65be 27f6 08be
00000320: a227 453e 9875 52bc 8b23 babd d801 d5b7
00000330: 40c1 363d a014 1cb8 1b2f b63d 4a32 1cbc
00000340: 5627 c13c 9ee9 75bd 07af 7bbe 9c00 fbbd
00000350: d311 2abe bb72 c43d 04cb 69bb 2fef 1b3d
00000360: de34 2f3e dde6 75be ca5d 58bd 8154 4f3e
00000370: bcb6 773e 12a0 09be b72e 53be 00ca 5ebe
00000380: 31c9 a1bd 01cd 49be 0337 693e 01ac 0bbe
00000390: be6c aa3d 80b8 1d3e 61cc 093d 6a9f a73d
000003a0: 99e9 b4bd a0bd 503e 2b22 6abe 49bf 88be
000003b0: 8aea 5e3e d96f f53c 6605 52bd e57c c53d
000003c0: 6ae7 2dbd 571e 68be f2ad 693c 3b3f 84be
000003d0: 4ce9 333e 44d4 22be a81b 5abe de00 c6bd
000003e0: ffd8 04be 3ef0 3a3e 4a91 323d f954 da3c
000003f0: 26dd 3b3e 86d1 09be 0193 393e ba3a c63d
0.29610693 0.16672413 -0.22523887 -0.04365536 0.08986815 -0.10949769 -0.23535003 -0.21797752
0.11407774 0.059391454 0.1980728 -0.27430397 0.18597016 -0.2866379 0.24905948 -0.26336628
-0.07331052 -0.042930678 0.077181414 -0.26194918 0.049444366 0.24753156 0.104637995 0.22217928
0.027976412 -0.14197432 -0.09288334 -0.025592806 0.20759366 0.07901617 -0.2557164 0.18074429
-0.11769347 0.12554199 -0.022572901 0.06324094 0.2055179 -0.31426466 0.047330055 -0.33286014
0.012018959 0.11888248 -0.2654009 0.029394373 0.24323925 0.15755759 0.064015165 0.11138666
0.14216356 0.05256409 -0.032329034 -0.11175733 0.1573829 -0.06277799 -0.09828594 0.1797103
0.17006476 0.063792184 -0.039475955 -0.22725171 0.16782068 0.17775589 0.24134466 -0.17550273
-0.17367578 0.08022951 -0.15992513 0.182699 0.20915093 0.23975834 -0.20201299 -0.17370844
0.2893821 0.20950796 0.05304116 -0.08340448 0.28354284 0.10555286 0.2297749 -0.060376503
-0.20791616 0.20859551 -0.14538555 0.2496831 0.020502562 -0.25556374 -0.24198222 0.18621062
0.20038453 -0.20833555 -0.039712146 -0.060484435 -0.16631429 -0.03153145 -0.25196305 0.027466174
0.16867211 0.00060530857 0.243385 0.10328902 -0.098889 -0.13302097 0.19351476 -0.3067821
0.02125881 -0.27181733 0.11480381 -0.21030894 -0.23588723 -0.110516846 0.26395985 0.12828216
0.16198511 -0.15881479 -0.15647587 -0.21627218 -0.04213937 -0.008670067 -0.054874394 -0.0108766295
0.11061596 -0.19920501 -0.20280115 0.091235794 -0.022985604 -0.1996083 -0.11121313 -0.04539271
-0.096322015 0.105532184 -0.036244962 0.3168499 -0.22659725 0.09045433 0.24125063 -0.23386882
0.07857797 -0.0805697 -0.26773474 -0.15171896 -0.023465505 -0.026634915 0.21933326 -0.06500541
0.07687637 -0.03623097 0.1233567 -0.29398248 -0.007335882 0.23259638 0.20055161 0.110578455
0.135382 -0.031718083 0.24391787 0.0026227213 0.124735236 -0.21899979 0.06162043 0.08587602
-0.04176692 -0.28919822 0.12701748 -0.2037438 -0.08890611 0.12390333 -0.17697412 0.28031245
-0.25654057 -0.21954273 -0.24699415 -0.21859103 0.08116959 -0.23279108 -0.12933736 -0.24443261
0.23443684 -0.13964646 -0.1766585 -0.0564781 -0.07017629 -0.006683022 -0.060455017 -0.031015143
-0.28218105 0.24459144 -0.20931686 0.012438162 0.14192957 -0.018523084 0.13612196 0.28014767
-0.054585405 -0.01987905 -0.010380416 0.04086078 -0.2260098 -0.11462331 -0.22415918 -0.1337515
0.192534 -0.012845419 -0.090888105 -2.5392437e-05 0.04461789 -3.7212507e-05 0.088957034 -0.009533474
0.023578327 -0.060037248 -0.24578486 -0.122559756 -0.16608362 0.095921956 -0.0035673985 0.0380699
0.17110011 -0.24013849 -0.05282382 0.2024708 0.24190801 -0.13439968 -0.20623289 -0.21756744
-0.07899702 -0.19707109 0.22774892 -0.13639833 0.08321522 0.15402412 0.033642177 0.08184703
-0.08833618 0.20384836 -0.22864597 -0.2670844 0.21769157 0.02996056 -0.05127468 0.09642962
-0.04245702 -0.22667824 0.014262663 -0.2582949 0.17569464 -0.15901285 -0.21299613 -0.09668134
-0.12973402 0.18255708 0.04359559 0.026651846 0.1834608 -0.13458833 0.18122484 0.0967917

nn_layers.0.bias f4 [128]
00000000: 076b d73d d665 163e d410 39be 42d8 52be
00000010: 0d29 50bd c88c fbbd e4f6 213e cac1 b33d
00000020: 360a a6bd 75d9 7a3e ba98 663c 548e 943d
00000030: 2571 04be 141d 3a3c 743e 973d 5e35 c13d
00000040: 3a74 4d3e 48e3 3d3e cac0 21be d567 0c3c
00000050: 8ec1 113c 2b65 8abd e169 2cbd 5df7 7abe
00000060: 2fe5 603e 114e 733e 44a6 713e cd95 5f3d
00000070: c90f 26be 45db 2ebe 77f1 dc3d 7043 90bc
00000080: 05d5 703e 14e4 d23d c04d 623d f04c de3c
00000090: ed18 68be afac 68be 4961 86bd e340 09be
000000a0: 03b0 dabc dd64 d73d bfcd ec3d 93d6 47be
000000b0: 4d03 e7bb 32e3 0dbd 2a8f 623d d90e 70be
000000c0: f545 ea3d 6180 7c3e a202 ff3d 132d 11be
000000d0: c1ef 28be 45c0 f6bd 4b0f 1abe 3cc6 393e
000000e0: b702 e9bb 6d4f 003e 3208 ff3d 4c14 73be
000000f0: cb51 f0bc f924 f2bd 3c1e 553e 8298 6ebe
00000100: e235 3a3e bc89 e63d 413a 3c3e 7637 51be
00000110: d582 e1bd 041a 6f3e b6ec e53d 85cc 233d
00000120: dd2d 7a3e d88b 8abc 3a1c c23d c0fd fc3d
00000130: 70ec 8fbd 9b21 293e 6150 8b3e ac8b 683d
00000140: c2cd 553e bb5b 793d f217 9abd 65be 82be
00000150: f400 35bd f9bd 923d 40b5 d33d c3f7 08be
00000160: 4ad0 0f3e 38e6 723e 238d 403e 5bff 93bd
00000170: a092 6bbd 132f 4c3e e1f7 95bd 44b5 053e
00000180: e40f a03c b78f ddbc db2b ffbd bca5 eabd
00000190: b2f8 5bbe f028 09be d8da 48bc 9e97 403e
000001a0: 2ae7 8cbd 23d4 b43d 9e11 0cbe 0b05 1b3e
000001b0: c581 35bc cfbe 44be 5c04 79be 848c 84be
000001c0: 1c84 01be 3e03 613e b3a3 38bd de6b 63bd
000001d0: 1748 71be 34ca 873d e0c8 d73d 79de 91be
000001e0: e3b5 67be 260a b83c 4553 253e 27c1 63be
000001f0: d62a bebd 4d3c 46be 98b3 073e 5456 b23d
0.10518461 0.14687285 -0.18072826 -0.20590308 -0.0508204 -0.12282711 0.15816838 0.08777197
-0.08107416 0.24497016 0.014074499 0.072537094 -0.12933786 0.011359472 0.07384959 0.09434007
0.20063868 0.18543732 -0.157962 0.008569677 0.008896245 -0.067575775 -0.04209316 -0.24508424
0.21962427 0.23760249 0.23598582 0.05458622 -0.16216959 -0.17075832 0.10788243 -0.017610282
0.2351876 0.10297409 0.05524993 0.027136296 -0.22665758 -0.22722124 -0.065615244 -0.13403659
-0.026695257 0.10517285 0.115626805 -0.19515447 -0.007049954 -0.0346405 0.055312313 -0.23443164
0.114391245 0.24658348 0.12451674 -0.1417735 -0.16497709 -0.12048391 -0.15044896 0.18142027
-0.0071109193 0.12530299 0.12452735 -0.23738211 -0.029335877 -0.11823458 0.20812315 -0.23300365
0.18184617 0.112567395 0.18381597 -0.20431313 -0.11011282 0.23349768 0.1122679 0.039989967
0.24431558 -0.016912386 0.0947804 0.123530865 -0.07027519 0.16516726 0.27209762 0.056773826
0.20879272 0.060878497 -0.075240985 -0.25535884 -0.044190362 0.07165141 0.10337305 -0.13375764
0.140443 0.23720634 0.1880384 -0.072264396 -0.05751288 0.19939832 -0.0732267 0.13057429
0.019538827 -0.027046068 -0.12459537 -0.114573926 -0.21481588 -0.13394523 -0.012259208 0.18807837
-0.068800285 0.08829524 -0.13678595 0.15138642 -0.011078303 -0.19213413 -0.24318069 -0.25888455
-0.12648052 0.21973893 -0.04507799 -0.055522792 -0.23562656 0.06630364 0.10536361 -0.28490046
-0.22627978 0.022465777 0.16145046 -0.2224165 -0.09285514 -0.1935894 0.13252103 0.08707872

nn_layers.2.weight f4 [128, 128]
00000000: 751c 773d 305e 593d b2e9 91bd 5f5c 9abd
00000010: e027 6b3d a365 8c3d bcd5 00bd e746 7f3d
00000020: 3e85 b2bd 532e 003e f1b4 01bd f508 0a3e
00000030: d580 0ebc 52b5 c0bd 57f5 233d 8fe9 9bbd
00000040: df54 77bd 1f68 6b3d 2a64 dfbc 7357 903d
00000050: be97 403e a4eb 86bd 339c e33c c219 a9bd
00000060: 0505 17bc 0d8b 3dbd 31bb 93bd 12fd d13d
00000070: efc1 0bbd 3398 eb3d c3ec 6d3b 3aec 823d
00000080: 1f64 3dbb 0965 b33d 5f06 3ebd 34dc 513d
00000090: 6c9c 4d3d fda4 ccbd a027 fa3d 74c0 c0bc
000000a0: f7b5 06be 01d0 e1bb 71fd 883d 6ceb dc3c
000000b0: 0a49 853c a1f2 6cbd 9647 65bb 3045 7d3c
000000c0: 6452 69bd 363f b93d 777f 8a3d fd25 34bd
000000d0: 09f7 96bd d67d a63b 92d1 303d d59b bb3c
000000e0: 5703 b13d 2857 ff3c a64e 81bd 9716 68bd
000000f0: 075a 27be df31 ae3d d880 8cbd ee85 b03d
00000100: b70d 83bc 0af7 6cbd 972c 2cbd a609 2d3d
00000110: 00c7 c9bb 7288 75bc 4dc6 45bc 5477 213d
00000120: 38bd 3bbd 795a 03bc 5305 e1bd b592 753d
00000130: ba10 6cbd 00b4 65bc c728 803c d51d 023d
00000140: 186c a13d 0076 38ba 8f65 e6ba efa5 3e3d
00000150: 2c43 6a3d 0aa3 a7bc 9895 3fbd c678 643d
00000160: b4f8 afbc b3b4 263d 0568 3d3d 2b31 193d
00000170: d811 0e3d cee2 923c a5d1 a7bd dc52 a53c
00000180: 68ae 6d3d 70d3 0fbd 921b 59bd a2fe 883d
00000190: 20ab 3e3c 6ca5 413b f9ae 863d 370a 8abc
000001a0: 52ab 59bd b504 a63d f21b 193c ed2d 9abc
000001b0: 8913 b53c f953 04bd c079 0abe c855 223d
000001c0: 7a2e 9b3d 73b1 9ebd aeb6 103b 2bd9 413d
000001d0: 9bb5 8d3d d089 713d 1846 903d 0478 ddbc
000001e0: 1175 a33d ae48 6d3d d04a 3f3e 2480 14bb
000001f0: 8537 383d cdd7 a63d 2a3d da3d 1d8f 11bd
00000200: 6b26 0f3d 57cf b3bd 1cc2 aab9 9cad aabd
00000210: ad48 473d 26ff e9bc e7c6 3ebd d34f 693d
00000220: f84e 0ebd 813e 0ebe 65fa 0fbc 8e05 5b3b
00000230: 0c64 88bb 84c5 663d 63ad 173d eb89 893d
00000240: 1d80 25bc 30b3 5cbd 1fa1 a3bd e808 56bc
00000250: c821 cebd e343 91bd 6658 8fbd c743 c2b9
00000260: 6d8d 9f3d 751e bc3d ebf4 62bd 81a6 95bc
00000270: c96c 8f3b d53a f5bd 14d8 193c b217 b6bd
00000280: 20f7 853d 2d29 dc3c 2c08 98bd 4374 48bd
00000290: 375d 8dbc f43e f3bd 6ec2 9b3d f366 b7bd
000002a0: d52d 66bc c430 89bb 595a 89bd 0d55 bb3c
000002b0: 6d80 7dbd b7ec 32bd 9ff5 b5bd 90cb 5e3d
000002c0: 8049 91bd f8ff 0fbe 0378 02bd 8e11 94bc
000002d0: 77ed 19bc ae4d c9bb bd42 263c 031a 51bd
000002e0: 42f4 25bd 59a1 14bd ed31 aabc c2bc 983d
000002f0: f24d b5bd f01c 813d 940c 9ebd a6ec a8bd
00000300: cb03 303d ba70 613d cb71 a0bd 3b61 cf3c
00000310: 5cf9 f7bc 3746 d63c 4d5f aabd 30fa 9bbc
00000320: 4ba4 39bc 35f7 353d b951 fe3c 50f4 d53b
00000330: d09e 63bd 70a3 103e ebc5 eebc 8a06 f43c
00000340: 3214 7c3d df2e c4bd 89ba a33d 8454 acbd
00000350: cbb5 f43c 2265 493d f681 5dbc 9a76 8ebd
00000360: 3fa8 64bd c874 073c 7f74 c9bd 86c4 28bd
00000370: fde7 9cbd ac75 20bc faa5 833c c9e6 493d
00000380: 885d 903c 8acd 843c ea65 31bb 3eba 5b3d
00000390: 91d0 2fbc e345 aebc 418a b23a d29c b0bd
000003a0: 3b90 ea3d 6c14 ebbc 1ad4 8a3c d7d8 8e3d
000003b0: ae26 b03d 30ec a9bd da45 9a3c ae14 b137
000003c0: 1929 1d3d a5bd 96b9 3de7 093d d9a7 473a
000003d0: 0887 053d 94d2 943d 9d3b 14bd 8bd3 36bd
000003e0: 8cd4 533d d7a5 823c 5154 70bd 29d8 3d3d
000003f0: 70d7 573d 881f 0cbc 5e69 febd 111f ddbb
0.060329873 0.05306834 -0.07124652 -0.0753715 0.057411075 0.06855323 -0.031453833 0.062323477
-0.0871682 0.12517671 -0.0316667 0.1347998 -0.008697708 -0.09409584 0.040028896 -0.07612907
-0.060383674 0.057472344 -0.027269442 0.070479296 0.18807885 -0.06587914 0.027784443 -0.08256866
-0.009217505 -0.046275187 -0.07213438 0.102533475 -0.034120496 0.11503639 0.003630445 0.06392713
-0.0028898788 0.08759505 -0.046392795 0.051235393 0.050198004 -0.099924065 0.12214589 -0.023529269
-0.13155352 -0.006891251 0.06688965 0.026967727 0.01627018 -0.057848576 -0.0034985295 0.01545839
-0.05696334 0.0904526 0.06762593 -0.04398154 -0.07371337 0.005080919 0.04316861 0.022901455
0.08643215 0.031169489 -0.06313829 -0.05666217 -0.16342936 0.08505606 -0.068605125 0.08619295
-0.01599775 -0.057852782 -0.04203471 0.04224553 -0.006157756 -0.014986144 -0.012071204 0.03942044
-0.04583475 -0.008017176 -0.10987344 0.059954364 -0.05763314 -0.014019966 0.015644444 0.03176673
0.07881945 -0.00070366263 -0.0017577874 0.046544965 0.057192966 -0.020463485 -0.046773523 0.05577924
-0.021480896 0.040699672 0.04624178 0.037400406 0.034684986 0.017930415 -0.081942834 0.020181112
0.058027655 -0.035113752 -0.05300481 0.06689192 0.011637479 0.0029548062 0.06576342 -0.016850574
-0.0531419 0.081063665 0.009345042 -0.018820727 0.022104042 -0.032306645 -0.13523006 0.03963259
0.07577224 -0.077486895 0.0022081542 0.04732625 0.06919404 0.05896932 0.07044619 -0.027034767
0.07981313 0.05793064 0.18680882 -0.0022659386 0.044974823 0.081466295 0.10656197 -0.035536874
0.034948748 -0.08779781 -0.0003256955 -0.083338946 0.048653293 -0.028564047 -0.046576407 0.056960892
-0.03474328 -0.13891031 -0.008787726 0.003342006 -0.004162317 0.05634071 0.03703059 0.06715759
-0.010101345 -0.053881824 -0.07989716 -0.013063647 -0.10065037 -0.070930265 -0.069992825 -0.00037053062
0.07790647 0.09185497 -0.055409353 -0.018267872 0.004376982 -0.11974112 0.009389896 -0.08891238
0.06541276 0.026875103 -0.07423434 -0.048939 -0.017256362 -0.11877242 0.07605444 -0.08955183
-0.014049013 -0.0041867215 -0.067066856 0.022867704 -0.061890054 -0.04368278 -0.08884739 0.05439335
-0.07094097 -0.14062488 -0.031852733 -0.018074777 -0.009394995 -0.0061432933 0.010147748 -0.051050197
-0.040516146 -0.036286686 -0.02077576 0.07457878 -0.088527575 0.063043475 -0.07717243 -0.08248262
0.042972367 0.055039145 -0.07834204 0.025314918 -0.030270271 0.026156528 -0.083189584 -0.019040197
-0.011330674 0.044425208 0.031044828 0.0065293685 -0.055571377 0.14124846 -0.029147109 0.029788274
0.061542697 -0.095792525 0.07994563 -0.084145576 0.029871842 0.049168713 -0.013519755 -0.06956215
-0.055824514 0.008267589 -0.09836673 -0.041203044 -0.07661436 -0.00979368 0.016070355 0.04929236
0.017622724 0.01621129 -0.0027068802 0.05364441 -0.010730878 -0.021273559 0.0013621525 -0.08623661
0.11453291 -0.028696261 0.016946841 0.06974953 0.086011276 -0.08297002 0.018832136 2.1109674e-05
0.038369272 -0.00028751526 0.03366779 0.0007616259 0.03259948 0.07266727 -0.036189664 -0.044635337
0.051716372 0.01594822 -0.05867416 0.046348725 0.05269569 -0.0085524395 -0.12422441 -0.006748088

nn_layers.2.bias f4 [128]
00000000: 4a95 553d 58dd 693d ec26 a6ba ce6a a2bd
00000010: 9bac 73bb 121d d53c b4ee 30bd c436 2f3d
00000020: 4e0b 3f3c 6f1a 92bc 4761 8cbd 0348 6cbc
00000030: eba5 273d dbf6 833d 5733 8a3d 662e 9b3d
00000040: 55f4 a63d a9d4 31bc 80cf 81bd dc2e 2ebd
00000050: 3574 78bd 7940 8c3d cff1 bebd ce45 c6bb
00000060: da84 efb8 c531 adbd 519f 28ba c2d7 9c3c
00000070: cd93 8d3d ab3c 37bd 6f2c 6dbd 6f05 01bd
00000080: 37d0 75bd 873f 33bd e07e 30bd ab56 803d
00000090: 1fb8 073d 3347 3f3c 4830 8bbd f162 46bc
000000a0: c1b6 9b3d 2a83 923d 53b3 e63a c2f3 52bd
000000b0: 40f6 b33d 20ee 4ebd 4f07 e03b 8cf7 813d
000000c0: 00a3 133e d55b e03b 10ff c43d 9c02 76bd
000000d0: ae56 46bc 060a e33c 4c26 003d 2cb4 89bd
000000e0: 3520 e83c 8d8b 8abd e3f7 93bd c825 4fbd
000000f0: 16cb 8a3d dc49 83bc 0797 8c39 f8fc 953c
00000100: 6619 2cbd 7c67 55bd 1224 d1bc 636d 7b3c
00000110: 80e6 62bd c1e2 393d 62ea 51bd c4aa bebc
00000120: 6ed2 6f3b 1e36 953d caf0 a1bd c040 4a3d
00000130: 5532 3a3d aa48 c43d 8d96 8cbd 7af5 35bd
00000140: 9ed5 523d dd29 9abc d2dc 8abb 943e 5d3d
00000150: 8471 933d 6e54 95bd 919e 493d aa7d 0b3c
00000160: c9f2 193d e9d0 1b3d 69cf 98bd 452d 8c3d
00000170: 4070 7ebb 305b dcbc 7aca bf3d a9f5 fbbb
00000180: 2dd8 093d 8576 6c3c 71b6 da3d daa5 f2bc
00000190: c7f4 12bd c423 323d 1eda fb3c af3d 83bd
000001a0: c810 aebd 8b1a 91bd 4320 d63b 0a90 a13d
000001b0: 9870 ac3d 7d0f 6cbd 73b6 3f3d dc80 c43d
000001c0: 428b 503d 4b98 b3bb e204 483d b4a3 a8bd
000001d0: cd37 a0bd 8425 8b3c 74df 8bbd b854 f3bc
000001e0: d384 393c e5ba 2e3d 62d6 15bc 6c63 843d
000001f0: ea4f 923d 8b00 bdbd 45b4 a93d fb61 acbd
0.052144326 0.057095855 -0.0012676395 -0.079305276 -0.0037181738 0.026014838 -0.043196395 0.042776838
0.01166041 -0.01783487 -0.06854492 -0.014421466 0.040929716 0.06443568 0.067480735 0.07577209
0.081520714 -0.010853925 -0.063384056 -0.042525157 -0.0606577 0.06848235 -0.09323465 -0.006050802
-0.000114211536 -0.084567584 -0.00064324314 0.01914585 0.069129564 -0.04473559 -0.057903703 -0.031499323
-0.060013022 -0.043761756 -0.043089747 0.062665306 0.033134576 0.01167469 -0.06796318 -0.01210855
0.07603217 0.07153924 0.001760105 -0.051501997 0.08787203 -0.050520062 0.0068368088 0.06346044
0.14417648 0.0068468847 0.09618962 -0.060061082 -0.012105627 0.02771474 0.031286523 -0.06723818
0.02833567 -0.067648984 -0.07225015 -0.05057314 0.06777017 -0.01602643 0.00026815405 0.018309101
-0.04201641 -0.052100644 -0.025529895 0.015345904 -0.055395603 0.045382265 -0.051248915 -0.023274787
0.0036593932 0.07285713 -0.07907255 0.049378157 0.045458157 0.09584172 -0.06864653 -0.044423558
0.051473252 -0.01881879 -0.0042377496 0.054014757 0.07199386 -0.07291494 0.049223486 0.008513847
0.037585054 0.03804103 -0.07461435 0.06844572 -0.003882423 -0.02689895 0.09364791 -0.007689197
0.033653427 0.014432554 0.10679329 -0.0296201 -0.03587797 0.04349114 0.030743655 -0.064082496
-0.084992945 -0.07085141 0.0065346076 0.078888014 0.08419913 -0.05763196 0.046804857 0.095948905
0.050914057 -0.005480801 0.04883278 -0.08234349 -0.07823143 0.016985662 -0.0682973 -0.029703483
0.011323172 0.042658705 -0.009145351 0.06464276 0.07144149 -0.09228619 0.08286337 -0.08417126

nn_layers.4.weight f4 [49, 128]
00000000: c00b 4fbb 0102 94bc 680c 02bd fccb 423c
00000010: 952e d2ba 44d2 e2bc 2162 9e3b 672d e03b
00000020: 2195 a83d 33fb c93d f770 ae3c b606 583d
00000030: 1e25 9f3d e1d0 4cbc 81cf e3bd a82c 61bc
00000040: cb36 ad3d ee12 cf3c c66f 953d 0509 aa3d
00000050: 3ded 55bd 8e49 7b3c 6f6b a2bb 2da2 123a
00000060: 0400 70bd de5e 903d a34f 373d d82b 74bd
00000070: e84c d2bd 3e7d b03d 29c9 e43b c9f7 5b3d
00000080: 2d09 8fbd 8147 893d 2166 4a3d 0ddf 863d
00000090: b2b3 86bd 6ccd 23be eff1 0e3c b1c4 ba3c
000000a0: a265 cf3b c6a0 9f3d 87c4 423d 432b f03d
000000b0: 6575 693d ad37 9f3d 62ba 91bd 52a4 bb3d
000000c0: 0000 813c c56f be3d 900d a5bc 1906 1b3e
000000d0: f743 4abc 6c80 263d fe9b 22be bee6 28bc
000000e0: e039 a3bc ac74 613d 33c7 dcbd 9e4f e33c
000000f0: 37d8 1c3d 38c5 9b3d 0d98 983d 65f6 653c
00000100: 7c4d 13be cda7 52bd 230c 9fbc b5e1 2f3d
00000110: 8f10 643d 1c6d b03c eaaa 833c 4c63 d0bc
00000120: 4e09 89bd 9c9f 393c 8d2d 143d 5e25 fdbd
00000130: 69d5 7bbb f735 9ebd 7245 f13c 6b6b 9bbd
00000140: a633 6bbe cdfc bebe c654 313d 870d c53c
00000150: 2ab9 99bd 4d61 9abd 844b 46bc bd56 233d
00000160: 1f75 463d 52f7 b5bb 7679 65bd 102c 9abd
00000170: 402b 7fbd ceb4 5fbd 08e2 b4bd 5689 edbc
00000180: f4b1 3ebe 8d2f a9bd b352 9dbd f515 bd3d
00000190: 1c6d babb ce94 073d e235 82bd 0c14 c83c
000001a0: 11a4 3ebc d2d0 ae3d e26d 55bd 07c4 b6bb
000001b0: eaeb e23c 8167 b2bc bfa1 2fbd a2a2 3ebd
000001c0: dcf1 fd3b b1ce 3e3c 0ef5 183c 863e 443d
000001d0: 4e3d cabc 180d 8b3d 2366 803d d57a 4dbd
000001e0: 2c5c 153c 5228 623d 6709 e1bc 3a7f 1c3d
000001f0: f3f2 f3bc 35bc 91bd ce1a 29bd 0f47 b6bc
00000200: d8d5 fbbb 2bf6 8bbd 5c05 44bd 5216 073d
00000210: 0036 f9ba 198d aebd c2ba 6bbe 700f b2bd
00000220: a606 83bd 757e 013d 3f45 1cbe 2864 74bb
00000230: e898 013c c44f 7b3d 1d82 abbd 90a9 06bd
00000240: 8878 96bd 36e7 c03a bd0a fbbb 5708 afbd
00000250: 8ca6 23bc aa21 a6bd 4e3f 8cbd dad5 973d
00000260: afe3 eabd 5c08 86bd 7097 4bbd 034e 5bbc
00000270: c053 86be 9459 533d 69b3 5dbd 165d 0ebe
00000280: 0e9e 453d 1227 c23c ab44 0dbe 179f f3bd
00000290: 5d6a b5bc 7a1a 2cbe e0b4 00be e2b6 efbd
000002a0: 98f0 48bd f700 713c 2806 50bc f986 8d3c
000002b0: 436b 47bd 4fdc c93c 0ae1 3d3d d0fe c73c
000002c0: 03ea 0abe 0e1a 8ebd 489c 1dbe a94d c6bd
000002d0: 7e8a 0bbe a638 62bd db63 67be 1f59 85bd
000002e0: 23c4 26be 38c2 e0bd 04cb 01be 350a 963d
000002f0: 43b1 2cbd 6ad3 9c3c 75b0 373d 7fb1 713d
00000300: bff3 40bd 6cb1 02be 68b7 8ebd da62 b4bd
00000310: ce91 14bd b9fc e93c b3ee c3bd af63 06be
00000320: 1c66 19be e9d0 453c 581c 68bd 2870 9fbd
00000330: a0d4 67bd d1af f5bd 7ed7 aabd 7da3 83bc
00000340: 64f1 aebd 90bb b4be b7bb 0f3a 6278 cabc
00000350: 6e56 fbbd e022 3ebd c802 05be 7ab1 063d
00000360: 5f13 bdbd 923c 5fbc 3c6b 8ebc a611 39bd
00000370: 77cd fbbd 4710 b43d 52f0 13be 2d9b b9bd
00000380: e086 1abd 35e8 41be 14a9 1fbe 3e58 f3bd
00000390: 165f eb3c f0d6 b2bc cb79 21be 5e77 1bbd
000003a0: da2a e6bb 1a7b 323d 6574 2fbe 0882 04be
000003b0: 80e4 a5bd 5cd8 e3bd 6d37 753c cdf0 fbbc
000003c0: 24c5 10bc 4391 293c bc15 193d 607d 84bd
000003d0: af9d eb3b 78f3 30bd 175a 12bd a82d babd
000003e0: ef93 803c 7a8c 543d 29c3 cdbd 6bb5 b3bd
000003f0: 2dfa c9bd 353d 15bd aaac edbd a5e1 babd
-0.0031592697 -0.018067362 -0.031750113 0.011889454 -0.0016035611 -0.027688153 0.004833475 0.00684135
0.08231569 0.098623656 0.0212941 0.052740775 0.077707514 -0.0125009725 -0.111235626 -0.013743557
0.084577166 0.025277581 0.0729671 0.083025016 -0.0522282 0.015337361 -0.0049566547 0.0005593624
-0.058593765 0.070493445 0.044753682 -0.059612125 -0.10268575 0.08617638 0.006981988 0.053703103
-0.06984172 0.067030914 0.049413804 0.06585512 -0.06577243 -0.15996331 0.008724674 0.022798868
0.0063292542 0.07794337 0.047550704 0.117270015 0.05699672 0.07774291 -0.07115628 0.09162201
0.01574707 0.09298662 -0.020148069 0.15139045 -0.012345306 0.040649816 -0.15879819 -0.0103089195
-0.019925058 0.055042908 -0.10780182 0.027747925 0.038292136 0.07605976 0.074508764 0.014035796
-0.14385027 -0.05142956 -0.019414967 0.04293986 0.055679854 0.021536402 0.01607271 -0.025437973
-0.06691228 0.011329558 0.036176253 -0.12360643 -0.0038426763 -0.07725137 0.02945206 -0.07588848
-0.22968921 -0.37302247 0.043293737 0.024054302 -0.0750602 -0.0753809 -0.012102965 0.039877642
0.04845154 -0.0055531645 -0.056024037 -0.075279355 -0.062297106 -0.05461579 -0.088321745 -0.028996151
-0.18622571 -0.08261023 -0.07681789 0.092327036 -0.0056892764 0.033100896 -0.063579336 0.024423622
-0.011635796 0.08535923 -0.052106746 -0.0055775675 0.027700383 -0.02177787 -0.042878862 -0.046541817
0.007749779 0.011645959 0.009335769 0.04791119 -0.024687435 0.06789607 0.06269481 -0.05016597
0.009116214 0.055214234 -0.027470304 0.03820727 -0.029778933 -0.07115976 -0.04128533 -0.02225068
-0.0076854043 -0.06834062 -0.047856674 0.03298027 -0.0019013286 -0.08523006 -0.23020461 -0.08694351
-0.063977525 0.03161474 -0.1526079 -0.0037291143 0.007909991 0.061355367 -0.083744265 -0.03287655
-0.07347208 0.0014717344 -0.007661192 -0.085465126 -0.009988438 -0.0811189 -0.06848012 0.07413836
-0.114692084 -0.06544563 -0.04970497 -0.013385299 -0.2623577 0.0515991 -0.054126177 -0.13902697
0.048246436 0.02370027 -0.13795726 -0.11895578 -0.022145445 -0.16806975 -0.12568998 -0.11704804
-0.049057573 0.014709703 -0.01269678 0.017276274 -0.048686277 0.024641184 0.046357192 0.024413496
-0.13565831 -0.06938563 -0.15391648 -0.09682781 -0.1362705 -0.055229805 -0.22596686 -0.06511139
-0.16285758 -0.10974544 -0.126751 0.073261656 -0.042161237 0.019143779 0.044846017 0.059007164
-0.047107454 -0.12762994 -0.06968576 -0.08807917 -0.036271863 0.02856289 -0.09567013 -0.13123964
-0.14980358 0.012073734 -0.056667656 -0.07785064 -0.05659926 -0.11996425 -0.08341883 -0.016069168
-0.08542135 -0.3529935 0.0005482989 -0.024715606 -0.122723445 -0.04641998 -0.12989342 0.0328841
-0.0923221 -0.013625281 -0.017385118 -0.045182846 -0.12295049 0.08792167 -0.14447144 -0.090628006
-0.037726283 -0.18936236 -0.15591842 -0.11882065 0.028731864 -0.021831006 -0.15769117 -0.037955634
-0.0070241513 0.04357443 -0.17134245 -0.12940228 -0.081002235 -0.11125252 0.014966828 -0.030754471
-0.0088360645 0.0103495745 0.037374243 -0.06469226 0.007190428 -0.04320094 -0.035730448 -0.090907395
0.01569554 0.05189178 -0.100469895 -0.08774837 -0.0986217 -0.036435325 -0.11605199 -0.091250695

nn_layers.4.bias f4 [49]
00000000: 7f15 7ebd b08f de3c 27df b3bd eabf da3c
00000010: 1b4f 74bd 2a55 e13d f91f 09bd f247 ec3d
00000020: 9586 febd eb7a 7d3d e478 dfbd 9666 803d
00000030: 461f 43bd 25ab e6bc 7a26 fdbd 43e3 163d
00000040: aa94 c73c 639a 063e 68aa 1e3d 7b49 eebd
00000050: 501c e23d fb7a 8a3d 75b0 24bd 526c ad3d
00000060: 7334 b5bd 6653 593d 3004 91bd 41fb f8bd
00000070: e80a f33b 2aff bb3c 321f 1bbd 3e95 6cbd
00000080: 8910 8e3d 5adf 3a3d c755 e4bb 263d 92bb
00000090: a651 0fbb f7f9 563d b0bd 96bc 6783 913c
000000a0: 2235 abbd 612c b13d 1252 d23c 586a 523d
000000b0: eb07 85bc feb8 84bc 3623 a5bd b30d b3bd
000000c0: ff82 90bc
-0.06203222 0.027168125 -0.08782797 0.02670284 -0.059645753 0.11002572 -0.033477757 0.1153716
-0.12428013 0.0618848 -0.1091173 0.06269567 -0.047637247 -0.02815778 -0.123608544 0.036837827
0.02436288 0.13144831 0.03873673 -0.11635109 0.110405564 0.06761738 -0.040207345 0.08467926
-0.088478945 0.05305805 -0.07080877 -0.12157298 0.0074170716 0.02294882 -0.037871547 -0.057759516
0.069367476 0.04562316 -0.0069682333 -0.004462856 -0.0021868735 0.05248448 -0.018400997 0.017762853
-0.08359744 0.08651043 0.0256739 0.05137095 -0.016239127 -0.016201492 -0.080633566 -0.08742847
-0.017640589
