jengazero_data/old_jengazero_nim_featureset/checkpoints/150/model.pkl (torch_old, 100175 bytes, 6 tensors)

nn_layers.0.weight f4 [128, 14]
000000 f7 0d 7e 3e 20 3f 1e 3e f7 d1 35 be 9e ea 89 bc
       0.24810015 0.15453768 -0.17755876 -0.016835507
000010 30 e6 d7 3d fc 52 a9 bd 22 8e 80 be 28 75 43 be
       0.10541952 -0.08267781 -0.2510844 -0.1908766
000020 c0 50 98 3d d8 5f 90 3d bc 5e 4c 3e 79 7a 74 be
       0.07437277 0.07049531 0.19958013 -0.23874845
000030 21 cb 23 3e ea e0 85 be 73 09 7f 3e f2 d7 86 be
       0.15995456 -0.26148158 0.24905948 -0.26336628
000040 d3 23 96 bd 14 d8 2f bd 4a 11 9e 3d 34 1e 86 be
       -0.07331052 -0.042930678 0.077181414 -0.26194918
000050 2d 86 4a 3d ea 78 7d 3e 72 4c d6 3d f7 82 63 3e
       0.049444366 0.24753156 0.104637995 0.22217928
000060 ca 2e e5 3c b7 61 11 be 9f 39 be bd 01 a8 d1 bc
       0.027976412 -0.14197432 -0.09288334 -0.025592806
000070 0c 34 16 3e 54 17 d1 3d c5 36 37 be 44 fe 54 3e
       0.14668292 0.102095276 -0.17891987 0.2080012
000080 33 8c 0c bb 4a 77 1c 3e 0b a2 c0 bc 7c 11 31 bd
       -0.002144587 0.1527988 -0.023514768 -0.043229565
000090 f2 ac 3e 3e ca 60 5a be d4 5a 74 3b f1 59 6d be
       0.18620661 -0.21325985 0.0037285583 -0.23178841
0000a0 7f 51 3f 3d 54 54 ff 3c 34 69 68 be 9a 39 bb 3c
       0.04670858 0.03116814 -0.22696382 0.022854615
0000b0 38 ab 5b 3e 1a 72 c4 3c 70 82 bd 3d 56 c9 b5 bc
       0.21452034 0.02398019 0.092533946 -0.022190731
0000c0 1e fb 1f 3e 5e 0a 2f 3c 7f 8e 41 bd 60 33 f6 bd
       0.15623137 0.010683624 -0.047255035 -0.12021518
0000d0 8a 75 c6 3d f6 54 9e bd ff b8 3b be 9c 03 32 3e
       0.096903875 -0.07731049 -0.18332289 0.1738419
0000e0 8b a2 43 3e 21 91 83 3d 5d e3 a3 bd 81 0a 36 be
       0.19104974 0.064241655 -0.080023505 -0.17777444
0000f0 ac 0c 01 3e d1 af 68 3e 3a a7 12 3e 3e 39 62 be
       0.1260249 0.22723319 0.14321604 -0.22092149
000100 fe 3f 16 be 28 63 ad 3d 8a 00 47 be 51 72 0d 3e
       -0.14672849 0.08466178 -0.194338 0.1381314
000110 85 ee 5e 3e a7 a1 74 3e 94 39 5f be 34 a6 2e be
       0.21770675 0.2388979 -0.21799308 -0.17055589
000120 e1 2a 4c 3e fc 1f 76 3e f9 be 08 3d 1a 45 57 bd
       0.19938232 0.24035639 0.03338525 -0.052556135
000130 bb 52 85 3e 6a 35 04 3e c3 c1 91 3e e0 2b 97 bd
       0.2603968 0.12911001 0.2846814 -0.07381415
000140 99 c9 8a be b5 b3 54 3e b4 12 15 be fe 86 77 3e
       -0.27106932 0.20771678 -0.14557916 0.24172589
000150 fd f4 a7 3c 40 d9 82 be 30 ca 77 be ff ad 3e 3e
       0.020502562 -0.25556374 -0.24198222 0.18621062
000160 9a 31 4d 3e ea 55 55 be 34 a9 22 bd 87 be 77 bd
       0.20038453 -0.20833555 -0.039712146 -0.060484435
000170 4b 4e 2a be 1f 27 01 bd 4d 01 81 be be 00 e1 3c
       -0.16631429 -0.03153145 -0.25196305 0.027466174
000180 62 b8 2c 3e 92 ad 1e 3a 90 1d 44 3e b3 32 ce 3d
       0.16867211 0.00060530857 0.19151902 0.10068264
000190 57 b8 3a bd ae a8 e8 bd ae f9 82 3e 5a 21 93 be
       -0.045585956 -0.11360298 0.25581115 -0.28736383
0001a0 34 c6 ac 3d 76 8c 4b be d6 d6 ae 3d 2b 14 f4 bd
       0.08436242 -0.198778 0.085370705 -0.11917909
0001b0 0f 49 63 be bd 68 f6 bc ec b1 52 3e b4 d5 2c 3e
       -0.22195838 -0.03007924 0.20575684 0.16878396
0001c0 6d df 25 3e 58 a0 22 be 36 3b 20 be 74 76 5d be
       0.16198511 -0.15881479 -0.15647587 -0.21627218
0001d0 55 9a 2c bd e6 0c 0e bc f9 c3 60 bd e4 33 32 bc
       -0.04213937 -0.008670067 -0.054874394 -0.0108766295
0001e0 9f 8a e2 3d 66 fc 4b be 1b ab 4f be d5 d9 ba 3d
       0.11061596 -0.19920501 -0.20280115 0.091235794
0001f0 4e 4c bc bc 1e 66 4c be e9 82 65 be 30 ba 24 bd
       -0.022985604 -0.1996083 -0.2241322 -0.040216625
000200 f7 6b 9a 3b 66 39 72 3d 41 2b 44 be 01 79 8a 3e
       0.0047125774 0.05913677 -0.19157125 0.27045444
000210 e0 7a 76 be 1e d5 86 3d 3d e1 70 3e d0 3b 56 bd
       -0.2407031 0.06583618 0.23523422 -0.052303135
000220 2e a6 8a bd fe 57 80 3d d8 31 65 be c0 8d 2d be
       -0.067699775 0.06266783 -0.22382295 -0.16948605
000230 80 ec bd bd 7b 6c 52 bd fe 76 40 3e 39 f5 05 be
       -0.092736244 -0.051372986 0.18795392 -0.13081826
000240 84 0b a5 3d 68 fc d0 bd 6f e8 24 3e 6b 05 64 be
       0.08058837 -0.10204393 0.16104291 -0.22267692
000250 b4 84 7b bd 84 d6 67 3e be 73 57 3e a3 c5 cf 3d
       -0.061405852 0.22640425 0.21040246 0.10145118
000260 2d a6 c5 3d d4 40 31 3c 5d ff 0c 3e 57 85 36 bd
       0.09650836 0.010818679 0.13769288 -0.044560757
000270 05 75 4e 3d 41 04 42 be c5 4a 1f 3e 3c 5a ec 3d
       0.050404567 -0.18946935 0.15555866 0.11540648
000280 8d 9f 9e bd cb 1f c6 bd 98 82 0b 3e 08 9a f7 bd
       -0.07745276 -0.09674033 0.13624036 -0.12089926
000290 8f 4d 14 be 53 ea 8a 3d 2d 78 44 be 37 c3 35 3e
       -0.14482711 0.06782975 -0.19186468 0.1775025
0002a0 49 59 83 be cf cf 60 be 09 ec 7c be 54 d6 5f be
       -0.25654057 -0.21954273 -0.24699415 -0.21859103
0002b0 3e 3c a6 3d c9 60 6e be 03 71 04 be 8b 4c 7a be
       0.08116959 -0.23279108 -0.12933736 -0.24443261
0002c0 36 10 70 3e 7b ff 0e be f7 e5 34 be 95 55 67 bd
       0.23443684 -0.13964646 -0.1766585 -0.0564781
0002d0 96 b8 8f bd 40 fd da bb fc 0f 0f 3e 17 dc f1 bb
       -0.07017629 -0.006683022 0.13970941 -0.007380973
0002e0 17 6d 62 be f7 c6 8b 3e 7e 55 13 be 3d 51 27 3d
       -0.22111927 0.27300236 -0.14388081 0.04084896
0002f0 9f d7 79 3e e2 89 b3 bd 20 59 13 3e a1 91 6a 3e
       0.24398659 -0.087665334 0.14389467 0.22907116
000300 b8 54 8d bc 09 7f c1 bc 76 47 88 bd 5d 56 2e 3d
       -0.017252311 -0.023620145 -0.06654255 0.04256283
000310 1d 6f 67 be a0 bf ea bd fc 89 65 be 27 f6 08 be
       -0.2260098 -0.11462331 -0.22415918 -0.1337515
000320 a2 27 45 3e 98 75 52 bc 8b 23 ba bd d8 01 d5 b7
       0.192534 -0.012845419 -0.090888105 -2.5392437e-05
000330 40 c1 36 3d a0 14 1c b8 1b 2f b6 3d 4a 32 1c bc
       0.04461789 -3.7212507e-05 0.088957034 -0.009533474
000340 56 27 c1 3c 9e e9 75 bd c5 3c 7c be 57 51 fc bd
       0.023578327 -0.060037248 -0.24632557 -0.12320202
000350 d3 11 2a be 04 1c c3 3d 04 cb 69 bb c5 41 19 3d
       -0.16608362 0.09526828 -0.0035673985 0.03741624
000360 88 89 2e 3e dd e6 75 be 65 04 5b bd 2b a9 4e 3e
       0.17044652 -0.24013849 -0.053470988 0.2018172
000370 15 0d 77 3e 68 4b 0a be b7 2e 53 be 00 ca 5e be
       0.24126084 -0.13505328 -0.20623289 -0.21756744
000380 31 c9 a1 bd 01 cd 49 be 03 37 69 3e 01 ac 0b be
       -0.07899702 -0.19707109 0.22774892 -0.13639833
000390 be 6c aa 3d 80 b8 1d 3e 61 cc 09 3d 6a 9f a7 3d
       0.08321522 0.15402412 0.033642177 0.08184703
0003a0 99 e9 b4 bd a0 bd 50 3e 2b 22 6a be 49 bf 88 be
       -0.08833618 0.20384836 -0.22864597 -0.2670844
0003b0 8a ea 5e 3e d9 6f f5 3c 47 a0 5b 3d ba 4b d1 3d
       0.21769157 0.02996056 0.05361965 0.10219522
0003c0 5f 8d 6b bd 11 66 66 be dc c6 b1 ba 11 63 83 be
       -0.05750787 -0.22499873 -0.0013563293 -0.2566152
0003d0 2a d9 11 3e e4 3f 9b be 79 b7 3e be 19 1f 15 be
       0.14242998 -0.30322182 -0.18624677 -0.14562644
0003e0 e5 c6 42 be cc 53 39 3e f8 f5 cf bc 56 88 c8 bd
       -0.19021185 0.18098372 -0.025385842 -0.09791629
0003f0 26 dd 3b 3e 86 d1 09 be 01 93 39 3e ba 3a c6 3d
       0.1834608 -0.13458833 0.18122484 0.0967917

nn_layers.0.bias f4 [128]
000000 cb 18 c4 3d d6 65 16 3e 8d 11 2f be d9 9d 60 be
       0.095750414 0.14687285 -0.17096539 -0.21935214
000010 fe ae 15 bd 59 5e e7 bd e4 f6 21 3e f0 8d c2 3d
       -0.03654384 -0.11297292 0.15816838 0.09499729
000020 36 0a a6 bd 22 dc 80 3e a1 ee 54 bc 5c 5e 30 3c
       -0.08107416 0.25167948 -0.012996347 0.0107646845
000030 25 71 04 be 14 cb a7 3c 74 3e 97 3d a7 de bf 3d
       -0.12933786 0.020482577 0.07384959 0.093686394
000040 3a 74 4d 3e 91 23 30 3e ca c0 21 be d5 67 0c 3c
       0.20063868 0.17201068 -0.157962 0.008569677
000050 3f 3e a8 bc 2b 65 8a bd c8 15 56 bd 21 9d 72 be
       -0.020537494 -0.067575775 -0.052266866 -0.23692752
000060 2f e5 60 3e 61 90 60 3e 44 a6 71 3e 82 14 9b 3d
       0.21962427 0.21930076 0.23598582 0.07572271
000070 c9 0f 26 be 12 ff 4e be 77 f1 dc 3d 7e 65 33 bd
       -0.16216959 -0.20214489 0.10788243 -0.043797962
000080 84 1f 86 3e e4 bd c0 3d c0 4d 62 3d f0 4c de 3c
       0.2619592 0.09411219 0.05524993 0.027136296
000090 ed 18 68 be 7c 86 97 be f2 51 61 bd 73 4d 09 be
       -0.22665758 -0.2959479 -0.05500979 -0.13408451
0000a0 03 60 9c bd aa 02 8b 3d bf cd ec 3d 93 8d 50 be
       -0.076355 0.067876175 0.115626805 -0.20366506
0000b0 4d 03 e7 bb 18 73 40 bd a2 7f 61 3d 06 39 7d be
       -0.007049954 -0.046984762 0.05505336 -0.24728784
0000c0 f5 45 ea 3d 1d c3 20 3e a2 02 ff 3d 6d 57 ed bd
       0.114391245 0.1569943 0.12451674 -0.11588941
0000d0 ca 36 23 be 87 e1 fb bd 02 ab 10 be ea fb 44 3e
       -0.15938869 -0.12298875 -0.14127734 0.19236723
0000e0 ad 9c 90 bb ae 71 a6 3d 13 24 10 3e 4c 14 73 be
       -0.0044132085 0.081271514 0.14076261 -0.23738211
0000f0 6f 45 23 3b f9 24 f2 bd 3c 1e 55 3e 82 98 6e be
       0.0024913212 -0.11823458 0.20812315 -0.23300365
000100 4d e9 2c 3e 17 39 a0 3d 93 61 36 3e bc d3 6b be
       0.16885872 0.07823389 0.17810659 -0.23029989
000110 7b ca 23 be 25 82 83 3e c6 17 9b 3d 85 cc 23 3d
       -0.15995209 0.2568523 0.07572894 0.039989967
000120 dd 2d 7a 3e 0a c8 3e bc 0b 58 e4 3d c0 fd fc 3d
       0.24431558 -0.011644373 0.11149605 0.123530865
000130 fd f8 0a bd b8 b9 05 3e df 40 7f 3e ac 8b 68 3d
       -0.03392886 0.13059127 0.2492709 0.056773826
000140 94 bb 4d 3e 42 27 59 3d 02 a8 0a bd ff 89 7a be
       0.20091087 0.053015955 -0.03385163 -0.24466704
000150 f4 00 35 bd f9 bd 92 3d 28 51 ce 3d 55 33 23 be
       -0.044190362 0.07165141 0.10074073 -0.1593755
000160 24 b1 0b 3e 38 e6 72 3e 4c 49 4a 3e 5b ff 93 bd
       0.13641793 0.23720634 0.19754523 -0.072264396
000170 3b f9 71 bd 27 3a 14 3e c9 79 24 bd 44 b5 05 3e
       -0.059075575 0.14475308 -0.040155206 0.13057429
000180 e4 0f a0 3c b7 8f dd bc 00 8c eb bd bc a5 ea bd
       0.019538827 -0.027046068 -0.11501312 -0.114573926
000190 c9 50 4a be c8 aa e6 bd 8d f2 d7 ba 53 80 4a 3e
       -0.1975738 -0.11263043 -0.0016475484 0.19775514
0001a0 a1 ef 63 bd 23 d4 b4 3d b0 54 fb bd 0b 05 1b 3e
       -0.05564845 0.08829524 -0.12272012 0.15138642
0001b0 c5 81 35 bc cf be 44 be 0a 3d 6f be aa c8 89 be
       -0.011078303 -0.19213413 -0.23363128 -0.26910907
0001c0 2b e7 dc bd 3e 03 61 3e 62 15 37 bd 8c 1c 3e bb
       -0.10786279 0.21973893 -0.044698127 -0.0029008714
0001d0 17 48 71 be d3 41 b1 3d e0 c8 d7 3d 05 a2 89 be
       -0.23562656 0.08655133 0.10536361 -0.26881424
0001e0 23 44 64 be 26 0a b8 3c 08 11 3f 3e 58 5e 5f be
       -0.22291617 0.022465777 0.1865884 -0.21813333
0001f0 9f 08 a0 bd ce e1 2e be 87 dc 90 3d 9f 9c 36 3e
       -0.07814144 -0.17078325 0.07073312 0.17833184

nn_layers.2.weight f4 [128, 128]
000000 2d 41 96 3d 30 5e 59 3d 18 e6 64 bd 06 50 ca bd
       0.0733665 0.05306834 -0.055883497 -0.098785445
000010 6d 99 58 3d 48 7b 81 bd bc d5 00 bd c7 91 a3 3d
       0.052880693 -0.06322342 -0.031453833 0.07986789
000020 3e 85 b2 bd d1 0c 3f bd 1d 75 b3 bd 49 d6 3f 3d
       -0.0871682 -0.046643082 -0.08762572 0.046835218
000030 d5 80 0e bc 97 0e 89 bb 57 f5 23 3d bf 2b 63 bd
       -0.008697708 -0.0041826474 0.040028896 -0.05546164
000040 df 54 77 bd 92 13 ed 3d 2a 64 df bc 73 57 90 3d
       -0.060383674 0.11575998 -0.027269442 0.070479296
000050 44 d9 2e 3d a4 eb 86 bd 4f 56 06 3d ca 7e 81 3d
       0.04268767 -0.06587914 0.032797154 0.06323011
000060 05 05 17 bc ed 4a 2e 3b 31 bb 93 bd f0 92 b4 3c
       -0.009217505 0.0026594952 -0.07213438 0.022042722
000070 ef c1 0b bd 21 f4 aa 3d c3 ec 6d 3b 84 96 36 3b
       -0.034120496 0.08347345 0.003630445 0.002786071
000080 9f 5e ac 3b 49 46 9f 3d 5f 06 3e bd 34 dc 51 3d
       0.005260303 0.07777078 -0.046392795 0.051235393
000090 6c 9c 4d 3d f3 5d 91 bd 3b cf be 3c 53 c1 bc bc
       0.050198004 -0.070979975 0.023292175 -0.023041403
0000a0 7a 50 f4 3b 0d a7 eb bb 71 fd 88 3d e6 66 a9 ba
       0.0074558826 -0.007191545 0.06688965 -0.0012924343
0000b0 0a 49 85 3c 0d 40 87 bd ad 8a cf bc e1 b9 b0 3c
       0.01627018 -0.066040136 -0.02533468 0.021573009
0000c0 64 52 69 bd 76 32 fb 3c 77 7f 8a 3d 1c 83 07 3e
       -0.05696334 0.03066371 0.06762593 0.13233608
0000d0 7b 92 92 bd 48 ec 5b 3c c2 29 50 3d 92 20 b2 3c
       -0.07156845 0.013423033 0.050821073 0.021744046
0000e0 f0 5f a2 3d a8 50 e3 3c d9 69 5f bd 97 16 68 bd
       0.07928455 0.02774842 -0.054544304 -0.05666217
0000f0 2b 71 1e be df 31 ae 3d d8 80 8c bd ee 85 b0 3d
       -0.15472858 0.08505606 -0.068605125 0.08619295
000100 46 f2 ef bc a7 98 8c bd 4c 9f 02 bd 72 21 16 3d
       -0.02929033 -0.068650536 -0.0318902 0.03665299
000110 61 4a 58 3d 5d 72 c7 bb 09 51 37 3b 54 77 21 3d
       0.05280531 -0.006086631 0.0027971885 0.03942044
000120 38 bd 3b bd 46 33 90 bc 57 2d 91 bd b5 92 75 3d
       -0.04583475 -0.017602574 -0.07088726 0.059954364
000130 09 cb a9 bd 2b 6b fa 3d c7 f7 84 3c d5 1d 02 3d
       -0.08290679 0.12227472 0.01623143 0.03176673
000140 dd 46 b7 3d 0e b4 14 bd f7 d0 51 3b 4d 9a cb 3c
       0.08949063 -0.036304526 0.0032015422 0.02485385
000150 2c 43 6a 3d 0a a3 a7 bc c4 c9 43 bd a0 ad 52 3d
       0.057192966 -0.020463485 -0.04779984 0.051435113
000160 e1 b2 69 bc b3 b4 26 3d ed 95 20 3d 2b 31 19 3d
       -0.014263839 0.040699672 0.03920548 0.037400406
000170 b7 19 5c 3d 7c f6 c4 bd f4 bd 48 bd dc 52 a5 3c
       0.05373546 -0.09617326 -0.04900928 0.020181112
000180 68 ae 6d 3d 70 d3 0f bd 75 f5 78 bd a2 fe 88 3d
       0.058027655 -0.035113752 -0.06078096 0.06689192
000190 4f 59 c3 bd d2 45 88 3d ff e4 3e 3d 71 70 8e bc
       -0.09538519 0.06653942 0.046605106 -0.0173876
0001a0 ae df a3 3c b5 04 a6 3d a1 f3 20 bd ed 2d 9a bc
       0.02000412 0.081063665 -0.039294843 -0.018820727
0001b0 89 13 b5 3c f9 53 04 bd b6 1f 60 bc 85 c6 9c 3d
       0.022104042 -0.032306645 -0.0136794355 0.07655052
0001c0 99 eb 8d 3d 73 b1 9e bd 9f a0 c1 3c e7 2f be 3d
       0.06929702 -0.077486895 0.02363616 0.092864804
0001d0 9b b5 8d 3d ac 25 7d 3d 18 46 90 3d 37 6f e7 bc
       0.06919404 0.061803505 0.07044619 -0.028251274
0001e0 a2 44 5c 3d ae 48 6d 3d 89 ff cc bc ca 30 cd 3c
       0.05377639 0.05793064 -0.025024192 0.025047679
0001f0 eb 8c a0 3d 09 db ac 3d d6 f0 14 3d 3a d7 ee bd
       0.07839378 0.08440215 0.03636249 -0.11662145
000200 38 ba 27 3d 57 cf b3 bd 97 04 74 3c 6a 23 f3 bc
       0.040949076 -0.08779781 0.014893672 -0.029679973
000210 df 31 9c 3d ab 32 54 3d e7 c6 3e bd 66 45 4e 3d
       0.076267 0.051806133 -0.046576407 0.050359152
000220 f8 4e 0e bd 15 b7 40 3d 07 6d 8d 3d 77 ca 22 3d
       -0.03474328 0.0470496 0.06905561 0.039743867
000230 0c 64 88 bb 64 9d 24 3a 63 ad 17 3d c2 60 3f 3d
       -0.004162317 0.00062795565 0.03703059 0.046723135
000240 1d 80 25 bc a3 2a de bd 1f a1 a3 bd e8 08 56 bc
       -0.010101345 -0.10847976 -0.07989716 -0.013063647
000250 43 59 02 bd e3 43 91 bd 63 c6 53 bd 0f 64 05 be
       -0.031823408 -0.070930265 -0.05170287 -0.1302645
000260 6d 8d 9f 3d a4 37 40 3d eb f4 62 bd 8c b4 7a 3d
       0.07790647 0.046928063 -0.055409353 0.06120734
000270 c9 6c 8f 3b 1f f3 9a bd 14 d8 19 3c a7 e4 0b bc
       0.004376982 -0.07565903 0.009389896 -0.008538402
000280 c6 91 a1 3d ab 77 5d 3d 2c 08 98 bd 43 74 48 bd
       0.07889132 0.054069202 -0.07423434 -0.048939
000290 37 5d 8d bc 02 97 a9 bd e0 61 13 3e 67 69 84 bd
       -0.017256362 -0.082807556 0.14392805 -0.064654164
0002a0 ef 2a db bd c0 d2 84 3c 59 5a 89 bd 90 68 b6 3d
       -0.10701548 0.016213775 -0.067066856 0.089066625
0002b0 6d 80 7d bd 89 ab 27 bc 7d cd 01 bd c2 48 96 3d
       -0.061890054 -0.010233768 -0.03169011 0.07338096
0002c0 80 49 91 bd a3 20 13 bd 03 78 02 bd c3 25 bb bd
       -0.07094097 -0.035919797 -0.031852733 -0.09138062
0002d0 46 09 39 bc b2 66 b2 bb 24 d9 a1 3c 88 20 c5 bc
       -0.011293715 -0.005444371 0.019756861 -0.024063364
0002e0 08 bf 11 bc fc be e8 ba 95 54 96 bb c2 bc 98 3d
       -0.008895643 -0.0017757113 -0.0045877197 0.07457878
0002f0 6d 4a a1 3c f0 1c 81 3d 94 0c 9e bd a6 ec a8 bd
       0.01968881 0.063043475 -0.07717243 -0.08248262
000300 7f 6b 58 3d 77 46 c7 3d d9 91 8d bd 07 a6 5a 3d
       0.05283689 0.09730237 -0.06912584 0.053380992
000310 19 4b bc bd e7 c0 1a 3d 40 4c a5 bd 30 fa 9b bc
       -0.09194011 0.037781622 -0.08071184 -0.019040197
000320 4b a4 39 bc 72 ee b2 3d a5 36 45 3d 50 f4 d5 3b
       -0.011330674 0.08736886 0.048147816 0.0065293685
000330 36 d7 c7 bb 7e c5 a0 3c e1 08 9d bb 8a 06 f4 3c
       -0.006098653 0.019625422 -0.004792318 0.029788274
000340 dd 6f 92 3d cd d2 1b bd 2a 06 c3 3d 53 e9 e4 bc
       0.071502425 -0.038042832 0.0952266 -0.027943289
000350 cb b5 f4 3c 22 65 49 3d 28 fc 78 3c f3 0a 1d bd
       0.029871842 0.049168713 0.0151968375 -0.03834052
000360 62 28 27 bd c8 74 07 3c 59 12 97 bd 86 c4 28 bd
       -0.040809996 0.008267589 -0.073765464 -0.041203044
000370 5b 02 ab bd 07 b2 bb 3d 68 de b0 3c c9 e6 49 3d
       -0.08350059 0.091648154 0.021590427 0.04929236
000380 88 5d 90 3c 8a cd 84 3c 0d 1b 05 3d 3e ba 5b 3d
       0.017622724 0.01621129 0.0324965 0.05364441
000390 d8 93 c4 3d c2 6b aa bd 4a 41 5d 3d 48 e5 89 bd
       0.095985115 -0.083213344 0.054017343 -0.06733185
0003a0 07 1a 8b 3d 6c 14 eb bc 75 7b b2 3d d7 d8 8e 3d
       0.06792074 -0.028696261 0.08714954 0.06974953
0003b0 ae 26 b0 3d 30 ec a9 bd 11 43 49 bd 8c a9 79 bc
       0.086011276 -0.08297002 -0.049136225 -0.015238177
0003c0 17 8c 91 3d a5 bd 96 b9 6e ee c8 3c 95 6f 1f bc
       0.07106798 -0.00028751526 0.024527755 -0.009731193
0003d0 08 87 05 3d 33 ca c3 3d 9d 3b 14 bd ee b3 da bc
       0.03259948 0.09560051 -0.036189664 -0.026697125
0003e0 f5 0a db 3d d7 a5 82 3c 86 c3 32 3e 69 f0 d8 3c
       0.10695449 0.01594822 0.17457399 0.026481824
0003f0 c4 ae 9e 3c 8d b6 a3 3b af 54 84 bd f3 8c b2 3d
       0.019370444 0.004996127 -0.064614646 0.0871829

nn_layers.2.bias f4 [128]
000000 5c 95 54 3d fc e3 b0 3d 21 6e 87 bb 4b a0 81 bd
       0.051900253 0.086372346 -0.0041330014 -0.063294016
000010 9b ac 73 bb 47 ef 71 3b 5b d4 b1 bd c4 36 2f 3d
       -0.0037181738 0.0036916302 -0.08683082 0.042776838
000020 4e 0b 3f 3c ea 4c 8f bb 57 dd 9b bd df c3 fd bc
       0.01166041 -0.0043731825 -0.076105766 -0.030977188
000030 9b ac 85 3d 21 58 a7 3d 22 e1 7f 3d f5 3a 9e 3d
       0.065270625 0.08171106 0.062470563 0.07726089
000040 55 f4 a6 3d c4 b2 ae 3d 98 11 80 bd 02 2f 2e bd
       0.081520714 0.085301906 -0.06253356 -0.0425253
000050 7f 10 84 bd 02 de 91 3d b7 e5 b6 bd ce 45 c6 bb
       -0.06448459 0.07122423 -0.089305334 -0.006050802
000060 28 ef ab 3c 08 1f b6 bd a2 28 eb b9 f4 50 39 3d
       0.020988062 -0.088926375 -0.00044852967 0.04524322
000070 eb b4 8a bd 90 be 05 bd 8b e2 18 bd 7b 3b e9 bc
       -0.067727886 -0.032652438 -0.037325423 -0.028470745
000080 37 d0 75 bd d0 3f bc bc 26 c5 26 bd 30 53 84 3d
       -0.060013022 -0.022979647 -0.04071536 0.06461179
000090 54 0d aa 3c 44 a1 05 3b 2a f6 8e bd f7 e7 c3 bc
       0.020758308 0.0020390311 -0.06980546 -0.02391432
0000a0 9e f8 a5 3d 2a 83 92 3d 53 b3 e6 3a 3d 90 4f bd
       0.081040606 0.07153924 0.001760105 -0.050674666
0000b0 40 f6 b3 3d 80 22 46 bd 4f 07 e0 3b 00 61 80 3d
       0.08787203 -0.048372746 0.0068368088 0.06268501
0000c0 08 8e 24 3d 46 43 e5 3b 94 f3 ac 3d 96 0f 23 bd
       0.040174514 0.006996545 0.08444896 -0.039809786
0000d0 53 4d e7 bc c9 01 51 3d af 7f d9 3c 35 98 9b bd
       -0.028235113 0.051027093 0.026550142 -0.075973906
0000e0 f3 94 ca 3c 92 07 35 bd 7b 3e 9e bd c8 25 4f bd
       0.024729228 -0.044196673 -0.07726761 -0.05057314
0000f0 c8 a0 a1 3d c4 cc 68 3a 91 d4 3d 3c b6 f2 95 3c
       0.07891995 0.000888061 0.011586324 0.01830421
000100 16 5d 86 bd 2c 55 4d bd 12 24 d1 bc 1a 1f 8c 3c
       -0.065607235 -0.050130054 -0.025529895 0.017104674
000110 80 e6 62 bd 15 30 0e 3d 07 bb 95 bd f6 bf dc bc
       -0.055395603 0.034713823 -0.07311063 -0.026947003
000120 78 7c b7 bb 1e 36 95 3d 44 9a 72 bd 33 a8 64 3d
       -0.0055995546 0.07285713 -0.05922915 0.05582447
000130 a9 1f b6 3c 92 5f 9a 3d 8d 96 8c bd 9a 08 d3 bc
       0.022231894 0.0753776 -0.06864653 -0.025760937
000140 f4 d6 5b 3d af 74 6e bd d2 dc 8a bb 94 3e 5d 3d
       0.053671792 -0.058216747 -0.0042377496 0.054014757
000150 61 08 96 3d 95 dc b9 bd d2 96 45 3d 67 45 37 3c
       0.07325817 -0.09075276 0.048239537 0.01118598
000160 69 ca 08 3d dd fe 69 3d df d9 96 bd 9c d5 8e 3d
       0.03339616 0.057127822 -0.07365774 0.069743365
000170 f4 c5 8a bc 14 c0 91 bc 3e 33 b7 3d b1 b5 4b 3c
       -0.016940095 -0.017791785 0.089453205 0.012433455
000180 8e 7b 21 3d c3 0d cf bc 6f 49 bf 3c 26 eb f6 bc
       0.03942447 -0.025275117 0.023350446 -0.030141424
000190 c7 f4 12 bd f8 13 27 3d a8 b1 fa 3c 82 ca 86 bd
       -0.03587797 0.040790528 0.030602291 -0.06581594
0001a0 c8 10 ae bd 72 5a 97 bd 9a 18 e1 38 6d 50 a3 3d
       -0.084992945 -0.07390298 0.000107334185 0.079743244
0001b0 98 70 ac 3d f1 48 6a bd 08 dc 41 3d 87 cf ba 3d
       0.08419913 -0.05719847 0.04732898 0.09121614
0001c0 9f 7e 33 3d 78 96 a0 bb e2 04 48 3d b4 a3 a8 bd
       0.043821927 -0.00490075 0.04883278 -0.08234349
0001d0 d1 7e 9b bd d3 c3 83 3c 48 bc 8d bd 60 80 11 bd
       -0.07592548 0.016084587 -0.069206774 -0.03552282
0001e0 d8 61 9a 3c f3 74 9d 3d a9 73 67 bc 6a 52 c2 3d
       0.018845484 0.07688322 -0.014126697 0.094883755
0001f0 b0 d3 ab 3d 60 f4 9a bd ef 1d 8a 3d 47 18 7e bd
       0.083899856 -0.07566142 0.06743991 -0.06203487

nn_layers.4.weight f4 [49, 128]
000000 da 34 0e 3c 19 2e c0 bd a2 c7 88 bd e2 6f a1 bd
       0.008679593 -0.093837924 -0.06678702 -0.07882668
000010 95 2e d2 ba f7 7a 23 3d f6 e2 01 3d 67 2d e0 3b
       -0.0016035611 0.03991219 0.031710587 0.00684135
000020 21 95 a8 3d 6d 8c 6f 3d 87 d3 ab 3d c5 e2 84 3d
       0.08231569 0.05848353 0.08389955 0.06488565
000030 17 bd a1 3b 0a 18 83 bd c0 04 96 bd 5d 98 8e bc
       0.0049358713 -0.064010695 -0.07325125 -0.017406637
000040 cb 36 ad 3d d0 8e f8 bd c5 a2 b9 3c 05 09 aa 3d
       0.084577166 -0.12136614 0.022660622 0.083025016
000050 e4 bc 9f 3c 9f ee 75 bc 5f f2 51 3c 2d a2 12 3a
       0.01949925 -0.015010505 0.012814133 0.0005593624
000060 b2 f2 03 be 30 e4 48 3d a1 9f 44 3d 63 a1 fe bd
       -0.1288555 0.04904574 0.048003796 -0.12433126
000070 5a 74 8f bd e5 62 8d 3d 97 a2 3a bd 42 ee 71 bd
       -0.07004614 0.06903628 -0.045565214 -0.05906511
000080 2d 09 8f bd 5f f8 5b 3c 47 b9 22 bc 47 14 12 3d
       -0.06984172 0.0134259155 -0.009931869 0.03566387
000090 09 98 07 3d 07 c4 76 bd 2c 2d 9f bb 8d 00 23 3d
       0.033103976 -0.06024554 -0.00485768 0.039795447
0000a0 ec ea 8e bc c6 a0 9f 3d 87 c4 42 3d 0f 83 dc 3c
       -0.017446004 0.07794337 0.047550704 0.026917962
0000b0 65 75 69 3d 8f 59 50 3d 62 ba 91 bd 67 4a c9 3d
       0.05699672 0.05086666 -0.07115628 0.09828644
0000c0 60 2a e2 3c 66 2d bb 3d 26 3d 2e bc 6f 87 32 3d
       0.027608097 0.091395184 -0.010634696 0.04358619
0000d0 71 7b b4 3d 48 e5 28 bd 22 f1 35 bd bf 1a 29 3c
       0.08812607 -0.041234285 -0.044419415 0.010321318
0000e0 bd fd 47 3d 8b b5 54 bc 4c 7d 84 bd 9e 4f e3 3c
       0.048825968 -0.012982736 -0.06469211 0.027747925
0000f0 4f dc 19 bd 72 12 fe 3c a6 b8 3a 3d 65 f6 65 3c
       -0.03756362 0.031014655 0.04558625 0.014035796
000100 8b b5 79 bd 8d 0c c3 bd 23 0c 9f bc e5 c2 63 3d
       -0.06096415 -0.09523878 -0.019414967 0.055605788
000110 8f 10 64 3d a0 7e 07 bb 84 c1 1f 3d 27 14 b8 bc
       0.055679854 -0.002067484 0.03900291 -0.022470547
000120 e9 97 e2 bd 9c 9f 39 3c 50 3d 6e 39 62 02 c1 bd
       -0.11064131 0.011329558 0.0002272029 -0.094242826
000130 c3 b1 af 3d ee 06 70 bd 72 45 f1 3c fe 36 14 be
       0.08578827 -0.05860036 0.02945206 -0.14474103
000140 23 b1 06 be ad 45 15 3d c6 54 31 3d 87 0d c5 3c
       -0.1315351 0.0364434 0.043293737 0.024054302
000150 d5 aa a6 bd a5 a5 46 bd 0e 2e 36 3c 66 82 7c 3d
       -0.081380524 -0.048497815 0.011119379 0.061647795
000160 30 48 61 3d 0f 2c d0 bd 76 79 65 bd cb 12 b1 bd
       0.055000484 -0.101646535 -0.056024037 -0.086461626
000170 fe 9e 06 3d 20 7d 5d bd 9a 33 a4 bd 1d 82 6d bd
       0.03286647 -0.054074407 -0.08017655 -0.057985414
000180 90 5f d0 bd 03 4f 9b bd 6c a1 6f bd 06 41 ff 3c
       -0.10174477 -0.0758343 -0.058503553 0.031158935
000190 1c 6d ba bb e7 b5 4b 3d 4b b5 49 bd 22 7d 4a 3c
       -0.0056892764 0.049734022 -0.04924516 0.012358936
0001a0 11 a4 3e bc d2 d0 ae 3d 1c b5 0c bd 70 10 d1 3c
       -0.011635796 0.08535923 -0.034352407 0.025520533
0001b0 ea eb e2 3c 79 43 cd bc d4 cf 6e bb 8c 27 e2 bc
       0.027700383 -0.025056588 -0.0036439793 -0.027606748
0001c0 13 d3 a0 3c ab 03 e0 bc 0e f5 18 3c 86 3e 44 3d
       0.019631898 -0.027345499 0.009335769 0.04791119
0001d0 cc a9 e9 bb 0a 0d 20 3d 4a 18 4a 3d 04 97 37 bd
       -0.007130837 0.039074935 0.04933957 -0.044821754
0001e0 13 b8 03 bd 9c ce ef bc 32 b7 80 3c 04 fa 81 bd
       -0.03215797 -0.029273324 0.015712354 -0.06346515
0001f0 25 1e 9a bd 3b e4 cf bd 5b 08 b2 3c d4 b7 de bd
       -0.07525281 -0.101509534 0.0217325 -0.10874906
000200 09 57 9e 3c d6 1d 15 bd 42 d0 fb 3c 29 50 5e 3d
       0.019328611 -0.036405407 0.030738954 0.054275665
000210 00 36 f9 ba 90 53 fe 3b 96 69 dd bd 70 0f b2 bd
       -0.0019013286 0.0077614263 -0.108111545 -0.08694351
000220 a6 06 83 bd 54 44 8f 3c 1c 69 c1 bd f1 7e 28 3d
       -0.063977525 0.017488636 -0.09443876 0.041136686
000230 3e 44 ab 3d 25 01 4f 3d 79 ff 2f bd 7f de 1b bc
       0.083626255 0.0505382 -0.042968247 -0.009513496
000240 88 78 96 bd 80 fc 66 3d 45 43 e5 3c 57 08 af bd
       -0.07347208 0.056393147 0.027986178 -0.085465126
000250 4e 96 30 3d 96 ee f4 bc 7c 1f b6 bd da d5 97 3d
       0.04311209 -0.029898923 -0.08892724 0.07413836
000260 ce 9a 0c bd bc 28 8c bc d6 ea 64 bc dc f8 82 bc
       -0.03432732 -0.017109267 -0.013972005 -0.015987806
000270 48 95 a7 bd 8a fb 4e 3c ce e5 31 bd 50 5b 61 bd
       -0.0818277 0.012633214 -0.04343205 -0.055018723
000280 0e 9e 45 3d 3e de 43 3c d8 7f e9 bd c9 20 57 bd
       0.048246436 0.011954842 -0.114013374 -0.0525215
000290 71 52 18 3d bd 51 ed bd 2b 8d a3 bd cc 46 87 bd
       0.037187997 -0.11587856 -0.0798591 -0.066053
0002a0 60 34 03 bd f7 00 71 3c 28 06 50 bc 41 52 f8 3c
       -0.03203237 0.014709703 -0.01269678 0.03031266
0002b0 43 6b 47 bd eb f6 5a 3d 0a e1 3d 3d d5 a6 91 3c
       -0.048686277 0.053458136 0.046357192 0.017779747
0002c0 70 4d 31 bc 13 82 8c bd 8b e7 e6 bd fe 4c 8a bc
       -0.010821685 -0.06860747 -0.11274632 -0.016882416
0002d0 a9 90 2c bd 7b a1 3a bc bc 57 1f bc 62 27 57 3c
       -0.042130146 -0.011391039 -0.009725507 0.013131948
0002e0 ee c8 3a bc 83 8d 27 bd 04 72 fa bd 35 0a 96 3d
       -0.011400444 -0.04090644 -0.12228778 0.073261656
0002f0 ec d2 0c 3b 98 eb 8b bb df 6d dd 3a 7f b1 71 3d
       0.0021488024 -0.0042700283 0.0016893706 0.059007164
000300 d0 18 8f 3d 32 a1 c9 bd 68 b7 8e bd f0 f1 a8 bd
       0.069871545 -0.09845199 -0.06968576 -0.08249271
000310 ce 91 14 bd d2 fc dc 3c 2b 0a 24 3b 28 dd ad bd
       -0.036271863 0.026976023 0.0025030475 -0.08489448
000320 44 60 c8 bc e9 d0 45 3c 16 18 95 bd d4 8a a6 bd
       -0.024459966 0.012073734 -0.07279985 -0.08131948
000330 85 26 30 3d 0e a5 7e bd 7e d7 aa bd a5 b3 58 3c
       0.043005485 -0.062169127 -0.08341883 0.013226424
000340 90 21 ef 3c e3 da 83 bd b7 bb 0f 3a 62 78 ca bc
       0.029190809 -0.06438234 0.0005482989 -0.024715606
000350 1e e7 92 bd 1e c5 98 bc 97 32 c8 bd 2a ea 00 3d
       -0.07172988 -0.01864868 -0.09775274 0.031473316
000360 41 1c 7a bd 29 7c 36 3d 3c 6b 8e bc d0 b6 02 bd
       -0.0610621 0.044552002 -0.017385118 -0.031912625
000370 fb 31 07 3d 2c 28 b4 3d 65 6b 9a bd 4e 98 aa bb
       0.03300665 0.08796725 -0.07540015 -0.0052061444
000380 5c 5c b9 3d f3 a3 7f bc e1 ff 57 bd c8 a1 b0 bd
       0.09050819 -0.015603053 -0.05273426 -0.08624607
000390 16 5f eb 3c e3 53 1e 3c 90 75 15 bd 5b 7d d4 bc
       0.028731864 0.009663555 -0.03648907 -0.02593868
0003a0 da 2a e6 bb 1a 7b 32 3d 27 c0 97 bd 13 68 b5 bd
       -0.0070241513 0.04357443 -0.07409697 -0.08857741
0003b0 80 e4 a5 bd e5 5b ba bd fc 50 33 3d 38 34 dd 3c
       -0.081002235 -0.09099559 0.043778405 0.027002439
0003c0 38 0e 13 3d 16 60 10 3c bc 15 19 3d 60 7d 84 bd
       0.035902232 0.008811971 0.037374243 -0.06469226
0003d0 28 10 4b 3d 80 fd 58 b7 98 09 65 3b 7e 9e 36 bd
       0.049575955 -1.2933626e-05 0.0034948345 -0.044584744
0003e0 75 c9 88 bd 96 b6 c7 3c b8 f7 22 3c 7c bc 8f 3c
       -0.0667905 0.024379056 0.009946756 0.017545931
0003f0 a6 b7 cd bd ef 60 8f bd 52 7b 38 bd a7 76 43 3c
       -0.10044794 -0.070009105 -0.045039482 0.011930144

nn_layers.4.bias f4 [49]
000000 42 bb 36 bd 9a bb 6c 3d d5 19 a7 bd 9a f6 2a bd
       -0.044612177 0.0577961 -0.08159224 -0.041739084
000010 16 d9 34 bd e1 93 1d 3d cc 45 5c 3d 7d 30 aa 3c
       -0.04415234 0.038471106 0.0537775 0.020775074
000020 b5 3e 27 bd 77 c8 3a bc 19 e4 90 bd 65 2d a6 bc
       -0.040831286 -0.011400334 -0.07074756 -0.020285318
000030 d4 26 dd 3d 1f 66 83 3a d5 12 20 3d ca af 4e bd
       0.107984215 0.0010024941 0.03908046 -0.050460614
000040 3d 44 fb 3c 2f e0 aa 3d 59 28 d4 bc d7 58 d5 bd
       0.030672187 0.08343541 -0.025898146 -0.104173355
000050 21 07 e0 3d 17 bc dd 3d 7f b6 1a bd 2f 93 dd 3d
       0.1093886 0.10826891 -0.037771698 0.10819089
000060 ce 3b 3c bd 02 c0 52 bb 01 c4 29 bb fc 46 f8 bd
       -0.04595547 -0.0032157903 -0.002590418 -0.12122914
000070 b8 df 07 3c 80 a6 a9 3c 32 1f 1b bd 3e 95 6c bd
       0.008293085 0.020709276 -0.037871547 -0.057759516
000080 89 10 8e 3d 5a df 3a 3d c7 55 e4 bb 26 3d 92 bb
       0.069367476 0.04562316 -0.0069682333 -0.004462856
000090 a6 51 0f bb f7 f9 56 3d b0 bd 96 bc 67 83 91 3c
       -0.0021868735 0.05248448 -0.018400997 0.017762853
0000a0 22 35 ab bd 61 2c b1 3d 12 52 d2 3c 58 6a 52 3d
       -0.08359744 0.08651043 0.0256739 0.05137095
0000b0 eb 07 85 bc 0a 7b ca 3a 5f b8 c4 bd 99 f4 b2 bd
       -0.016239127 0.0015448045 -0.096054785 -0.087380596
0000c0 1b be 8c bc
       -0.017180493
