jengazero_data/jengazero_union_featureset/checkpoints/140/model.pkl (torch_old, 139087 bytes, 6 tensors)

nn_layers.0.weight f4 [128, 90]
00000000: eb36 8f3d faf5 693d d3f2 d5bd 34b1 36bb
00000010: 2f02 613c 1a5a 02bc d429 e4bd ba51 48bd
00000020: 975a e83c b212 773c 5051 903d 1bf9 fcbd
00000030: ce17 343d a70c 70bd 4132 3a3d 5bbf 92bd
00000040: cc22 68bd daff 223c 133c 5e3c 8730 8bbd
00000050: 82ad 12bc 33c9 e33d ff8a 043d ab76 b33d
00000060: 28c8 343c 765b 65bd 340d 16bd 1061 25bc
00000070: ee64 2e3d 44f6 db3c 2d11 afbd 2e1d 8b3d
00000080: 7d79 2ebd c807 3a3d 1a3a eabc 3493 69b9
00000090: 4707 4d3d 8c3e bebd 722c 83bc 4ec2 e0bd
000000a0: 6d83 8c3b 5eea fb3c fbc5 dcbd 03b9 9bbb
000000b0: 0482 8f3d 8e5c 4c3c a2f9 da3c 3530 6bbb
000000c0: 607e 213d 9e8b a33c 14ab 0fbd bc22 0abd
000000d0: 1385 153d 733d 373c c691 f9bc da06 883d
000000e0: d0a1 c33d 7364 783c 5227 5dbd 8d35 5abd
000000f0: 71d8 0e3d 09f3 b13d 72d6 013e 3bb3 9dbd
00000100: 0521 85bd 6460 fb3c a089 9fbd 3dbc 873d
00000110: bb19 923d af82 a83d ee61 c2bd 510c 8ebd
00000120: 6989 a63d 3fb1 a13d 8217 533d 90cf 15bd
00000130: 4aea 0b3e a6c5 4e3d 6e91 a23d 3681 eabc
00000140: ec72 9abd 98b5 863d 828a 56bd 7dbf 303d
00000150: 9e96 733c 9355 04be f615 cbbd 4f34 8d3d
00000160: 5f91 b43d 15ce c2bd 08c8 d53a 0a28 c3bc
00000170: e531 5dbd 8173 67bc 1b7b 91bd cee3 cf3c
00000180: cc96 b93d b2d1 443c e84a ba3d bc47 143d
00000190: 0c5b ae3b 16c7 37bd 0043 a83d e353 c5bd
000001a0: 6bee 55bc 0826 7dbd 03e3 ceba d7c7 00bd
000001b0: 5e82 debd 1904 9a3c faaf 8a3d 3a37 ac3d
000001c0: 808a 2d3d 0a48 80bd c9c8 7cbd 30b1 aebd
000001d0: a826 88bc 001a 60bb 244c b1bc 7091 8cbb
000001e0: c6b2 323d 27a9 98bd 73c7 cebd fa9b 0b3d
000001f0: 7c9a dd3c 92bb e6bd 58f6 7abd 17fa 9bbb
00000200: dfb0 c1bc e7fd c23c 156a 43bd 31fd 5f3d
00000210: b3ac 87bd 55e0 863c c2c6 1d3d ab6f 1dbc
00000220: 4439 903b 5891 593b f6d7 9fbd b151 03bd
00000230: bce6 5c3c 22e5 d73c 7cf6 e23d ffde 083d
00000240: be4d 5a3d 0ebf 2dbc 2d7b 7a3d fb9e eabd
00000250: 7b61 35bd e99a 0b3e e6ea e53c 9bba 733d
00000260: bf09 e33d c03b 273b 992c 953d a8fb 96bc
00000270: 8077 403c d7b5 9cbd 96c2 413d f619 333d
00000280: c826 78bc 2a16 31bd 1608 6a3d 3749 7abd
00000290: 160a 91bd 2cee 973c e211 25bd f6d9 a33d
000002a0: 390a e4bd 9848 07be 566a b7bd 34e6 06be
000002b0: 7ee1 6e3d 5020 0cbe 9bd3 13bd efb5 38be
000002c0: d71f cf3d c302 91bd 765a 61bd 302c 9dbd
000002d0: 4d69 bfbc bc8e ea3a fed6 8e3d 2549 18bc
000002e0: f923 5abd 8398 e23d 6fb4 15bd cc6f 633c
000002f0: b002 1e3e dbf4 b73b 81e3 e43d 4e7a 7a3d
00000300: d56a b53b 3c39 3e3d b401 4a3c 54da 993d
00000310: 3628 12be 2308 89bd 9e97 04be 6d7c 5cbd
00000320: 5e0a 343d 7103 583c 98f9 83bd 0000 28b7
00000330: b428 903c 0040 76b7 6eb5 0f3d 406b 76bb
00000340: 985c 183c 7cfa c1bc b994 c8bd 5fc2 28bd
00000350: 59e9 8bbd b100 193d 9362 cd3c 5f38 08bd
00000360: 37b4 a33d 9ab3 babd 6cd0 49bd e921 9f3d
00000370: 076f cf3d 9390 b8bd 6d28 a7bd 39bc f5bd
00000380: cf24 78bd 7821 94bd 2aac b23d 1522 5cbd
00000390: eeea 543c 9f6a 383d 909c 473d b702 0b3d
000003a0: c686 15bd 74c7 de3d e35d 21bd ebae 1abd
000003b0: d4cb e43d d722 523d b901 51bc 526a e13d
000003c0: 006c 5cbd c0ea 47bd 730b 033d 067c afbd
000003d0: 4ec1 493d 69b1 98bd 8ce3 b4bd 2660 14bd
000003e0: f978 8fbd 192b 893d 40d8 c63a 5016 eabb
000003f0: 6330 943d e26c 59bd 0962 923d 8e5d 1c3d
0.06992897 0.057119347 -0.10446706 -0.0027876617 0.013733431 -0.007956052 -0.111407906 -0.048906066
0.02836351 0.015080141 0.07046759 -0.123522006 0.043968014 -0.058605816 0.045458082 -0.071654044
-0.05667381 0.009948695 0.0135641275 -0.06796365 -0.0089525 0.1112236 0.03235912 0.087628685
0.011034049 -0.055995427 -0.036633685 -0.010093942 0.042576723 0.026850827 -0.08548198 0.06792675
-0.04259633 0.045417577 -0.028592158 -0.00022275449 0.05005577 -0.092892736 -0.016012404 -0.10974561
0.004288128 0.030751403 -0.10779949 -0.0047522797 0.070072204 0.012473239 0.026730362 -0.0035886888
0.03942716 0.019964036 -0.035075262 -0.03372453 0.036503863 0.011184084 -0.030465018 0.06641932
0.09552348 0.015160668 -0.053992577 -0.053273726 0.034874383 0.086889334 0.1267946 -0.07700201
-0.065004386 0.030685611 -0.07789922 0.066277005 0.07133814 0.08228051 -0.09491335 -0.06935943
0.08131678 0.07895135 0.05153609 -0.0365749 0.13663593 0.05048146 0.07937895 -0.028626066
-0.07541451 0.06577605 -0.052378185 0.043151367 0.014867453 -0.12923269 -0.09916298 0.06894743
0.0881679 -0.09511963 0.0016310224 -0.023822803 -0.05400266 -0.014126659 -0.07103559 0.02537718
0.09061965 0.012012886 0.090963185 0.036201224 0.005320912 -0.044867598 0.08215904 -0.09635141
-0.013057332 -0.061803848 -0.0015784207 -0.031440582 -0.10864709 0.018800782 0.06771846 0.08408971
0.042368412 -0.0626374 -0.06171492 -0.085298896 -0.016619995 -0.0034195185 -0.021642752 -0.0042897984
0.043627523 -0.07454138 -0.10096636 0.034084298 0.027051203 -0.11266245 -0.061270088 -0.0047600376
-0.023643909 0.02380271 -0.04770859 0.05468482 -0.06624737 0.016464392 0.03851963 -0.009609143
0.004401358 0.0033198204 -0.07804863 -0.03206033 0.013482746 0.026354376 0.110821694 0.03341579
0.053296797 -0.010604633 0.061152626 -0.11456104 -0.044282418 0.13633312 0.02806611 0.059504133
0.11085843 0.0025517792 0.07283897 -0.018430546 0.011747241 -0.07651871 0.047304712 0.04372593
-0.015145965 -0.043234028 0.057136618 -0.06110498 -0.07082002 0.018546186 -0.040300258 0.08000557
-0.11134762 -0.13211286 -0.08955829 -0.13173753 0.058320515 -0.13684201 -0.036090475 -0.18038152
0.10113495 -0.07080605 -0.05501791 -0.07674444 -0.023365641 0.0017895321 0.069746 -0.009294783
-0.053256962 0.110642456 -0.036549028 0.013881635 0.15430713 0.005613906 0.111762054 0.061151795
0.005536417 0.0464413 0.012329508 0.07512346 -0.14273152 -0.06691005 -0.12948462 -0.0538296
0.0439552 0.013184414 -0.064440906 -1.001358e-05 0.017597534 -1.4677644e-05 0.035085134 -0.0037600547
0.00929942 -0.02367901 -0.097939916 -0.04120099 -0.06831617 0.037354175 0.025071418 -0.033256885
0.07993358 -0.091162875 -0.049271032 0.0777014 0.10128599 -0.0901195 -0.081620075 -0.11998791
-0.06058198 -0.07232946 0.08724244 -0.05374344 0.012995465 0.045023557 0.048733294 0.033938136
-0.036505483 0.108778864 -0.039396178 -0.03776447 0.1117169 0.051302757 -0.012756758 0.11006607
-0.053813934 -0.04880786 0.03199334 -0.085685775 0.049256615 -0.07455713 -0.088324636 -0.036224507
-0.070054956 0.06697673 0.0015170649 -0.007143773 0.072357915 -0.053082354 0.07147605 0.03817516

nn_layers.0.bias f4 [128]
00000000: fc80 c2bd d7b2 e3bb 3dfc a8ba 5926 a9bd
00000010: 7e59 0dbd 011b 3f3d 4646 4e3d 8d74 ae3d
00000020: 2471 49bd 98f3 26bd ee40 c63d b587 84bc
00000030: 03c5 8abd ead4 30bd 9664 ac3d 8df7 a7bd
00000040: 4501 a4bc 0f49 903d 015e 383d f4f5 f1bc
00000050: 6471 c43d 3b3a 23bd 38e5 2ebc 54fe 12bd
00000060: b97b b3bd 054a 883d b655 843d cb6e 9fbd
00000070: 3fac d3bd a2a3 c33d f187 693d 35b2 7f3d
00000080: d18e aa3d 2aef 843d 4783 44bd 94f6 b6bd
00000090: fa39 e0bc d88c afbd e9aa c43d 365a 87bd
000000a0: 0669 23b7 d647 b73d 5319 d4bc 8fc4 e1bc
000000b0: bd8c 4f3d f847 a9bd ce50 c1bc afea 183d
000000c0: c07e 2dbd 2009 063d 8822 0d3c 6c69 ed3c
000000d0: bf52 c3bd 0956 6a3d 2e5e 793d 0037 6e3c
000000e0: fbe7 43bd cbcd 3d3d c3d2 b53d 7ef9 403d
000000f0: 6781 6ebd 8998 dcbd 2604 7b3d 8026 7a3b
00000100: f84a 6ebd 390a 87bd 3a5e 9dbd 145e 0d3c
00000110: fd94 97bd 1c68 853c 36ca 9b3d fca1 f83c
00000120: f664 493d 45a8 75bd 309d a03d 5a6c 0d3d
00000130: e72b 8d3d a105 e93c fd46 a1bd 551f 95bd
00000140: 3965 e63d 1397 65bd bcd8 8f3d acc2 c5bd
00000150: 51ed 03bd eff5 d93d 2371 b4bd 7ad0 713d
00000160: e0ca 7e3d 5be1 99bc 76bc 7d3d abee 973d
00000170: 6663 013d ed81 67bd a469 78bd 0485 a23d
00000180: 1dfc 63bb 7513 debb f95d 3ebd 5c5a babc
00000190: 5aaf 66bc 0117 84bd 8acb 8abd 68ec 2abd
000001a0: 2056 b7bb 3932 bcbd 953a c93c b53d 9a3c
000001b0: bea1 c43c 818b 84bd 7071 e7bc b2e4 833d
000001c0: 5a5d 0a3d 8674 3c3d 2b42 643c 8ec1 403d
000001d0: 838e 703d 65ae 953d 4efa dd3a d770 043d
000001e0: 5884 3dbc e0ca e1bb 7be8 593c da73 10bd
000001f0: f846 a03c 804f c3ba 1fa6 c73b 8de1 0cbd
-0.09497258 -0.0069488096 -0.0012892556 -0.08259267 -0.034509175 0.046656612 0.050359987 0.08518324
-0.049180165 -0.040759653 0.09680353 -0.016177991 -0.06775858 -0.0431718 0.08417623 -0.082015134
-0.020020137 0.07045185 0.045011524 -0.029536225 0.0959194 -0.039850455 -0.010674767 -0.035887077
-0.087638326 0.06654743 0.064616606 -0.07784804 -0.10335588 0.09552695 0.05701441 0.06242581
0.08328021 0.064909294 -0.04797676 -0.0893375 -0.027371395 -0.08571786 0.09602911 -0.06609003
-9.74001e-06 0.089492485 -0.025890982 -0.027559547 0.050671328 -0.0826568 -0.023598101 0.037333187
-0.042357206 0.032723546 0.00861419 0.028980933 -0.09537267 0.057210956 0.060880832 0.01453948
-0.047828656 0.046338838 0.0887809 0.047112934 -0.058228876 -0.10771281 0.061283253 0.003816992
-0.058176965 -0.06593747 -0.07683988 0.008628387 -0.07401464 0.016284995 0.07606928 0.030350678
0.04916855 -0.059974927 0.07842481 0.03452716 0.06893139 0.028445067 -0.07874868 -0.07281367
0.112497754 -0.05605228 0.07023761 -0.09656271 -0.032208744 0.10642611 -0.088106416 0.05903671
0.062205195 -0.018784216 0.06194731 0.07418569 0.031588934 -0.05652039 -0.06064762 0.07935527
-0.0034787722 -0.006777222 -0.046476338 -0.022748165 -0.014079893 -0.064497 -0.06777103 -0.04172936
-0.0055949837 -0.09189267 0.024564067 0.018828252 0.024002906 -0.06471921 -0.028252333 0.064401045
0.033780433 0.046009563 0.013931791 0.047059588 0.05872966 0.07308654 0.0016935559 0.032334175
-0.011567198 -0.0068906397 0.013300057 -0.035266735 0.01956509 -0.0014901012 0.006092801 -0.03439479

nn_layers.2.weight f4 [128, 128]
00000000: 8eaa 123d b0a7 9bbd bd0d 15bd 0857 58bd
00000010: 4e6f 93bd 46e7 f4bb 28f2 e93c 60b3 4cbd
00000020: 7ad0 9abd b4fb d8bc 47ff 55bd 483c 833d
00000030: ecda c0bd f6b5 353d 7693 673d 4166 0a3d
00000040: 7692 b83b 59f8 a43c c7ca daba 569d 4e3d
00000050: c91b 94bb e64d a9bd 7a3d 2f3d 58c0 203d
00000060: e788 85bd 2d74 2dbd 1aeb fabc 1bdb 2abd
00000070: 089c 3cbc f247 14bd 0b87 34bd 5d0b ae3d
00000080: c2d0 90bd b2a5 65bd 0230 73bd d96e 4dbd
00000090: ddf7 a5bd 584c a9bc 603d 46bb c877 35bd
000000a0: 66fc 0bbd e738 603d 59d3 773d 4c51 93bd
000000b0: f3e9 5cbd f960 e03c 6d3d aebd a658 243c
000000c0: ef56 12bd dd0c 00bd 5d90 8cbd 4e95 2e3d
000000d0: d087 bc3b 0e49 c6bc 41ac 8a3d 22f5 6b3d
000000e0: d0ac 673d bad4 38bd 7368 36bd 546c 9a3c
000000f0: 2337 0dbd f4f3 593d af35 b83b 85e6 b33d
00000100: 1821 073d 9994 9e3d 2050 8dbd 2106 87bc
00000110: 6041 133c 59df b0bd 336d 8c3d 9b22 9c3d
00000120: 6635 9e3d c212 583d 4792 83bd 1528 27bd
00000130: 43fb 8abd ec41 b0bd 6509 3a3d cd91 7c3d
00000140: 90a8 03bd 6987 1f3d 84b0 e23c 4d9b 98bd
00000150: 56ef 59bd d2a6 b03d ee41 91bd a2d3 0bbd
00000160: 26d6 a53d 3420 023d 6fd8 bebc d95f 78bd
00000170: dba6 96bc eab8 bcbb 0133 afbd 179f 013d
00000180: 3031 2dbc 3cc1 23bd d3f8 8ebc 339a 62bd
00000190: 705e 86bd de10 abbd f6ba f23c 62fc 923c
000001a0: 3cfb a3bd e526 bcbd 6a57 99bd 3c00 95bd
000001b0: 3953 f4bc aa17 6b3d cfc4 983d e74d 203d
000001c0: 18db 28bd 3afd babd 2389 8a3d 7013 fd3c
000001d0: 150c e83c f235 2fbc 7d46 483d a221 19bd
000001e0: 0f2a 923d e074 633c 15ce d6bc 9773 8f3b
000001f0: f471 a3bd 31e4 a7bd 6c6e 6f3d e091 703d
00000200: 7cc5 75bd e421 f53b 4b02 e4bc 63b5 1d3d
00000210: 58e1 aabd 21f4 3fbd cba3 5fbd 02f7 66bd
00000220: 1002 863d 3e46 203d fc99 9cbd fb76 b63c
00000230: 5b71 19bc 5017 813b d066 233c 1430 bf3d
00000240: 7098 80bd 2300 95bd 286a b3bd 762a 3e3d
00000250: 6845 6b3c 308a 0a3d 2914 9c3d 98ea 90ba
00000260: 6bd5 7c3d f8e4 62bc 2eac 03bd 0471 06bd
00000270: 6ddb ac3d 3861 083c 9793 9fbc 1434 c63c
00000280: 80a5 21ba df8e b13d 801f 393a e5d5 71bd
00000290: 87cf 953d 7a26 5ebd 90fd fcbc cc02 95bd
000002a0: 5a23 90bd 0ed4 653d 56cb eabc fca2 2fbd
000002b0: beb3 983b 9077 1c3c 4d90 1c3c 0e0c bcbc
000002c0: d79f fabc b88a 913c 1a80 b5bc d8a9 87bc
000002d0: f66c 253d ce3a c63c db5c 123d 1f0f ac3d
000002e0: 97fb 7b3d 4dff f53c 104a 34bd adf3 8d3d
000002f0: 132a 9f3d f776 a63c 6cf7 73bd 40ca 53bd
00000300: 2313 0f3d 8708 a13c f7c0 873d e1ba f63c
00000310: 2d52 a33d 7de1 1bbd 6674 80bd fc90 7ebd
00000320: fb07 3abd 05c8 87bd ca46 083d 8583 583c
00000330: e69b 953d 8bc9 563d ba2a a63c 2652 623d
00000340: bd5f 8dbd 40de 9ebd ac93 4fbd 787f 73bd
00000350: f032 3fbd 9ea5 b4bc cf5e 5dbd 062b 7b3d
00000360: d002 11bd fcb9 e93b 9a36 9b3d 92d7 8a3d
00000370: df93 833d b04d 40bc 1cc5 e53c 1084 963d
00000380: 55f3 a13d 9c0f 81bc c67b c0bd 6029 85bd
00000390: c015 7bbd 6672 9cbd 1e15 573d d141 c5ba
000003a0: 8452 87bd 9969 a03d 828f fb3c 745f 8bbd
000003b0: 4fcf adbd 02c7 02bd e037 493b fcbc 09bd
000003c0: cf24 b03d c12f fc3c bcf9 0cbd 7c23 2fbd
000003d0: d15d b0bd 911c 1ebb 06b6 303d 74b5 a13c
000003e0: 5ad5 8e3d 4a1c 3a3d da87 e1bc 1066 cf3b
000003f0: 8602 73bd cf7f b0bd 260e 553d d2f6 aabd
0.035807185 -0.07600343 -0.036390055 -0.052817374 -0.07198964 -0.007473859 0.028557852 -0.049975753
-0.07559295 -0.026487209 -0.052245405 0.06407982 -0.09416756 0.044362985 0.056537114 0.033788923
0.005632694 0.020137953 -0.0016692512 0.050443016 -0.004519914 -0.08266811 0.042783238 0.039245933
-0.06520253 -0.042347122 -0.030629683 -0.04171286 -0.01151181 -0.036201425 -0.0440741 0.08498261
-0.070710674 -0.056066222 -0.059371956 -0.05015454 -0.08103917 -0.020666286 -0.0030248985 -0.044303685
-0.034176253 0.054741766 0.06050429 -0.071932405 -0.05393405 0.02738999 -0.0850781 0.010030901
-0.035727438 -0.031262267 -0.068634726 0.042622857 0.005753495 -0.024204757 0.06771136 0.057606824
0.05656129 -0.045124747 -0.044533204 0.018850483 -0.03447641 0.053211167 0.005621634 0.087842025
0.032990545 0.077431865 -0.06900048 -0.016482415 0.008987755 -0.0863635 0.068567656 0.07623788
0.07725029 0.052752264 -0.064243846 -0.04080971 -0.067862056 -0.086063236 0.045419116 0.061662484
-0.032143176 0.038947497 0.02767206 -0.07451496 -0.053206764 0.086255684 -0.07092653 -0.034137376
0.08097486 0.031768993 -0.023296563 -0.060638282 -0.01839011 -0.005759348 -0.0855465 0.03164586
-0.010570809 -0.039979205 -0.017452633 -0.055322837 -0.06560981 -0.083528265 0.029630166 0.017942611
-0.080069035 -0.09187106 -0.07487376 -0.07275435 -0.02982484 0.057395615 0.07459413 0.039136793
-0.04122457 -0.091303304 0.06764438 0.030893058 0.028326074 -0.010694014 0.048895348 -0.03738559
0.07136928 0.013882846 -0.026221314 0.004377793 -0.07980719 -0.08197821 0.058454916 0.058732867
-0.06000279 0.0074808467 -0.027833125 0.038503062 -0.08343762 -0.04686368 -0.054599565 -0.05638791
0.06543362 0.03912949 -0.07646558 0.022273531 -0.009365405 0.0039395466 0.009973243 0.09335342
-0.06279075 -0.07275417 -0.08760482 0.046427213 0.014359809 0.033823192 0.07621033 -0.0011056243
0.06172697 -0.013848536 -0.032146625 -0.032822624 0.0844029 0.00832396 -0.019479556 0.024194755
-0.0006166324 0.086698286 0.0007061884 -0.059041876 0.07314973 -0.054235913 -0.030882627 -0.07275924
-0.07037993 0.056110434 -0.028661411 -0.042880043 0.004660099 0.00954999 0.009555888 -0.022954967
-0.030593796 0.017766342 -0.02215581 -0.01656048 0.040387116 0.024197962 0.035733085 0.084013216
0.06151923 0.030028963 -0.044015944 0.06931243 0.07771697 0.020320399 -0.05956213 -0.051706553
0.03493036 0.019657386 0.06628602 0.030118408 0.07974658 -0.03805684 -0.06272201 -0.062149987
-0.045417767 -0.066299476 0.033270635 0.01321495 0.07305126 0.0524383 0.020284045 0.055254124
-0.06903026 -0.077572346 -0.05067794 -0.059447736 -0.046679437 -0.022051629 -0.054045495 0.061320327
-0.035403073 0.007132767 0.07578774 0.06779398 0.064246885 -0.011737272 0.02804809 0.07349408
0.0790774 -0.015754513 -0.09398608 -0.06502032 -0.06130004 -0.07639007 0.052510373 -0.0015049522
-0.066075355 0.07832641 0.030708078 -0.068053156 -0.084868066 -0.03192807 0.003070347 -0.033627495
0.08600771 0.03078449 -0.034417853 -0.04275845 -0.08611644 -0.0024125914 0.04314234 0.019739844
0.06974287 0.045437135 -0.0275306 0.0063293055 -0.05932858 -0.086181276 0.052015446 -0.083478585

nn_layers.2.bias f4 [128]
00000000: ca95 9e3d ae32 acbd a8f4 6cbd ae42 58bd
00000010: 5dfa e53c ff46 2b3d 8d39 24bd 0056 36bc
00000020: 6d91 2c3d 5c81 a3bd 5fc0 a93d 16c2 b23d
00000030: 72d0 2abd 81ca 8dbd f281 ac3d d862 ec3c
00000040: f8e6 ae3d b564 193c 2433 f5bc e077 f53b
00000050: 06be ccbc 7955 423d 853b 1ebd 0f15 bcbc
00000060: c052 5b3b 0c4e 1e3c c27d 083d e100 583d
00000070: 3e7f 9e3c 709d a4bc 9d3d 8ebd f9da 4d3c
00000080: 55eb adbd fa61 45bd 5207 b83d af02 49bd
00000090: ab89 2c3d d3ad 453d 8307 623d da87 febc
000000a0: 545b 3b3d 7d93 9abd 01c2 583d 2109 ad3c
000000b0: 851b 84bd fc07 91bc 64ed 31bd bf04 46bd
000000c0: 5119 63bc 5901 9fbd 405d 983d e0d2 a7bc
000000d0: f74d b2bd 0413 a0bd b359 dc3c 807d 22bd
000000e0: be42 82bd 5423 a13d 8816 bf3c 4e8d 483d
000000f0: 0872 4ebc 43a4 c73c 67af 4eba faa6 e1bc
00000100: 652e ee3c 2751 643d 4639 68bb d205 6bbd
00000110: e63f 86bd 1897 4bbd 69be 633d 250a 3bbd
00000120: cab5 5fbd 4c0b 303c 053a 523c 65ca 873d
00000130: c08a 78bd be63 c33a 0b34 6d3d 56f7 373d
00000140: d682 9f3d fa63 4a3d a789 b83b 6930 34bd
00000150: b1ea 8d3d 66e0 bf3c 53c2 833d 9176 0ebd
00000160: 81e5 34bd 120d 73bd 7177 4cbb c8d6 9abd
00000170: e0e8 873d 1683 103d 97c9 9bbd 7014 e53c
00000180: e961 daba efc7 30bd 3f87 45bd 7e90 783d
00000190: 5524 733d 478b 90bc 6a3e 6abd 5dc7 db3c
000001a0: f2ca a3bc 3ec3 9bb9 de04 813d 3e53 633d
000001b0: 2746 6e3c 9adf 8fbc 58e8 e43c f831 9d3c
000001c0: 6cc4 c0bd ed60 51bd 5f30 b8bc 253f 7d3d
000001d0: e69b 48bc a90f 953d 6771 b7bd bf9e 9ebd
000001e0: 9692 9e3d fed6 81bd 5a4a 0c3d eb30 c13b
000001f0: 5ed9 42bd 5a1c 153d 5679 933d 75f2 b63d
0.07743414 -0.08408104 -0.05785051 -0.052797966 0.028073484 0.041815754 -0.040093947 -0.011128902
0.042130876 -0.07983658 0.08288645 0.08728425 -0.041702695 -0.0692339 0.084232226 0.028855726
0.085401475 0.009362389 -0.029931612 0.007491097 -0.024992954 0.047444794 -0.03863098 -0.02295926
0.003346607 0.0096621625 0.033323057 0.052735213 0.019347783 -0.020094603 -0.069453456 0.012564414
-0.08492152 -0.04818914 0.08985771 -0.049074825 0.042123478 0.048261475 0.055182945 -0.031070638
0.045741394 -0.075476624 0.05291939 0.021122517 -0.064505614 -0.017704003 -0.043439284 -0.04834437
-0.013861016 -0.07763929 0.07439661 -0.020486295 -0.08706277 -0.07816127 0.02689824 -0.039670467
-0.06360386 0.078680664 0.023326173 0.048962884 -0.012600429 0.024370318 -0.00078844134 -0.027545441
0.029074857 0.055741455 -0.0035434528 -0.057378598 -0.065551564 -0.04970464 0.05560151 -0.04566397
-0.054616727 0.010744881 0.012831216 0.066304006 -0.060679197 0.0014907045 0.05791096 0.044913612
0.07788627 0.04941175 0.005631644 -0.04399148 0.069295295 0.023422431 0.06433549 -0.034781042
-0.044164184 -0.059338637 -0.0031199122 -0.075604975 0.06636214 0.035281263 -0.076068096 0.027963847
-0.001666126 -0.04315942 -0.048224684 0.060684673 0.05936082 -0.017644538 -0.05718843 0.026828462
-0.019994233 -0.0002970937 0.062997565 0.055499308 0.014543093 -0.017562676 0.027942821 0.019188866
-0.094124645 -0.051117826 -0.022484003 0.061827797 -0.0122442 0.072783776 -0.08957177 -0.07745122
0.07742803 -0.06339835 0.034250595 0.005895724 -0.04757058 0.03640399 0.07200877 0.08932964

nn_layers.4.weight f4 [49, 128]
00000000: 81d7 de3c 8a03 50bd 08a7 ecbd 6864 6cbc
00000010: e1f0 1c3d aa6d 943d f80e f23a d513 37bd
00000020: b169 03be 9d43 b73b 1004 33bd 9d16 81bb
00000030: b80f 41bc f53d 803d e85f 6e3c 7b07 74bd
00000040: 9830 abbd d351 bc3b e8b0 d1bd 8e10 ebbc
00000050: d5b1 bfbd 2dbe f7bd 2f42 f8bd 8581 91bb
00000060: 008d 123a a9ff 81bd 44a8 8abd a2f3 fc3c
00000070: 139c 8bbd 9e2d 453d 4c63 e0bc a29c 12be
00000080: 0abf 3b3d 5a3a 92bc 522c 06be fb60 3d3d
00000090: b18a 40bd c06b b93c 5be7 18bd eafb 32bd
000000a0: b8db a0bd 05d9 573d 40b7 71bd e3be 04be
000000b0: 1c53 7b3c 547b 7e3c 7c14 d7bd d168 06be
000000c0: e589 e7bd 7041 edbb 7724 bbbd 5028 84bd
000000d0: 79f8 0abe 3fe7 bbbd b087 92bd 08ca f5bc
000000e0: 1987 643c 5745 e1bd 3273 23be e5df 08be
000000f0: 0485 aabc 2ae4 ccbc af4b f9bd 23bf 05bd
00000100: bc2e 15be 3f73 f2bc bf83 323c 7338 25be
00000110: e923 18bd 619f 16bd 1dda bdbd 448b b1bd
00000120: 8b9b 12be aeb4 fabc 2181 69bd 2056 cd3c
00000130: e741 51bd bf33 393d 5494 b839 0704 b33d
00000140: 2273 d0bd 0039 78ba 84f1 12be 5971 9f3d
00000150: 620b e2bd 61b9 47bd cc82 a23c 0f70 62bd
00000160: 2749 8abd 6098 c4bd af83 83bd 8a04 3dbd
00000170: 7060 7bbd 0e04 5a3d ce3b 33bc 509a 993b
00000180: 9fc5 97bd aaf6 c63c 603c 573c a506 02bc
00000190: 3a05 9b3d d7e6 12be 79f6 99bd 3dcd 973c
000001a0: 8c03 45bd 2436 683d 6004 fabd b17c 03be
000001b0: 68fc 5f3c 986d 88bc 1eb8 44bd b2fb 40bd
000001c0: 390c 4fbc f04c e33c a7c9 babc c31a 8ebd
000001d0: 996a 5cbd 6e75 13be 28af 52bc 7bbe ad3c
000001e0: 0aa0 8abc 4397 cbbd 38ab 7a3c d602 e9bc
000001f0: e854 2e3c 3319 9cbc 93cc d2bd 76f6 21bd
00000200: b724 593d 78d7 9cbc 0b55 163e b0ea 3a3d
00000210: 1c15 923c 50c2 eebc 278c 74bd f398 8cbd
00000220: 898a 033e e85b 6dbd adc4 5b3d d53d 113d
00000230: ecb0 28bd 61d2 fcbc 6cee b13d 1eda 413d
00000240: 7b7b 9fbc 9dfc 4cbd cb31 cc3c 93f9 9d3d
00000250: 55b9 133d 453a 9f3d 9970 a8bc daf9 653d
00000260: 9481 98bc cd69 25bd e4a7 293e fd26 cbbd
00000270: 4c91 9eba e27b 703d f9ee aa3d 3121 77bd
00000280: f230 0dbd 9820 f5bc 375c c93d f340 8c3b
00000290: a6bd 8e3d 9d4a 87bd 6ca9 073d 80f1 7b3c
000002a0: a182 e9bc 08ac 75bd e240 a73d 6ab0 67bd
000002b0: 57d4 adbd c96c 563d 1ecb e33d e6c5 ce3d
000002c0: e134 4b3c faa3 4a3d 70cc bc3c d483 95bd
000002d0: 23bd 0ebe 4eba 3c3d 74bd 0d3d 98fa 073c
000002e0: 03f2 5a3d a580 363d 74c3 f2bb 090a 88bd
000002f0: 6088 1fbb 8044 e63c df66 b83c fa04 fcbc
00000300: 004b ef3c 429c a23c 9766 973d c37e 01bd
00000310: 6a67 2e3d bbb4 a13d 55ce 65bd bed3 77bd
00000320: 95a2 b43c 160d 85bd b2f7 d4bc a05f 253c
00000330: 7e3b dcbc 376b 873d 45b2 1e3d 012b 2ebd
00000340: 5221 ed3d 61ec 9d3d 66af 63bd b33e 5d3d
00000350: 9b12 513d a99b e83c 90e3 abbd 0953 a8bd
00000360: 4238 ab3d 68b6 cebd 5be3 893c 5943 68bd
00000370: 8095 da3b ce4a 7f3d 1ec7 1d3d e27f 71bc
00000380: cc5d fa3c 17d8 273c e80f 89bd bd9c 0e3e
00000390: 8c89 3b3d c2e1 983d b998 3a3d f445 993d
000003a0: 2a12 443c e0cb 5abb c95a 3bbd 5768 663d
000003b0: f476 8abd fc97 f13c 0762 e83c aafa 4f3d
000003c0: 764d 76bd dca4 b1bc 287a b53c 6c25 8fbd
000003d0: 78ab 68bc 030d 8a3a 08c5 30bc 6692 573d
000003e0: 9887 023d 2ff5 423b aa34 aabd 864e 23ba
000003f0: a656 433d 101a cb3d 15c5 afbd 8041 843d
0.02720237 -0.050784625 -0.11555296 -0.014428236 0.038315658 0.07247479 0.0018467596 -0.044696648
-0.12833287 0.005592777 -0.043705046 -0.0039394633 -0.011783533 0.06261817 0.014549233 -0.059577446
-0.08358878 0.005747059 -0.1023882 -0.028694417 -0.09360091 -0.1209682 -0.121219985 -0.0044404888
0.00055904686 -0.063475914 -0.06770375 0.030877892 -0.06816878 0.048139207 -0.027391098 -0.14317563
0.045836486 -0.01785009 -0.13102844 0.046235066 -0.047007266 0.022634387 -0.037330013 -0.043697275
-0.07854408 0.0526972 -0.05901265 -0.12963443 0.015339639 0.015532333 -0.10501954 -0.13125922
-0.11305598 -0.007240467 -0.091378145 -0.064530015 -0.13571347 -0.09174966 -0.071547866 -0.030003563
0.013948225 -0.10999554 -0.15961912 -0.13366659 -0.02081538 -0.02501114 -0.121726386 -0.032652985
-0.14568609 -0.02959597 0.0108956685 -0.16134815 -0.03714362 -0.03677309 -0.092701174 -0.08669141
-0.14317147 -0.030603733 -0.057007913 0.025065482 -0.05108824 0.045215365 0.00035205728 0.087410025
-0.1017821 -0.0009468943 -0.14349943 0.07785291 -0.11037327 -0.048760775 0.01983776 -0.05528265
-0.06752234 -0.09599376 -0.06421601 -0.046146907 -0.061371267 0.053226523 -0.0109395515 0.004687585
-0.0741074 0.02428754 0.013136953 -0.0079361545 0.07569356 -0.14345871 -0.07517714 0.018530482
-0.048099086 0.056692258 -0.12207866 -0.12840535 0.013671018 -0.01665382 -0.04802715 -0.047115035
-0.012637191 0.027746648 -0.022801233 -0.06938698 -0.053812597 -0.14400265 -0.012859143 0.021208992
-0.016922016 -0.0994096 0.015299611 -0.028443735 0.01064036 -0.019054985 -0.10292926 -0.039541684
0.05301353 -0.019145712 0.14680879 0.04563397 0.017832331 -0.02914539 -0.059703972 -0.0686511
0.12845816 -0.057948977 0.05365436 0.03545936 -0.04118435 -0.030862035 0.086880535 0.047327153
-0.01946806 -0.0500456 0.024926087 0.07713618 0.03606542 0.07774786 -0.020561503 0.05614648
-0.018616475 -0.040384103 0.16567951 -0.09919546 -0.0012097745 0.058711894 0.08346362 -0.06033439
-0.034470506 -0.029922768 0.09832042 0.0042802035 0.06969766 -0.06606028 0.033120558 0.015377402
-0.028504672 -0.059978515 0.08166672 -0.056564726 -0.08487766 0.05234984 0.11122726 0.1009634
0.012402744 0.049472786 0.023046702 -0.07300535 -0.13939337 0.04607611 0.034604505 0.008299492
0.053453457 0.04455628 -0.0074085537 -0.06642539 -0.002434276 0.028108835 0.02250999 -0.030764092
0.029210567 0.0198499 0.07392614 -0.03161503 0.042579092 0.078958 -0.056104977 -0.060504667
0.022050181 -0.064966366 -0.025997017 0.0100936 -0.026883837 0.066122465 0.03874423 -0.04252148
0.11578621 0.07711101 -0.055587195 0.054014873 0.051043134 0.028394537 -0.083930135 -0.08218963
0.0836034 -0.10093385 0.016832044 -0.056704853 0.006670654 0.0623272 0.03851997 -0.014739962
0.030562304 0.010244391 -0.06692487 0.13926978 0.04578547 0.07464935 0.045555804 0.074840456
0.011967221 -0.003338568 -0.045740876 0.05625185 -0.0676097 0.029491417 0.028367056 0.05077616
-0.060132466 -0.021685056 0.022152975 -0.069895595 -0.014201038 0.0010532442 -0.010789163 0.05262985
0.031867594 0.0029748192 -0.08310826 -0.00062296574 0.047690056 0.099170804 -0.08582512 0.06457806

nn_layers.4.bias f4 [49]
00000000: 7256 87bd a7bd 113c c131 dcbd 896b 0ebd
00000010: 4d20 1ebd 4c98 b33c 9422 90bb a1e9 ee3c
00000020: dab0 9bbd bd80 5ebd b512 a9bc 53c8 033d
00000030: 499d fb3d baab 213c cb1c 623b 17b7 053e
00000040: e527 49bd dd93 243e 7564 8e3d b220 c8bb
00000050: 0213 8b3d 333a fa3c ffa2 1a3d e5d7 02bd
00000060: f551 77bb 921f ef3d 79ae d6bd c6f4 78bd
00000070: 5056 be3c 0811 bf3c d27a 1fbd 1532 07bd
00000080: ccef 98bd eff5 813d e288 39bd 70c1 87bd
00000090: 7076 e43c c4ee 75bd c1bb 8d3d 4b60 1bbd
000000a0: cade 223d 601b 273c 9045 f43c 00fd dabb
000000b0: 9c50 8a3c f512 683d 09fd 51bc 9f4d 483c
000000c0: b2ad 17bb
-0.06608285 0.008895314 -0.10751677 -0.034770522 -0.038605023 0.021923207 -0.0043986533 0.029164137
-0.07602091 -0.054321993 -0.020638803 0.032173466 0.12285859 0.009867603 0.0034502025 0.13058124
-0.049110312 0.1607203 0.069527544 -0.006107413 0.06790735 0.03054533 0.0377531 -0.031944174
-0.003773806 0.116759434 -0.10482497 -0.06078031 0.023234516 0.02332355 -0.03893549 -0.033006746
-0.074676126 0.06345736 -0.045296557 -0.06628692 0.027888507 -0.060042158 0.06920577 -0.03793363
0.03976325 0.010199398 0.029818326 -0.006682992 0.01688414 0.056658704 -0.012816676 0.012225538
-0.0023144302
