jengazero_data/jengazero_nim_featureset/checkpoints/400/model.pkl (torch_old, 100175 bytes, 6 tensors)

nn_layers.0.weight f4 [128, 14]
0.28297132 0.1658971 -0.2247845 -0.04544931 0.0890699 -0.11129165 -0.23285322 -0.21894495
0.112172 0.05792304 0.197885 -0.27471802 0.18551178 -0.28166014 0.24905948 -0.26336628
-0.07331052 -0.042930678 0.077181414 -0.26194918 0.049444366 0.24753156 0.104637995 0.22217928
0.027976412 -0.14197432 -0.09288334 -0.025592806 0.20712961 0.08044041 -0.2499978 0.17760995
-0.11172005 0.12240766 -0.01884238 0.06309171 0.2055664 -0.31411278 0.04031978 -0.335474
0.011879288 0.117479675 -0.26442125 0.02697395 0.23895003 0.15503652 0.06653976 0.10886556
0.13804382 0.05616174 -0.033853102 -0.115267165 0.15087874 -0.066623025 -0.09952058 0.17687115
0.17845263 0.062862605 -0.039946903 -0.22676891 0.16959786 0.17823869 0.23952056 -0.17415988
-0.17545195 0.08148466 -0.16343302 0.1825115 0.20887312 0.23884831 -0.20446253 -0.17555435
0.28642255 0.2103743 0.05304116 -0.08253816 0.2820485 0.10555286 0.22942276 -0.059376266
-0.20791616 0.2058213 -0.1469964 0.24754362 0.020502562 -0.25556374 -0.24198222 0.18621062
0.20038453 -0.20833555 -0.039712146 -0.060484435 -0.16631429 -0.03153145 -0.25196305 0.027466174
0.16867211 0.00060530857 0.22911203 0.10367241 -0.09394355 -0.13210729 0.19797495 -0.3058684
0.027163826 -0.26786843 0.11140443 -0.21006255 -0.2377151 -0.10794451 0.26237974 0.13478145
0.16198511 -0.15881479 -0.15647587 -0.21627218 -0.04213937 -0.008670067 -0.054874394 -0.0108766295
0.11061596 -0.19920501 -0.20280115 0.091235794 -0.022985604 -0.1996083 -0.11447118 -0.0451288
-0.100989275 0.09701733 -0.028326372 0.3083351 -0.23571362 0.09687165 0.24240012 -0.24929911
0.07277308 -0.086755395 -0.25706995 -0.14622574 -0.010723673 -0.028074648 0.21672255 -0.06946954
0.07562264 -0.040695105 0.11957115 -0.2956753 -0.010050968 0.23278901 0.19916992 0.10968035
0.13598819 -0.030986616 0.2522074 0.0032306705 0.12287578 -0.2088517 0.06091575 0.09602414
-0.041029565 -0.2684664 0.12517525 -0.20343328 -0.0854412 0.12741604 -0.1809839 0.27737543
-0.25654057 -0.21954273 -0.24699415 -0.21859103 0.08116959 -0.23279108 -0.12933736 -0.24443261
0.23443684 -0.13964646 -0.1766585 -0.0564781 -0.07017629 -0.006683022 -0.05843915 -0.030113507
-0.28442356 0.24567813 -0.21610673 0.013524843 0.14432323 -0.022895526 0.13872708 0.27927738
-0.047167905 -0.019035148 -0.013299155 0.037106544 -0.2260098 -0.11462331 -0.22415918 -0.1337515
0.192534 -0.012845419 -0.090888105 -2.5392437e-05 0.04461789 -3.7212507e-05 0.088957034 -0.009533474
0.023578327 -0.060037248 -0.24578486 -0.122559756 -0.16608362 0.095921956 -0.0035673985 0.0380699
0.17110011 -0.24013849 -0.05282382 0.2024708 0.24190801 -0.13439968 -0.20623289 -0.21756744
-0.07899702 -0.19707109 0.22774892 -0.13639833 0.08321522 0.15402412 0.033642177 0.08184703
-0.08833618 0.20384836 -0.22864597 -0.2670844 0.21769157 0.02996056 -0.0675625 0.09645348
-0.040102027 -0.22743276 0.014792774 -0.25904948 0.17853281 -0.1611256 -0.21221375 -0.0968191
-0.12918146 0.18320201 0.04253874 0.029072601 0.1834608 -0.13458833 0.18122484 0.0967917
00000000: 9ee1 903e eee0 293e e82d 66be 0e29 3abd
00000010: 486a b63d e0ec e3bd 1371 6ebe 1b33 60be
00000020: 6fba e53d b640 6d3d 5ea2 4a3e d7a7 8cbe
00000030: cdf6 3d3e c235 90be 7309 7f3e f2d7 86be
00000040: d323 96bd 14d8 2fbd 4a11 9e3d 341e 86be
00000050: 2d86 4a3d ea78 7d3e 724c d63d f782 633e
00000060: ca2e e53c b761 11be 9f39 bebd 01a8 d1bc
00000070: c919 543e f1bd a43d 6cff 7fbe 62df 353e
00000080: 7bcd e4bd deb0 fa3d 565b 9abc 3a36 813d
00000090: 0080 523e 64d3 a0be 5b26 253d 40c3 abbe
000000a0: 58a1 423c 2f99 f03d 3962 87be 79f8 dc3c
000000b0: 51af 743e e5c1 1e3e ff45 883d e8f4 de3d
000000c0: 5c5b 0d3e da09 663d 8da9 0abd 3111 ecbd
000000d0: f57f 1a3e a771 88bd 72d1 cbbd b61d 353e
000000e0: 49bc 363e 1cbe 803d 5d9f 23bd 1c36 68be
000000f0: 10ab 2d3e 3484 363e e144 753e f856 32be
00000100: ada9 33be 6ee1 a63d fc5a 27be 4be4 3a3e
00000110: d6e2 553e a794 743e a05e 51be 85c4 33be
00000120: faa5 923e 5c6c 573e b041 593d c409 a9bd
00000130: a968 903e 192c d83d cded 6a3e 8734 73bd
00000140: f9e7 54be d2c2 523e 3986 16be 137c 7d3e
00000150: fdf4 a73c 40d9 82be 30ca 77be ffad 3e3e
00000160: 9a31 4d3e ea55 55be 34a9 22bd 87be 77bd
00000170: 4b4e 2abe 1f27 01bd 4d01 81be be00 e13c
00000180: 62b8 2c3e 92ad 1e3a 589c 6a3e 3352 d43d
00000190: 7a65 c0bd 2247 07be f2b9 4a3e c89a 9cbe
000001a0: ac86 de3c 0d26 89be 0128 e43d a31a 57be
000001b0: 966b 73be 0312 ddbd a356 863e 2604 0a3e
000001c0: 6ddf 253e 58a0 22be 363b 20be 7476 5dbe
000001d0: 559a 2cbd e60c 0ebc f9c3 60bd e433 32bc
000001e0: 9f8a e23d 66fc 4bbe 1bab 4fbe d5d9 ba3d
000001f0: 4e4c bcbc 1e66 4cbe de6f eabd fad8 38bd
00000200: 77d3 cebd 06b1 c63d b50c e8bc 19de 9d3e
00000210: e95e 71be a564 c63d bd37 783e 4448 7fbe
00000220: 0d0a 953d d0ac b1bd ac9e 83be 33bc 15be
00000230: 58b2 2fbc cefc e5bc 84ec 5d3e 0c46 8ebd
00000240: 0be0 9a3d e9af 26bd b8e1 f43d c162 97be
00000250: d1ac 24bc 3e60 6e3e 33f3 4b3e 17a0 e03d
00000260: 7d40 0b3e a5d7 fdbc 5421 813e a8b9 533b
00000270: 4ca6 fb3d 38dd 55be cb82 793d 4ea8 c43d
00000280: 9e0e 28bd 6e74 89be f12d 003e d050 50be
00000290: ccfb aebd 5a79 023e d853 39be 2704 8e3e
000002a0: 4959 83be cfcf 60be 09ec 7cbe 54d6 5fbe
000002b0: 3e3c a63d c960 6ebe 0371 04be 8b4c 7abe
000002c0: 3610 703e 7bff 0ebe f7e5 34be 9555 67bd
000002d0: 96b8 8fbd 40fd dabb e45d 6fbd 9ab0 f6bc
000002e0: f79f 91be 0c93 7b3e 154b 5dbe 4e97 5d3c
000002f0: 78c9 133e 668f bbbc 790e 0e3e 72fd 8e3e
00000300: 2233 41bd 99ef 9bbc b3e4 59bc 08fd 173d
00000310: 1d6f 67be a0bf eabd fc89 65be 27f6 08be
00000320: a227 453e 9875 52bc 8b23 babd d801 d5b7
00000330: 40c1 363d a014 1cb8 1b2f b63d 4a32 1cbc
00000340: 5627 c13c 9ee9 75bd 07af 7bbe 9c00 fbbd
00000350: d311 2abe bb72 c43d 04cb 69bb 2fef 1b3d
00000360: de34 2f3e dde6 75be ca5d 58bd 8154 4f3e
00000370: bcb6 773e 12a0 09be b72e 53be 00ca 5ebe
00000380: 31c9 a1bd 01cd 49be 0337 693e 01ac 0bbe
00000390: be6c aa3d 80b8 1d3e 61cc 093d 6a9f a73d
000003a0: 99e9 b4bd a0bd 503e 2b22 6abe 49bf 88be
000003b0: 8aea 5e3e d96f f53c 355e 8abd 6789 c53d
000003c0: 0642 24bd 22e4 68be 645d 723c 22a2 84be
000003d0: 4ed1 363e 1cfe 24be 904e 59be 1849 c6bd
000003e0: 2548 04be 4f99 3b3e 1a3d 2e3d aa29 ee3c
000003f0: 26dd 3b3e 86d1 09be 0193 393e ba3a c63d

nn_layers.0.bias f4 [128]
0.104327604 0.14687285 -0.17940243 -0.20839241 -0.051907077 -0.12478911 0.15816838 0.08867633
-0.08107416 0.2448942 0.01202649 0.07358484 -0.12933786 0.012025819 0.07384959 0.09434007
0.20063868 0.18586802 -0.157962 0.008569677 0.013277117 -0.067575775 -0.04101025 -0.24479406
0.21962427 0.23722057 0.23598582 0.058007654 -0.16216959 -0.17090483 0.10788243 -0.017837834
0.23404786 0.10322773 0.05524993 0.027136296 -0.22665758 -0.22567657 -0.066263884 -0.13512608
-0.02821564 0.10520414 0.115626805 -0.1955015 -0.007049954 -0.03369432 0.05467231 -0.23483872
0.114391245 0.24485248 0.12451674 -0.14051414 -0.16497709 -0.12122423 -0.15041651 0.18130441
-0.006001987 0.12424886 0.12449834 -0.23738211 -0.028215421 -0.11823458 0.20812315 -0.23300365
0.18362412 0.1133402 0.18372369 -0.205243 -0.109802686 0.2326878 0.11295088 0.039989967
0.24431558 -0.017022112 0.09189135 0.123530865 -0.07140675 0.16384523 0.27267593 0.056773826
0.20919408 0.060419824 -0.07237991 -0.25614122 -0.044190362 0.07165141 0.10218323 -0.13271458
0.14076643 0.23720634 0.18613032 -0.072264396 -0.056738205 0.19585697 -0.07286758 0.13057429
0.019538827 -0.027046068 -0.12495874 -0.114573926 -0.21366805 -0.13530993 -0.011969733 0.18821901
-0.069381714 0.08829524 -0.13652696 0.15138642 -0.011078303 -0.19213413 -0.24332035 -0.25777888
-0.12756695 0.21973893 -0.042819582 -0.054956336 -0.23562656 0.06734784 0.10536361 -0.2857575
-0.22635996 0.022465777 0.15992126 -0.22157568 -0.09299342 -0.19373249 0.13374335 0.08707872
00000000: b6a9 d53d d665 163e 45b5 37be d264 55be
00000010: 849c 54bd 6f91 ffbd e4f6 213e f09b b53d
00000020: 360a a6bd 8cc5 7a3e c10a 453c a6b3 963d
00000030: 2571 04be f107 453c 743e 973d 5e35 c13d
00000040: 3a74 4d3e 3054 3e3e cac0 21be d567 0c3c
00000050: 4488 593c 2b65 8abd 5dfa 27bd 4bab 7abe
00000060: 2fe5 603e f3e9 723e 44a6 713e 6f99 6d3d
00000070: c90f 26be ad01 2fbe 77f1 dc3d a620 92bc
00000080: 3eaa 6f3e 0f69 d33d c04d 623d f04c de3c
00000090: ed18 68be c217 67be 5cb5 87bd 7e5e 0abe
000000a0: 7c24 e7bc 4575 d73d bfcd ec3d 8c31 48be
000000b0: 4d03 e7bb 0e03 0abd 12f0 5f3d 9079 70be
000000c0: f545 ea3d 9cba 7a3e a202 ff3d f0e2 0fbe
000000d0: c1ef 28be 6944 f8bd c906 1abe dda7 393e
000000e0: 51ac c4bb 3076 fe3d fcf8 fe3d 4c14 73be
000000f0: 0724 e7bc f924 f2bd 3c1e 553e 8298 6ebe
00000100: f607 3c3e e81e e83d 1022 3c3e 392b 52be
00000110: 3be0 e0bd b645 6e3e ca52 e73d 85cc 233d
00000120: dd2d 7a3e f571 8bbc 8831 bc3d c0fd fc3d
00000130: b43d 92bd 0bc7 273e 2e9c 8b3e ac8b 683d
00000140: f936 563e c77a 773d eb3b 94bd f124 83be
00000150: f400 35bd f9bd 923d 7145 d13d 55e6 07be
00000160: 1325 103e 38e6 723e f298 3e3e 5bff 93bd
00000170: 5266 68bd bb8e 483e 993b 95bd 44b5 053e
00000180: e40f a03c b78f ddbc 5eea ffbd bca5 eabd
00000190: cccb 5abe b08e 0abe b31c 44bc 7cbc 403e
000001a0: 0018 8ebd 23d4 b43d b9cd 0bbe 0b05 1b3e
000001b0: c581 35bc cfbe 44be f828 79be 98fb 83be
000001c0: e9a0 02be 3e03 613e 9663 2fbd e519 61bd
000001d0: 1748 71be aaed 893d e0c8 d73d cf4e 92be
000001e0: e8ca 67be 260a b83c 66c2 233e bce4 62be
000001f0: 5673 bebd cf61 46be 04f4 083e 5456 b23d

nn_layers.2.weight f4 [128, 128]
0.06029073 0.05306834 -0.07119156 -0.07540292 0.058205727 0.06787955 -0.031453833 0.06214232
-0.0871682 0.12001017 -0.030866347 0.1298812 -0.008697708 -0.09483131 0.040028896 -0.07612907
-0.060383674 0.05768323 -0.027269442 0.070479296 0.19142601 -0.06587914 0.027753415 -0.08171022
-0.009217505 -0.046094466 -0.07213438 0.1034063 -0.034120496 0.113220535 0.003630445 0.06303886
-0.0031018201 0.08669188 -0.046392795 0.051235393 0.050198004 -0.0998583 0.11847107 -0.023243137
-0.12999897 -0.0067209764 0.06688965 0.027888026 0.01627018 -0.057610534 -0.003058856 0.015615781
-0.05696334 0.09017758 0.06762593 -0.043942705 -0.07371337 0.004664157 0.0431136 0.022716118
0.086625665 0.03088799 -0.062960744 -0.05666217 -0.16229874 0.08505606 -0.068605125 0.08619295
-0.012853119 -0.057431806 -0.04192848 0.042603713 -0.006468219 -0.0150235 -0.011780489 0.03942044
-0.04583475 -0.00730449 -0.10954903 0.059954364 -0.05819647 -0.014999235 0.015700405 0.03176673
0.078802176 -0.00071251247 -0.0017039687 0.04735252 0.057192966 -0.020463485 -0.046577666 0.055934846
-0.021447133 0.040699672 0.04621826 0.037400406 0.03438253 0.013209887 -0.08148432 0.020181112
0.058027655 -0.035113752 -0.052591424 0.06689192 0.012401594 0.002555254 0.065762326 -0.016882025
-0.053977706 0.081063665 0.009065275 -0.018820727 0.022104042 -0.032306645 -0.13767587 0.037826873
0.07570348 -0.077486895 0.0021340123 0.04820191 0.06919404 0.0594288 0.07044619 -0.026817124
0.08047029 0.05793064 0.1829856 -0.0024146282 0.0444744 0.08198293 0.10406466 -0.035536874
0.034948748 -0.08779781 -0.0003256955 -0.083338946 0.048653293 -0.028564047 -0.046576407 0.056960892
-0.03474328 -0.13891031 -0.008787726 0.003342006 -0.004162317 0.05634071 0.03703059 0.06715759
-0.010101345 -0.053881824 -0.07989716 -0.013063647 -0.10065037 -0.070930265 -0.069992825 -0.00037053062
0.07790647 0.09185497 -0.055409353 -0.018267872 0.004376982 -0.11974112 0.009389896 -0.08891238
0.06541276 0.026875103 -0.07423434 -0.048939 -0.017256362 -0.11877242 0.07605444 -0.08955183
-0.014049013 -0.0041867215 -0.067066856 0.022867704 -0.061890054 -0.04368278 -0.08884739 0.05439335
-0.07094097 -0.14062488 -0.031852733 -0.018074777 -0.009394995 -0.0061432933 0.010147748 -0.051050197
-0.040516146 -0.036286686 -0.02077576 0.07457878 -0.088527575 0.063043475 -0.07717243 -0.08248262
0.042972367 0.055039145 -0.07834204 0.025314918 -0.030270271 0.026156528 -0.083189584 -0.019040197
-0.011330674 0.044425208 0.031044828 0.0065293685 -0.055571377 0.14124846 -0.029147109 0.029788274
0.061542697 -0.095792525 0.07994563 -0.084145576 0.029871842 0.049168713 -0.013519755 -0.06956215
-0.055824514 0.008267589 -0.09836673 -0.041203044 -0.07661436 -0.00979368 0.016070355 0.04929236
0.017622724 0.01621129 -0.0027068802 0.05364441 -0.010730878 -0.021273559 0.0013621525 -0.08623661
0.11453291 -0.028696261 0.016946841 0.06974953 0.086011276 -0.08297002 0.018832136 2.1109674e-05
0.038369272 -0.00028751526 0.03366779 0.0007616259 0.03259948 0.07266727 -0.036189664 -0.044635337
0.051716372 0.01594822 -0.05867416 0.046348725 0.05269569 -0.0085524395 -0.12422441 -0.006748088
00000000: 6af3 763d 305e 593d e1cc 91bd d96c 9abd
00000010: 2169 6e3d 6f04 8b3d bcd5 00bd f288 7e3d
00000020: 3e85 b2bd e4c7 f53d 6cdb fcbc 94ff 043e
00000030: d580 0ebc eb36 c2bd 57f5 233d 8fe9 9bbd
00000040: df54 77bd 4045 6c3d 2a64 dfbc 7357 903d
00000050: 2e05 443e a4eb 86bd 215b e33c b057 a7bd
00000060: 0505 17bc 8dcd 3cbd 31bb 93bd afc6 d33d
00000070: efc1 0bbd 2be0 e73d c3ec 6d3b 851a 813d
00000080: e847 4bbb 838b b13d 5f06 3ebd 34dc 513d
00000090: 6c9c 4d3d 8282 ccbd f6a0 f23d 6468 bebc
000000a0: 731e 05be a33b dcbb 71fd 883d 6e75 e43c
000000b0: 0a49 853c 06f9 6bbd 1677 48bb 55d9 7f3c
000000c0: 6452 69bd 06af b83d 777f 8a3d 44fd 33bd
000000d0: 09f7 96bd c9d5 983b e397 303d 2717 ba3c
000000e0: cc68 b13d cf08 fd3c 90f1 80bd 9716 68bd
000000f0: a431 26be df31 ae3d d880 8cbd ee85 b03d
00000100: e395 52bc 9d3d 6bbd 33bd 2bbd 3b81 2e3d
00000110: 5bf3 d3bb 2025 76bc f402 41bc 5477 213d
00000120: 38bd 3bbd 815a efbb 3e5b e0bd b592 753d
00000130: 6c5f 6ebd 5abf 75bc 239e 803c d51d 023d
00000140: 0963 a13d e7c7 3aba b457 dfba b7f4 413d
00000150: 2c43 6a3d 0aa3 a7bc 39c8 3ebd f01b 653d
00000160: e6b1 afbc b3b4 263d 5c4f 3d3d 2b31 193d
00000170: b2d4 0c3d 486e 583c 40e1 a6bd dc52 a53c
00000180: 68ae 6d3d 70d3 0fbd 1b6a 57bd a2fe 883d
00000190: 0e30 4b3c 0c76 273b 66ae 863d 2c4c 8abc
000001a0: ba17 5dbd b504 a63d 8586 143c ed2d 9abc
000001b0: 8913 b53c f953 04bd e7fa 0cbe 5af0 1a3d
000001c0: 6d0a 9b3d 73b1 9ebd c9da 0b3b 5e6f 453d
000001d0: 9bb5 8d3d 9d6b 733d 1846 903d 96af dbbc
000001e0: 9bcd a43d ae48 6d3d 9460 3b3e bd3e 1ebb
000001f0: ca2a 363d abe6 a73d da1f d53d 1d8f 11bd
00000200: 6b26 0f3d 57cf b3bd 1cc2 aab9 9cad aabd
00000210: ad48 473d 26ff e9bc e7c6 3ebd d34f 693d
00000220: f84e 0ebd 813e 0ebe 65fa 0fbc 8e05 5b3b
00000230: 0c64 88bb 84c5 663d 63ad 173d eb89 893d
00000240: 1d80 25bc 30b3 5cbd 1fa1 a3bd e808 56bc
00000250: c821 cebd e343 91bd 6658 8fbd c743 c2b9
00000260: 6d8d 9f3d 751e bc3d ebf4 62bd 81a6 95bc
00000270: c96c 8f3b d53a f5bd 14d8 193c b217 b6bd
00000280: 20f7 853d 2d29 dc3c 2c08 98bd 4374 48bd
00000290: 375d 8dbc f43e f3bd 6ec2 9b3d f366 b7bd
000002a0: d52d 66bc c430 89bb 595a 89bd 0d55 bb3c
000002b0: 6d80 7dbd b7ec 32bd 9ff5 b5bd 90cb 5e3d
000002c0: 8049 91bd f8ff 0fbe 0378 02bd 8e11 94bc
000002d0: 77ed 19bc ae4d c9bb bd42 263c 031a 51bd
000002e0: 42f4 25bd 59a1 14bd ed31 aabc c2bc 983d
000002f0: f24d b5bd f01c 813d 940c 9ebd a6ec a8bd
00000300: cb03 303d ba70 613d cb71 a0bd 3b61 cf3c
00000310: 5cf9 f7bc 3746 d63c 4d5f aabd 30fa 9bbc
00000320: 4ba4 39bc 35f7 353d b951 fe3c 50f4 d53b
00000330: d09e 63bd 70a3 103e ebc5 eebc 8a06 f43c
00000340: 3214 7c3d df2e c4bd 89ba a33d 8454 acbd
00000350: cbb5 f43c 2265 493d f681 5dbc 9a76 8ebd
00000360: 3fa8 64bd c874 073c 7f74 c9bd 86c4 28bd
00000370: fde7 9cbd ac75 20bc faa5 833c c9e6 493d
00000380: 885d 903c 8acd 843c ea65 31bb 3eba 5b3d
00000390: 91d0 2fbc e345 aebc 418a b23a d29c b0bd
000003a0: 3b90 ea3d 6c14 ebbc 1ad4 8a3c d7d8 8e3d
000003b0: ae26 b03d 30ec a9bd da45 9a3c ae14 b137
000003c0: 1929 1d3d a5bd 96b9 3de7 093d d9a7 473a
000003d0: 0887 053d 94d2 943d 9d3b 14bd 8bd3 36bd
000003e0: 8cd4 533d d7a5 823c 5154 70bd 29d8 3d3d
000003f0: 70d7 573d 881f 0cbc 5e69 febd 111f ddbb

nn_layers.2.bias f4 [128]
0.051975884 0.057095855 -0.0007155071 -0.07846289 -0.0037181738 0.025790783 -0.04381514 0.042776838
0.01166041 -0.01783487 -0.06908396 -0.016612867 0.04234993 0.06443568 0.067263864 0.076163895
0.081520714 -0.012013976 -0.06370359 -0.042525157 -0.06146441 0.06875732 -0.09323465 -0.006050802
0.0013655183 -0.08367563 -0.0007361559 0.01914585 0.065540545 -0.04473559 -0.059716903 -0.03183883
-0.060013022 -0.043761756 -0.04205339 0.06311986 0.032117486 0.011017515 -0.067657195 -0.012348598
0.07446098 0.07153924 0.001760105 -0.05183764 0.08787203 -0.050416026 0.0068368088 0.06346044
0.14286093 0.0068468847 0.095544696 -0.059781086 -0.012511849 0.02977903 0.03143992 -0.06774106
0.0266834 -0.06681599 -0.0721293 -0.05057314 0.06881195 -0.01602643 0.00026815405 0.018309101
-0.04129845 -0.051658772 -0.025529895 0.015345904 -0.055395603 0.045198858 -0.05087602 -0.022898728
0.0036605368 0.07285713 -0.07907255 0.048714258 0.046440758 0.095574185 -0.06864653 -0.044423558
0.052475426 -0.019559437 -0.0042377496 0.054014757 0.07225253 -0.07349143 0.048969552 0.008513847
0.037334524 0.039175246 -0.07461435 0.06844572 -0.004048853 -0.02689895 0.09325504 -0.007472556
0.034332365 0.013782585 0.10614254 -0.030503996 -0.03587797 0.043939214 0.030992387 -0.064082496
-0.084992945 -0.07085141 0.006169797 0.077739425 0.08419913 -0.057302106 0.046532482 0.095622495
0.050582826 -0.0047869445 0.04883278 -0.08234349 -0.077972375 0.017297635 -0.068077214 -0.029997615
0.011323172 0.042658705 -0.009447233 0.06543097 0.0707833 -0.09228619 0.08253239 -0.08251875
00000000: aae4 543d 58dd 693d de90 3bba 27b1 a0bd
00000010: 9bac 73bb 3147 d33c 8177 33bd c436 2f3d
00000020: 4e0b 3f3c 6f1a 92bc e47b 8dbd b517 88bc
00000030: 1f77 2d3d dbf6 833d a3c1 893d d1fb 9b3d
00000040: 55f4 a63d 45d6 44bc 0777 82bd dc2e 2ebd
00000050: 1bc2 7bbd a3d0 8c3d cff1 bebd ce45 c6bb
00000060: 31fb b23a 215e abbd 96fa 40ba c2d7 9c3c
00000070: 1f3a 863d ab3c 37bd b699 74bd 6f69 02bd
00000080: 37d0 75bd 873f 33bd 2d40 2cbd fc44 813d
00000090: a08d 033d cf82 343c db8f 8abd c651 4abc
000000a0: 007f 983d 2a83 923d 53b3 e63a b553 54bd
000000b0: 40f6 b33d 0981 4ebd 4f07 e03b 8cf7 813d
000000c0: 234a 123e d55b e03b f0ac c33d 03dd 74bd
000000d0: 80fe 4cbc 27f3 f33c 25c7 003d d3bb 8abd
000000e0: 2597 da3c d2d6 88bd 87b8 93bd c825 4fbd
000000f0: 48ed 8c3d dc49 83bc 0797 8c39 f8fc 953c
00000100: 9028 29bd 2698 53bd 1224 d1bc 636d 7b3c
00000110: 80e6 62bd 7022 393d 6063 50bd 1d96 bbbc
00000120: 9ee5 6f3b 1e36 953d caf0 a1bd 9a88 473d
00000130: aa38 3e3d 66bc c33d 8d96 8cbd 7af5 35bd
00000140: 79f0 563d 1d3b a0bc d2dc 8abb 943e 5d3d
00000150: 22f9 933d ad82 96bd 4c94 483d aa7d 0b3c
00000160: 16ec 183d 3976 203d 69cf 98bd 452d 8c3d
00000170: 3eac 84bb 305b dcbc 80fc be3d 58dc f4bb
00000180: 18a0 0c3d 5ad0 613c 4361 d93d 84e3 f9bc
00000190: c7f4 12bd 9bf9 333d bfe3 fd3c af3d 83bd
000001a0: c810 aebd 8b1a 91bd 022c ca3b d935 9f3d
000001b0: 9870 ac3d 9db5 6abd d898 3e3d bad5 c33d
000001c0: f02f 4f3d cddb 9cbb e204 483d b4a3 a8bd
000001d0: fbaf 9fbd c5b3 8d3c 116c 8bbd 8fbd f5bc
000001e0: d384 393c e5ba 2e3d 91c8 1abc ac00 863d
000001f0: d6f6 903d 8b00 bdbd be06 a93d 97ff a8bd

nn_layers.4.weight f4 [49, 128]
-0.0027095126 -0.018067362 -0.031069469 0.012312101 -0.0016035611 -0.026579142 0.0062027182 0.00684135
0.08231569 0.098623656 0.01979607 0.05371111 0.07768333 -0.0125009725 -0.110548094 -0.010723833
0.084577166 0.023813302 0.07333794 0.083025016 -0.052989185 0.01531298 -0.0049566547 0.0005593624
-0.058605082 0.07127352 0.045339588 -0.059612125 -0.10091483 0.08617638 0.0066565466 0.051366318
-0.06984172 0.067030914 0.04871718 0.065634705 -0.064752124 -0.15792242 0.009257167 0.024109298
0.0051172297 0.07794337 0.047550704 0.11534905 0.05699672 0.07745234 -0.07115628 0.09162201
0.01751265 0.09298662 -0.019046282 0.15048596 -0.010439931 0.040774036 -0.15625185 -0.009594128
-0.019225933 0.05476375 -0.108586095 0.027747925 0.038740363 0.07605976 0.074508764 0.014035796
-0.14042857 -0.050694827 -0.019414967 0.04293986 0.055679854 0.028043175 0.017814195 -0.024155125
-0.06326653 0.011329558 0.036176253 -0.12189963 -0.0028493677 -0.07681915 0.02945206 -0.07588848
-0.22944479 -0.36663583 0.043293737 0.024054302 -0.073596224 -0.07424461 -0.011426191 0.039877642
0.049208496 -0.0062021674 -0.056024037 -0.075279355 -0.060668424 -0.05461579 -0.087260835 -0.027841961
-0.18130252 -0.08112568 -0.07530988 0.08999792 -0.0056892764 0.034419943 -0.06188375 0.024423622
-0.011635796 0.08535923 -0.050876025 -0.0046396405 0.027700383 -0.020547446 -0.04126835 -0.045419037
0.0085885 0.012137948 0.009335769 0.04791119 -0.02329154 0.06879119 0.06347801 -0.04959654
0.009116214 0.055214234 -0.028373236 0.038177192 -0.029795934 -0.07115976 -0.040680982 -0.021335326
-0.007480732 -0.06834062 -0.047671475 0.033053868 -0.0019013286 -0.08497037 -0.22929053 -0.08694351
-0.063977525 0.03161474 -0.1524142 -0.003430125 0.008084919 0.061355367 -0.083502375 -0.032711554
-0.07347208 0.0017427886 -0.007528136 -0.085465126 -0.0099243205 -0.080847695 -0.06848012 0.07413836
-0.1142119 -0.06522697 -0.04969627 -0.013385299 -0.26091608 0.0515991 -0.05412002 -0.13778226
0.048246436 0.02370027 -0.13788766 -0.11880938 -0.021629162 -0.16764773 -0.12545 -0.116754584
-0.048884377 0.014709703 -0.01269678 0.017517468 -0.048686277 0.02476417 0.046357192 0.024413496
-0.13455823 -0.06938563 -0.1536584 -0.096244365 -0.13575955 -0.05517371 -0.22268692 -0.06466441
-0.16235773 -0.10974491 -0.12665942 0.073261656 -0.04179973 0.019143779 0.044846017 0.059007164
-0.04536686 -0.1274258 -0.06968576 -0.08807917 -0.036271863 0.028708983 -0.095244 -0.13102771
-0.14933407 0.012073734 -0.056667656 -0.077797 -0.05616916 -0.119487695 -0.08341883 -0.016069168
-0.08541105 -0.34768358 0.0005482989 -0.024715606 -0.12250623 -0.046159096 -0.12976037 0.0328841
-0.09215232 -0.013407639 -0.017385118 -0.045182846 -0.12289665 0.08792167 -0.1440518 -0.09027416
-0.036483962 -0.18786079 -0.1551406 -0.11859759 0.028731864 -0.021670591 -0.15723169 -0.037955634
-0.0070241513 0.04357443 -0.17080523 -0.12938982 -0.081002235 -0.11107108 0.015075875 -0.030507477
-0.008547532 0.010348638 0.037374243 -0.06469226 0.00737755 -0.04299067 -0.035499975 -0.09067952
0.01569554 0.05189178 -0.10005337 -0.08719369 -0.09862154 -0.036435325 -0.11575365 -0.09117339
00000000: 1492 31bb 0102 94bc 6685 febc b2b8 493c
00000010: 952e d2ba 80bc d9bc 2c40 cb3b 672d e03b
00000020: 2195 a83d 33fb c93d 5e2b a23c 2e00 5c3d
00000030: 7018 9f3d e1d0 4cbc 0a67 e2bd 04b3 2fbc
00000040: cb36 ad3d 1d14 c33c 3432 963d 0509 aa3d
00000050: 300b 59bd 4be3 7a3c 6f6b a2bb 2da2 123a
00000060: e20b 70bd daf7 913d 01b6 393d d82b 74bd
00000070: 6fac cebd 3e7d b03d 291f da3b 7d65 523d
00000080: 2d09 8fbd 8147 893d aa8b 473d 7d6b 863d
00000090: c39c 84bd 6ab6 21be 5fab 173c dd80 c53c
000000a0: 6fae a73b c6a0 9f3d 87c4 423d 1f3c ec3d
000000b0: 6575 693d 559f 9e3d 62ba 91bd 52a4 bb3d
000000c0: b076 8f3c c56f be3d f306 9cbc fe18 1a3e
000000d0: 3f0c 2bbc ad02 273d 7c00 20be b030 1dbc
000000e0: b47f 9dbc f44f 603d 6362 debd 9e4f e33c
000000f0: 37ae 1e3d 38c5 9b3d 0d98 983d 65f6 653c
00000100: 82cc 0fbe 61a5 4fbd 230c 9fbc b5e1 2f3d
00000110: 8f10 643d cdba e53c 13ef 913c f8e0 c5bc
00000120: e291 81bd 9c9f 393c 8d2d 143d 83a6 f9bd
00000130: 75bc 3abb 5c53 9dbd 7245 f13c 6b6b 9bbd
00000140: 93f3 6abe b1b7 bbbe c654 313d 870d c53c
00000150: 9eb9 96bd 8f0d 98bd eb34 3bbc bd56 233d
00000160: d98e 493d 8d3b cbbb 7679 65bd 102c 9abd
00000170: 747f 78bd ceb4 5fbd cfb5 b2bd d314 e4bc
00000180: 5ea7 39be 3825 a6bd 113c 9abd d450 b83d
00000190: 1c6d babb edfb 0c3d d179 7dbd 0c14 c83c
000001a0: 11a4 3ebc d2d0 ae3d 6163 50bd 2008 98bb
000001b0: eaeb e23c 1e53 a8bc 0009 29bd 5009 3abd
000001c0: c8b6 0c3c 3ede 463c 0ef5 183c 863e 443d
000001d0: e6cd bebc 65e2 8c3d c200 823d be25 4bbd
000001e0: 2c5c 153c 5228 623d fd6e e8bc b05f 1c3d
000001f0: 9a16 f4bc 35bc 91bd 1aa1 26bd 6cc7 aebc
00000200: ee20 f5bb 2bf6 8bbd 2a43 43bd 7e63 073d
00000210: 0036 f9ba f204 aebd 23cb 6abe 700f b2bd
00000220: a606 83bd 757e 013d 7812 1cbe f3cb 60bb
00000230: 9c76 043c c44f 7b3d 4b03 abbd 8dfc 05bd
00000240: 8878 96bd 486e e43a 95ae f6bb 5708 afbd
00000250: 9e99 22bc 7a93 a5bd 4e3f 8cbd dad5 973d
00000260: eee7 e9bd b895 85bd 518e 4bbd 034e 5bbc
00000270: cb96 85be 9459 533d f4ac 5dbd cb16 0dbe
00000280: 0e9e 453d 1227 c23c 6c32 0dbe 5552 f3bd
00000290: a42f b1bc d9ab 2bbe f775 00be 071d efbd
000002a0: fc3a 48bd f700 713c 2806 50bc cb80 8f3c
000002b0: 436b 47bd 3bde ca3c 0ae1 3d3d d0fe c73c
000002c0: a2c9 09be 0e1a 8ebd a158 1dbe c41b c5bd
000002d0: 8d04 0bbe d4fd 61bd 0a08 64be c66e 84bd
000002e0: 1b41 26be f0c1 e0bd 02b3 01be 350a 963d
000002f0: 3236 2bbd 6ad3 9c3c 75b0 373d 7fb1 713d
00000300: 9ad2 39bd e97b 02be 68b7 8ebd da62 b4bd
00000310: ce91 14bd 1a2f eb3c 490f c3bd 212c 06be
00000320: 08eb 18be e9d0 453c 581c 68bd 0954 9fbd
00000330: a211 66bd f7b5 f4bd 7ed7 aabd 7da3 83bc
00000340: fdeb aebd 9503 b2be b7bb 0f3a 6278 cabc
00000350: 8ce4 fabd 5211 3dbd e7df 04be 7ab1 063d
00000360: 5bba bcbd b7ab 5bbc 3c6b 8ebc a611 39bd
00000370: 3db1 fbbd 4710 b43d 5182 13be a9e1 b8bd
00000380: 3570 15bd 945e 40be 2ddd 1ebe 4be3 f2bd
00000390: 165f eb3c 8686 b1bc 5801 21be 5e77 1bbd
000003a0: da2a e6bb 1a7b 323d 91e7 2ebe c47e 04be
000003b0: 80e4 a5bd 3c79 e3bd ce00 773c d1ea f9bc
000003c0: f30a 0cbc 558d 293c bc15 193d 607d 84bd
000003d0: 60bf f13b fc16 30bd 6c68 11bd 2fb6 b9bd
000003e0: ef93 803c 7a8c 543d c8e8 ccbd 9b92 b2bd
000003f0: 17fa c9bd 353d 15bd 4010 edbd 1db9 babd

nn_layers.4.bias f4 [49]
-0.060634006 0.027295489 -0.0871006 0.025727518 -0.059538286 0.1185614 -0.032881215 0.104171
-0.12376473 0.057323266 -0.1090615 0.06258826 -0.046721965 -0.028361667 -0.122589454 0.03808989
0.024416715 0.13113756 0.039220713 -0.11635004 0.109021135 0.06595168 -0.040469125 0.086112924
-0.08847323 0.05305437 -0.07079831 -0.12157298 0.0074170716 0.02294882 -0.037871547 -0.057759516
0.069367476 0.04562316 -0.0069682333 -0.004462856 -0.0021868735 0.05248448 -0.018400997 0.017762853
-0.08359744 0.08651043 0.0256739 0.05137095 -0.016239127 -0.013271358 -0.08263009 -0.088337846
-0.017356725
00000000: 5d5b 78bd ca9a df3c cd61 b2bd 84c2 d23c
00000010: 6bde 73bd 52d0 f23d 74ae 06bd 9b57 d53d
00000020: 5d78 fdbd cdcb 6a3d a35b dfbd 462e 803d
00000030: 885f 3fbd ba56 e8bc 2e10 fbbd 2504 1c3d
00000040: 9005 c83c ed48 063e e6a5 203d ee48 eebd
00000050: 7946 df3d ad11 873d f4c2 25bd f95b b03d
00000060: 7431 b5bd 8a4f 593d b4fe 90bd 41fb f8bd
00000070: e80a f33b 2aff bb3c 321f 1bbd 3e95 6cbd
00000080: 8910 8e3d 5adf 3a3d c755 e4bb 263d 92bb
00000090: a651 0fbb f7f9 563d b0bd 96bc 6783 913c
000000a0: 2235 abbd 612c b13d 1252 d23c 586a 523d
000000b0: eb07 85bc 1c70 59bc f739 a9bd 79ea b4bd
000000c0: b12f 8ebc
