jengazero_data/old_jengazero_nim_featureset/checkpoints/20/model.pkl (torch_old, 100175 bytes, 6 tensors)

nn_layers.0.weight f4 [128, 14]
0	0x3e2e28c8	0.17007744
1	0x3e1e1022	0.15435842
2	0xbe48dcfe	-0.19615552
3	0x3bca1350	0.006166853
4	0x3db8fe62	0.09032895
5	0xbd746e3e	-0.059675448
6	0xbe682cb8	-0.22673309
7	0xbe039a49	-0.12851824
8	0x3dc82315	0.09772316
9	0x3d999390	0.074988484
10	0x3e5e218d	0.21692486
11	0xbe80f558	-0.25187182
12	0x3e3f7af2	0.18699244
13	0xbe6c27ec	-0.23062104
14	0x3e7f0973	0.24905948
15	0xbe86d7f2	-0.26336628
16	0xbd9623d3	-0.07331052
17	0xbd2fd814	-0.042930678
18	0x3d9e114a	0.077181414
19	0xbe861e34	-0.26194918
20	0x3d4a862d	0.049444366
21	0x3e7d78ea	0.24753156
22	0x3dd64c72	0.104637995
23	0x3e6382f7	0.22217928
24	0x3ce52eca	0.027976412
25	0xbe1161b7	-0.14197432
26	0xbdbe399f	-0.09288334
27	0xbcd1a801	-0.025592806
28	0x3dbfd242	0.09366275
29	0x3db12cf4	0.08651152
30	0xbe4bebb2	-0.1991413
31	0x3e4c2e77	0.199396
32	0xbd681263	-0.05665816
33	0x3e13a77d	0.1441936
34	0xbd6e4bae	-0.058177643
35	0x3c8c777c	0.017146818
36	0x3e40736e	0.18794033
37	0xbe6447bf	-0.22292994
38	0xbba59e6d	-0.005054286
39	0xbe78b06a	-0.24286047
40	0x3d83512d	0.064119674
41	0x3da9156e	0.082560405
42	0xbe82a898	-0.25519252
43	0x3c13018d	0.008972538
44	0x3e55334c	0.2082035
45	0x3d2b9aa5	0.041895527
46	0x3d57bc02	0.052669533
47	0xbb8c18c5	-0.0042754137
48	0x3e0b53c7	0.13606177
49	0x3bf077a2	0.00733848
50	0xbd623256	-0.055223785
51	0xbdf2a3d0	-0.11847651
52	0x3dbffd82	0.09374525
53	0xbd8fb28b	-0.07016476
54	0xbe1c99e3	-0.15293078
55	0x3e25a789	0.16177191
56	0x3e59ccc4	0.21269518
57	0x3d921057	0.07132023
58	0xbd93e7d7	-0.07221954
59	0xbe710657	-0.23537575
60	0x3e33c1df	0.17554425
61	0x3e2db3fb	0.16963188
62	0x3e5c0b97	0.21488796
63	0xbe549d29	-0.20763077
64	0xbe1d9d3e	-0.15392014
65	0x3d88a626	0.06672315
66	0xbe510566	-0.20412216
67	0x3e220205	0.15821083
68	0x3e3abad2	0.18235329
69	0x3e4e5b00	0.20151901
70	0xbe778be3	-0.24174456
71	0xbe30a532	-0.17250517
72	0x3e545544	0.20735651
73	0x3e44dbf0	0.19224524
74	0x3e05cdc9	0.13066782
75	0xbdce2aa6	-0.10066728
76	0x3e7e8662	0.2485595
77	0x3e08b3a8	0.13349783
78	0x3e88207e	0.2658729
79	0xbd268ce5	-0.04066171
80	0xbe31a0f9	-0.17346562
81	0x3e59995d	0.2124991
82	0xbdff4d68	-0.12465936
83	0x3e5a80d8	0.21338212
84	0x3ca7f4fd	0.020502562
85	0xbe82d940	-0.25556374
86	0xbe77ca30	-0.24198222
87	0x3e3eadff	0.18621062
88	0x3e4d319a	0.20038453
89	0xbe5555ea	-0.20833555
90	0xbd22a934	-0.039712146
91	0xbd77be87	-0.060484435
92	0xbe2a4e4b	-0.16631429
93	0xbd01271f	-0.03153145
94	0xbe81014d	-0.25196305
95	0x3ce100be	0.027466174
96	0x3e2cb862	0.16867211
97	0x3a1ead92	0.00060530857
98	0x3dfe7bb1	0.12425936
99	0x3dc90124	0.09814671
100	0xbd81947e	-0.06327151
101	0xbda94010	-0.08264172
102	0x3e7634cf	0.24043582
103	0xbe834737	-0.2564027
104	0x3d929986	0.071581885
105	0xbe20a212	-0.15686825
106	0x3dcfc2de	0.1014459
107	0xbdfac0e6	-0.12243824
108	0xbe5067fd	-0.20352168
109	0xbd4443f0	-0.047916353
110	0x3e71dad6	0.23618636
111	0x3e3b0893	0.1826499
112	0x3e25df6d	0.16198511
113	0xbe22a058	-0.15881479
114	0xbe203b36	-0.15647587
115	0xbe5d7674	-0.21627218
116	0xbd2c9a55	-0.04213937
117	0xbc0e0ce6	-0.008670067
118	0xbd60c3f9	-0.054874394
119	0xbc3233e4	-0.0108766295
120	0x3de28a9f	0.11061596
121	0xbe4bfc66	-0.19920501
122	0xbe4fab1b	-0.20280115
123	0x3dbad9d5	0.091235794
124	0xbcbc4c4e	-0.022985604
125	0xbe4c661e	-0.1996083
126	0xbe49983c	-0.19686979
127	0xbda16ed1	-0.07882465
128	0x3c68ff72	0.014221059
129	0x3b863d4e	0.0040966636
130	0xbe33d0b1	-0.17560078
131	0x3e5c9598	0.2154144
132	0xbe823ace	-0.2543549
133	0x3d1fb63b	0.038992148
134	0x3e38ad09	0.18034758
135	0xbdc07274	-0.0939683
136	0xbd6baa72	-0.057535596
137	0x3ca71983	0.020397907
138	0xbe86dd9b	-0.26340947
139	0xbe2c680e	-0.16836569
140	0xbcadfbb2	-0.021238182
141	0xbd0aa093	-0.03384454
142	0x3e562cbd	0.20915504
143	0xbda3ab34	-0.07991639
144	0x3d7d208f	0.06179863
145	0xbd517a47	-0.051142003
146	0x3e0e7ba4	0.13914353
147	0xbe7a2752	-0.24429062
148	0xbd3be264	-0.0458702
149	0x3e468806	0.19387826
150	0x3e569f81	0.20959283
151	0x3dd7cea5	0.10537461
152	0x3df71f0d	0.12066469
153	0x3ca9933e	0.020700093
154	0x3e2c3699	0.16817702
155	0xbd01b12f	-0.031663116
156	0x3d44a978	0.04801318
157	0xbe412585	-0.18861969
158	0x3e0c0462	0.13673547
159	0x3dee17b0	0.11625612
160	0xbd447b74	-0.047969297
161	0xbdca7772	-0.09886064
162	0x3e1f4d68	0.15556872
163	0xbe0e718e	-0.13910505
164	0xbe279524	-0.16365486
165	0x3d7eb0d5	0.06218036
166	0xbe45ff0d	-0.19335575
167	0x3e332b45	0.17496975
168	0xbe835949	-0.25654057
169	0xbe60cfcf	-0.21954273
170	0xbe7cec09	-0.24699415
171	0xbe5fd654	-0.21859103
172	0x3da63c3e	0.08116959
173	0xbe6e60c9	-0.23279108
174	0xbe047103	-0.12933736
175	0xbe7a4c8b	-0.24443261
176	0x3e701036	0.23443684
177	0xbe0eff7b	-0.13964646
178	0xbe34e5f7	-0.1766585
179	0xbd675595	-0.0564781
180	0xbd8fb896	-0.07017629
181	0xbbdafd40	-0.006683022
182	0x3d9bcfe5	0.07608012
183	0xbcde0afd	-0.027104849
184	0xbe843492	-0.25821358
185	0x3e640cb2	0.22270468
186	0xbe4e4061	-0.20141746
187	0xbc1acf34	-0.009448815
188	0x3e7d7ded	0.24755068
189	0xbc5797e3	-0.013158771
190	0x3e116b56	0.14201102
191	0x3e45f965	0.19333418
192	0xbc9cd744	-0.019145615
193	0xbcd75923	-0.02628762
194	0xbd154e8a	-0.036451854
195	0x3d51ce44	0.0512221
196	0xbe676f1d	-0.2260098
197	0xbdeabfa0	-0.11462331
198	0xbe6589fc	-0.22415918
199	0xbe08f627	-0.1337515
200	0x3e4527a2	0.192534
201	0xbc527598	-0.012845419
202	0xbdba238b	-0.090888105
203	0xb7d501d8	-2.5392437e-05
204	0x3d36c140	0.04461789
205	0xb81c14a0	-3.7212507e-05
206	0x3db62f1b	0.088957034
207	0xbc1c324a	-0.009533474
208	0x3cc12756	0.023578327
209	0xbd75e99e	-0.060037248
210	0xbe7cacda	-0.24675313
211	0xbdf6224c	-0.1201826
212	0xbe2a11d3	-0.16608362
213	0x3dc949b4	0.09828511
214	0xbb69cb04	-0.0035673985
215	0x3d259d26	0.04043307
216	0x3e31a05b	0.17346327
217	0xbe75e6dd	-0.24013849
218	0xbd4ea771	-0.050452653
219	0x3e51bffe	0.20483395
220	0x3e7a244a	0.24427906
221	0xbe073495	-0.13203652
222	0xbe532eb7	-0.20623289
223	0xbe5eca00	-0.21756744
224	0xbda1c931	-0.07899702
225	0xbe49cd01	-0.19707109
226	0x3e693703	0.22774892
227	0xbe0bac01	-0.13639833
228	0x3daa6cbe	0.08321522
229	0x3e1db880	0.15402412
230	0x3d09cc61	0.033642177
231	0x3da79f6a	0.08184703
232	0xbdb4e999	-0.08833618
233	0x3e50bda0	0.20384836
234	0xbe6a222b	-0.22864597
235	0xbe88bf49	-0.2670844
236	0x3e5eea8a	0.21769157
237	0x3cf56fd9	0.02996056
238	0xbd3ccf96	-0.046096407
239	0x3da14480	0.078743935
240	0xbd859800	-0.06523132
241	0xbe3b5ae8	-0.18296397
242	0xbcc8df7e	-0.024520632
243	0xbe5bbb03	-0.21458058
244	0x3ded21e8	0.11578733
245	0xbe4c065e	-0.19924304
246	0xbe60b34f	-0.21943401
247	0xbdd55d25	-0.104181565
248	0xbe3ce576	-0.18446907
249	0x3e27f60c	0.16402453
250	0xbc214d29	-0.009845057
251	0xbceed332	-0.02915344
252	0x3e3bdd26	0.1834608
253	0xbe09d186	-0.13458833
254	0x3e399301	0.18122484
255	0x3dc63aba	0.0967917

nn_layers.0.bias f4 [128]
0	0x3ddad581	0.10685254
1	0x3e1665d6	0.14687285
2	0xbe2e8e65	-0.17046507
3	0xbe6ba55e	-0.23012301
4	0xbd43119b	-0.04762421
5	0xbe002af9	-0.12516393
6	0x3e21f6e4	0.15816838
7	0x3dd571b5	0.104220785
8	0xbda60a36	-0.08107416
9	0x3e561c4d	0.20909233
10	0x3c2df1ca	0.010616729
11	0x3ce73c68	0.028227046
12	0xbe047125	-0.12933786
13	0xb9c4254a	-0.00037411816
14	0x3d973e74	0.07384959
15	0x3dc60c57	0.096703224
16	0x3e4d743a	0.20063868
17	0x3e256a2e	0.16153786
18	0xbe21c0ca	-0.157962
19	0x3c0c67d5	0.008569677
20	0xbc31e01c	-0.0108566545
21	0xbd8a652b	-0.067575775
22	0xbd0378fb	-0.032097798
23	0xbe760f7a	-0.24029341
24	0x3e60e52f	0.21962427
25	0x3e4f8d46	0.20268735
26	0x3e71a644	0.23598582
27	0x3da87368	0.08225137
28	0xbe260fc9	-0.16216959
29	0xbe478eb1	-0.19488026
30	0x3ddcf177	0.10788243
31	0xbd7b980d	-0.061424304
32	0x3e87564f	0.26433036
33	0x3dd1f1d8	0.10251206
34	0x3d624dc0	0.05524993
35	0x3cde4cf0	0.027136296
36	0xbe6818ed	-0.22665758
37	0xbe8b0bed	-0.27157536
38	0xbd3e6aca	-0.04648856
39	0xbe0bf4d3	-0.13667612
40	0xbd8209d2	-0.06349529
41	0x3dc55de8	0.09637052
42	0x3deccdbf	0.115626805
43	0xbe579dd9	-0.21056308
44	0xbbe7034d	-0.007049954
45	0xbd3eeb11	-0.046610896
46	0x3d587b57	0.052852
47	0xbe80907f	-0.25110242
48	0x3dea45f5	0.114391245
49	0x3e240412	0.16017178
50	0x3dff02a2	0.12451674
51	0xbdfb67b4	-0.12275639
52	0xbe208863	-0.15677027
53	0xbdef42d6	-0.1168267
54	0xbe13424d	-0.1438076
55	0x3e3cda29	0.18442596
56	0xbc7d0343	-0.015442672
57	0x3ddc9684	0.10770896
58	0x3e13d0bf	0.14435099
59	0xbe73144c	-0.23738211
60	0xbc9aa464	-0.018877216
61	0xbdf224f9	-0.11823458
62	0x3e551e3c	0.20812315
63	0xbe6e9882	-0.23300365
64	0x3e20f47d	0.15718265
65	0x3d8eac89	0.06966502
66	0x3e3ad466	0.18245086
67	0xbe4e3343	-0.20136742
68	0xbe0975e6	-0.13423881
69	0x3e810858	0.25201678
70	0x3d8ade72	0.06780709
71	0x3d23cc85	0.039989967
72	0x3e7a2ddd	0.24431558
73	0xbc56727a	-0.013088817
74	0x3dd6e139	0.104921766
75	0x3dfcfdc0	0.123530865
76	0xbd1904b8	-0.037358016
77	0x3df45eb4	0.11932126
78	0x3e7c1fd9	0.24621524
79	0x3d688bac	0.056773826
80	0x3e4c9925	0.19980295
81	0x3d329d72	0.043607183
82	0xbd1769fd	-0.036966313
83	0xbe75e60e	-0.2401354
84	0xbd3500f4	-0.044190362
85	0x3d92bdf9	0.07165141
86	0x3dc47d00	0.09594154
87	0xbe1ed463	-0.15510707
88	0x3e084ace	0.13309786
89	0x3e72e638	0.23720634
90	0x3e51933e	0.20466325
91	0xbd93ff5b	-0.072264396
92	0xbd4ddaa7	-0.05025735
93	0x3e1c1191	0.15241076
94	0xbd798387	-0.06091645
95	0x3e05b544	0.13057429
96	0x3ca00fe4	0.019538827
97	0xbcdd8fb7	-0.027046068
98	0xbdfd6078	-0.123719156
99	0xbdeaa5bc	-0.114573926
100	0xbe429e73	-0.19005756
101	0xbdcd25e9	-0.100169964
102	0xbb6fc16e	-0.00365838
103	0x3e46ddc7	0.19420539
104	0xbd2e19ed	-0.042505194
105	0x3db4d423	0.08829524
106	0xbdee85f6	-0.11646645
107	0x3e1b050b	0.15138642
108	0xbc3581c5	-0.011078303
109	0xbe44becf	-0.19213413
110	0xbe7b9fc5	-0.24572666
111	0xbe7bb1d3	-0.24579553
112	0xbdd83490	-0.105569005
113	0x3e61033e	0.21973893
114	0xbd42d702	-0.04756833
115	0xbd5bc734	-0.05365677
116	0xbe714817	-0.23562656
117	0x3dae213e	0.08502434
118	0x3dd7c8e0	0.10536361
119	0xbe859682	-0.2609139
120	0xbe6006ef	-0.21877645
121	0x3cb80a26	0.022465777
122	0x3e0a037f	0.13477896
123	0xbe5b69d9	-0.21427096
124	0xbd98f14f	-0.07467901
125	0xbe3b8ad2	-0.18314674
126	0x3da47b1f	0.08031296
127	0x3dcaffec	0.099120945

nn_layers.2.weight f4 [128, 128]
0	0x3d84bbc8	0.06481129
1	0x3d595e30	0.05306834
2	0xbd4ba882	-0.04972125
3	0xbdacc438	-0.08435863
4	0x3d3a9cc6	0.045559667
5	0xbab437ed	-0.0013749577
6	0xbd00d5bc	-0.031453833
7	0x3d8fc4e7	0.07019978
8	0xbdb2853e	-0.0871682
9	0x3cc6472f	0.024203865
10	0xbd8c8c87	-0.06862741
11	0x3d88a345	0.06671766
12	0xbc0e80d5	-0.008697708
13	0xbc95b1af	-0.018273203
14	0x3d23f557	0.040028896
15	0xbd6d818e	-0.05798488
16	0xbd7754df	-0.060383674
17	0x3d8da262	0.06915738
18	0xbcdf642a	-0.027269442
19	0x3d905773	0.070479296
20	0x3cf80042	0.03027356
21	0xbd86eba4	-0.06587914
22	0x3ce1107f	0.027473686
23	0x3c2fba06	0.010725504
24	0xbc170505	-0.009217505
25	0x3c0992a4	0.008396778
26	0xbd93bb31	-0.07213438
27	0x3cd753a4	0.026285
28	0xbd0bc1ef	-0.034120496
29	0x3d9d2563	0.076731466
30	0x3b6decc3	0.003630445
31	0x3d83c126	0.064333245
32	0x3a9aa5b8	0.0011798656
33	0x3da74d87	0.08169084
34	0xbd3e065f	-0.046392795
35	0x3d51dc34	0.051235393
36	0x3d4d9c6c	0.050198004
37	0xbd90175a	-0.07035704
38	0x3d45d7ef	0.048301633
39	0xbcc1011e	-0.023560103
40	0xbd099334	-0.03358765
41	0xbc6141a3	-0.013748559
42	0x3d88fd71	0.06688965
43	0x3c5abd21	0.013350756
44	0x3c85490a	0.01627018
45	0xbd856868	-0.065140545
46	0xbcbb4844	-0.022861607
47	0x3c52a9f8	0.0128579065
48	0xbd695264	-0.05696334
49	0x3d9ad1ab	0.07559522
50	0x3d8a7f77	0.06762593
51	0x3d7d4f57	0.061843242
52	0xbd898746	-0.067152545
53	0x3b98fe9e	0.0046690246
54	0x3d2d4e26	0.042310856
55	0x3cb8c704	0.022555836
56	0x3da1d4d5	0.079019226
57	0x3bcbfe6a	0.006225397
58	0xbd800ca1	-0.06252409
59	0xbd681697	-0.05666217
60	0xbdd2feb9	-0.10302491
61	0x3dae31df	0.08505606
62	0xbd8c80d8	-0.068605125
63	0x3db085ee	0.08619295
64	0xbd5ef93a	-0.0544369
65	0xbd81c314	-0.06336036
66	0xbd10235f	-0.035189983
67	0x3cfc219b	0.030777743
68	0x3cfc7ffa	0.030822743
69	0xbc5c2dae	-0.013438625
70	0xbc97d68a	-0.018534917
71	0x3d217754	0.03942044
72	0xbd3bbd38	-0.04583475
73	0xbc989d11	-0.018629583
74	0xbd96a53b	-0.07355734
75	0x3d7592b5	0.059954364
76	0xbd9c6497	-0.076363735
77	0x3dacd108	0.08438307
78	0x3c889acb	0.016675374
79	0x3d021dd5	0.03176673
80	0x3da3502b	0.07974275
81	0xbd07148f	-0.03297859
82	0xb9ab75a0	-0.000327033
83	0x3ce3fbbd	0.02783
84	0x3d6a432c	0.057192966
85	0xbca7a30a	-0.020463485
86	0xbd54bcc9	-0.051937852
87	0x3d4b91c3	0.049699556
88	0xbcc303fc	-0.02380561
89	0x3d26b4b3	0.040699672
90	0x3cf7617d	0.030197853
91	0x3d19312b	0.037400406
92	0x3d20e6fb	0.03928278
93	0xbd5c65ca	-0.05380801
94	0xbd0f7e62	-0.035032637
95	0x3ca552dc	0.020181112
96	0x3d6dae68	0.058027655
97	0xbd0fd370	-0.035113752
98	0xbd836edc	-0.06417629
99	0x3d88fea2	0.06689192
100	0xbd7efef1	-0.06225485
101	0x3d23c8fc	0.039986596
102	0x3d488748	0.04895714
103	0xbcb8c317	-0.022553964
104	0x3b6d000c	0.0036163358
105	0x3da604b5	0.081063665
106	0xbd3a33d2	-0.045459576
107	0xbc9a2ded	-0.018820727
108	0x3cb51389	0.022104042
109	0xbd0453f9	-0.032306645
110	0xbd3b55a0	-0.045735955
111	0x3da38f47	0.07986312
112	0x3d945551	0.07242835
113	0xbd9eb173	-0.077486895
114	0x3c721e96	0.0147778
115	0x3cd1b5f8	0.025599465
116	0x3d8db59b	0.06919404
117	0x3d66de2f	0.056364235
118	0x3d904618	0.07044619
119	0xbcebe13d	-0.028793925
120	0x3d728da7	0.05921712
121	0x3d6d48ae	0.05793064
122	0x3d95a9b6	0.073077604
123	0x3c7049cb	0.014666031
124	0x3d8769fc	0.06612012
125	0x3d98eb30	0.074667335
126	0x3d32a04f	0.043609913
127	0xbd3f1c92	-0.046658106
128	0x3d05eeef	0.032698568
129	0xbdb3cf57	-0.08779781
130	0xbc28a957	-0.01029428
131	0xbd53276e	-0.051551275
132	0x3d906b2c	0.070516914
133	0xbcb32276	-0.021867018
134	0xbd3ec6e7	-0.046576407
135	0x3d3fe293	0.046846937
136	0xbd0e4ef8	-0.03474328
137	0xbd26d740	-0.040732622
138	0x3d11de85	0.0356126
139	0x3c278729	0.010225096
140	0xbb88640c	-0.004162317
141	0xbc033c45	-0.008009975
142	0x3d17ad63	0.03703059
143	0x3d497c9a	0.049191095
144	0xbc25801d	-0.010101345
145	0xbd859379	-0.06522269
146	0xbda3a11f	-0.07989716
147	0xbc5608e8	-0.013063647
148	0xbcae4fbf	-0.02127826
149	0xbd9143e3	-0.070930265
150	0xbd7cfe44	-0.061765924
151	0xbd898183	-0.067141555
152	0x3d9f8d6d	0.07790647
153	0x3d11c3c4	0.035587087
154	0xbd62f4eb	-0.055409353
155	0x3d36b047	0.044601705
156	0x3b8f6cc9	0.004376982
157	0xbd97a407	-0.074043326
158	0x3c19d814	0.009389896
159	0xbda3ee6d	-0.080044605
160	0x3d8995b6	0.06718008
161	0x3d085ff4	0.033294633
162	0xbd98082c	-0.07423434
163	0xbd487443	-0.048939
164	0xbc8d5d37	-0.017256362
165	0xbdaeeded	-0.085414745
166	0x3dd0b116	0.101900265
167	0xbda67a72	-0.08128823
168	0xbd81246f	-0.06305777
169	0x3c125946	0.008932417
170	0xbd895a59	-0.067066856
171	0x3d552750	0.052039444
172	0xbd7d806d	-0.061890054
173	0xbce302bb	-0.027711263
174	0xbd47fa8e	-0.048822932
175	0x3d8906bc	0.066907376
176	0xbd914980	-0.07094097
177	0xbdb45181	-0.08804608
178	0xbd027803	-0.031852733
179	0xbcfb774b	-0.030696532
180	0xbc7d3336	-0.015454104
181	0xbc224298	-0.0099035725
182	0x3c68c8fc	0.014208075
183	0xbd2fa1ee	-0.042879038
184	0xbccefb3f	-0.025266288
185	0x3c9f2efc	0.019431584
186	0xbc57011c	-0.013122823
187	0x3d98bcc2	0.07457878
188	0xbd657443	-0.05601908
189	0x3d811cf0	0.063043475
190	0xbd9e0c94	-0.07717243
191	0xbda8eca6	-0.08248262
192	0x3d907a24	0.070545465
193	0x3d94ae75	0.072598375
194	0xbdaa0fe6	-0.08303814
195	0x3d447778	0.047965497
196	0xbd9c28d4	-0.07624975
197	0x3cf10434	0.02942095
198	0xbd94bce4	-0.072625905
199	0xbc9bfa30	-0.019040197
200	0xbc39a44b	-0.011330674
201	0x3d95b61e	0.07310127
202	0x3d0fe34b	0.035128873
203	0x3bd5f450	0.0065293685
204	0xbceb79cd	-0.028744603
205	0x3d612b45	0.054972906
206	0xbcc2ae96	-0.02376489
207	0x3cf4068a	0.029788274
208	0x3d89f35a	0.06735869
209	0xbd611048	-0.054947168
210	0x3da6ed03	0.08150675
211	0xbd3cd0d2	-0.046097584
212	0x3cf4b5cb	0.029871842
213	0x3d496522	0.049168713
214	0x3b052c91	0.0020320753
215	0xbd52df31	-0.051482383
216	0xbd39d503	-0.04536916
217	0x3c0774c8	0.008267589
218	0xbd95f16f	-0.073214404
219	0xbd28c486	-0.041203044
220	0xbda8b929	-0.082384415
221	0x3d22bcc3	0.0397308
222	0xbc65ed5e	-0.0140336435
223	0x3d49e6c9	0.04929236
224	0x3c905d88	0.017622724
225	0x3c84cd8a	0.01621129
226	0x3cb84ef1	0.02249858
227	0x3d5bba3e	0.05364441
228	0x3d3c36a8	0.04595056
229	0xbd800100	-0.06250191
230	0x3d0b7af6	0.03405281
231	0xbd9f0d2e	-0.07766186
232	0x3d93ee88	0.072232306
233	0xbceb146c	-0.028696261
234	0x3db09bb8	0.08623451
235	0x3d8ed8d7	0.06974953
236	0x3db026ae	0.086011276
237	0xbda9ec30	-0.08297002
238	0xbd245553	-0.040120434
239	0xbd1a37ec	-0.037650988
240	0x3d4e83a6	0.05041852
241	0xb996bda5	-0.00028751526
242	0x3c8066a1	0.015673937
243	0x3d674f41	0.056472067
244	0x3d058708	0.03259948
245	0x3daf6865	0.085648336
246	0xbd143b9d	-0.036189664
247	0xbd26a650	-0.04068595
248	0x3db12ed3	0.08651509
249	0x3c82a5d7	0.01594822
250	0x3d767286	0.06016781
251	0x3cb8f59d	0.022578055
252	0x3ca3f40f	0.020013837
253	0xbaaaef55	-0.0013041297
254	0xbd9c4a18	-0.0763132
255	0x3b50cad9	0.0031859188

nn_layers.2.bias f4 [128]
0	0x3d4fe73a	0.050757624
1	0x3d91c958	0.071184814
2	0xbc783df7	-0.015151492
3	0xbd8c3bae	-0.068473205
4	0xbb73ac9b	-0.0037181738
5	0x3b9c028d	0.0047610463
6	0xbdb3c247	-0.0877729
7	0x3d2f36c4	0.042776838
8	0x3c3f0b4e	0.01166041
9	0xbbd4be7d	-0.0064924345
10	0xbd97e7ad	-0.074172355
11	0xbcbb436f	-0.022859303
12	0x3d509480	0.05092287
13	0x3d98fe31	0.07470358
14	0x3d842a34	0.06453362
15	0x3d960cea	0.07326682
16	0x3da6f455	0.081520714
17	0x3bd17f90	0.0063933805
18	0xbd86303d	-0.065521695
19	0xbd2b4efa	-0.041823365
20	0xbd821f50	-0.06353629
21	0x3d835a15	0.06413666
22	0xbda61a05	-0.081104316
23	0xbbc645ce	-0.006050802
24	0x3c54293b	0.012949283
25	0xbdafcbd9	-0.08583803
26	0xbb164007	-0.0022926347
27	0x3d0a3326	0.033740185
28	0xbd9680ad	-0.07348762
29	0xbd03a842	-0.032142885
30	0xbd387e2e	-0.04504221
31	0xbcdc4c90	-0.026891977
32	0xbd75d037	-0.060013022
33	0xbd0ade1b	-0.033903223
34	0xbd396a8e	-0.045267634
35	0x3d867375	0.065649904
36	0x3d0b0831	0.03394336
37	0xbb53296c	-0.0032220734
38	0xbd96434f	-0.07337057
39	0xbc734607	-0.014848239
40	0x3d9be1e8	0.076114476
41	0x3d92832a	0.07153924
42	0x3ae6b353	0.001760105
43	0xbd472f9f	-0.0486294
44	0x3db3f640	0.08787203
45	0xbd4ea1e1	-0.05044735
46	0x3be0074f	0.0068368088
47	0x3d830872	0.06398095
48	0x3cb67fbb	0.022277704
49	0x3c007ce7	0.007842279
50	0x3dacd31d	0.08438704
51	0xbd3caadb	-0.046061378
52	0xbcdfe101	-0.02732897
53	0x3d2ee8b6	0.0427024
54	0x3c785c1c	0.015158679
55	0xbd9e453c	-0.07728049
56	0x3cbed084	0.023292787
57	0xbd559bc5	-0.052150507
58	0xbd88dbc1	-0.0668254
59	0xbd4f25c8	-0.05057314
60	0x3d9f78d9	0.07786722
61	0xba964c97	-0.0011466917
62	0x3c3306e1	0.010926933
63	0x3c9bb055	0.01900498
64	0xbd84ed11	-0.06490529
65	0xbd590e28	-0.052992016
66	0xbcd12412	-0.025529895
67	0x3c91ded8	0.017806455
68	0xbd62e680	-0.055395603
69	0x3d0c4b6d	0.03425162
70	0xbd931040	-0.07180834
71	0xbd02d27a	-0.031939007
72	0xbc35658f	-0.011071577
73	0x3d95361e	0.07285713
74	0xbd7763ee	-0.060398035
75	0x3d70c0f3	0.05877776
76	0x3cbb5441	0.022867324
77	0x3db021e2	0.08600213
78	0xbd8c968d	-0.06864653
79	0xbd108113	-0.035279345
80	0x3d2b8413	0.041874003
81	0xbd6e74af	-0.058216747
82	0xbb8adcd2	-0.0042377496
83	0x3d5d3e94	0.054014757
84	0x3d85f047	0.0653997
85	0xbd9efa1b	-0.077625476
86	0x3d454d0c	0.04816918
87	0x3c8daa9f	0.017293273
88	0x3d0c9fce	0.03433209
89	0x3d4db1a4	0.05021824
90	0xbd9547ff	-0.07289123
91	0x3d904576	0.070444986
92	0xbc850b46	-0.016240727
93	0xbc91c014	-0.017791785
94	0x3dad06d4	0.08448568
95	0xbc6b821b	-0.014374281
96	0x3cf75720	0.030192912
97	0xbc9002c9	-0.017579453
98	0x3bb2652e	0.0054441905
99	0xbceb235d	-0.028703386
100	0xbd12f4c7	-0.03587797
101	0x3d21931b	0.03944693
102	0x3c971465	0.018442342
103	0xbd855a79	-0.06511397
104	0xbdae10c8	-0.084992945
105	0xbd93fc52	-0.07225861
106	0xbbacc753	-0.0052727847
107	0x3da575fe	0.08079146
108	0x3dac7098	0.08419913
109	0xbd737224	-0.059435025
110	0x3d4941d3	0.04913504
111	0x3db8d5ca	0.09025152
112	0x3d31abc6	0.043376707
113	0xbb85c5f7	-0.004082437
114	0x3d4804e2	0.04883278
115	0xbda8a3b4	-0.08234349
116	0xbda3c701	-0.07996941
117	0x3c48792d	0.012235922
118	0xbd957f12	-0.07299627
119	0xbd19c81d	-0.03754436
120	0x3cb354d6	0.021891039
121	0x3d6f2ff4	0.05839534
122	0xbc577600	-0.013150692
123	0x3da019a1	0.07817388
124	0x3da5f636	0.08103602
125	0xbd9d805b	-0.076904975
126	0x3d8bf344	0.068335086
127	0xbda9b7ad	-0.082869865

nn_layers.4.weight f4 [49, 128]
0	0x3d29fadf	0.041499015
1	0xbc766ed4	-0.015041072
2	0xbc1b1756	-0.009466013
3	0xbcf0eba0	-0.02940923
4	0xbad22e95	-0.0016035611
5	0x3d21f0ee	0.03953641
6	0x3d9e57b6	0.07731573
7	0x3be02d67	0.00684135
8	0x3da89521	0.08231569
9	0x3dda837b	0.10669609
10	0x3daa33c0	0.08310652
11	0x3dddda6f	0.108326785
12	0x3db87fc8	0.09008747
13	0xbc4e8612	-0.012605207
14	0xbd714c5d	-0.058910716
15	0x3d1abe71	0.037779275
16	0x3dad36cb	0.084577166
17	0xbd071fec	-0.032989427
18	0x3d96d89b	0.07365533
19	0x3da89f2e	0.08233486
20	0x3c9a4791	0.018832954
21	0x3d3bc82a	0.04584519
22	0x3b87d3e6	0.0041451333
23	0x3a12a22d	0.0005593624
24	0xbd8a1acc	-0.06743392
25	0x3d3f01db	0.04663263
26	0x3dd262e5	0.10272769
27	0xbd512df6	-0.051069222
28	0xbc865754	-0.016399063
29	0x3dc354b3	0.095376395
30	0x3cd0fc05	0.025510797
31	0xbd768084	-0.060181156
32	0xbd8f092d	-0.06984172
33	0x3d9936e3	0.07481172
34	0x3d35fc38	0.044429988
35	0x3d0e84e6	0.03479471
36	0x3d45e7c9	0.04831675
37	0xbbe627da	-0.0070237936
38	0x3d47c945	0.04877593
39	0x3d926909	0.0714894
40	0x3cde8324	0.027162142
41	0x3d9fa0c6	0.07794337
42	0x3d42c487	0.047550704
43	0x3d981bde	0.0742719
44	0x3d697565	0.05699672
45	0x3dcf04c2	0.10108329
46	0xbd91ba62	-0.07115628
47	0x3dc4cd22	0.096094385
48	0x3dbf1605	0.09330372
49	0x3db8d3cd	0.09024773
50	0x3cfbad55	0.0307223
51	0x3dd541ed	0.10412965
52	0x3db35b0e	0.08757602
53	0x3c474993	0.012163538
54	0x3b3aedbe	0.0028523053
55	0x3d7eab35	0.062174994
56	0x3db9464e	0.09046613
57	0x3d553822	0.052055486
58	0xbd40ed12	-0.047101088
59	0x3ce34f9e	0.027747925
60	0x3c0656be	0.008199392
61	0x3db36f83	0.087615035
62	0x3db39c29	0.087700196
63	0x3c5b8ab4	0.013399769
64	0xbd7c0a3c	-0.061533198
65	0xbd45e34f	-0.04831248
66	0xbc9f0c23	-0.019414967
67	0x3d610f70	0.054946363
68	0x3d64108f	0.055679854
69	0x3d55e503	0.052220356
70	0x3d1b1702	0.03786374
71	0x3ceb29fa	0.02870654
72	0xbc896fd2	-0.016776953
73	0x3c399f9c	0.011329558
74	0x3d3d7985	0.04625847
75	0xbd85bf30	-0.06530607
76	0x3da9be8e	0.082882985
77	0xbcf3d1b4	-0.02976308
78	0x3cf14572	0.02945206
79	0xbd802b63	-0.06258275
80	0xbd1a0101	-0.037598614
81	0x3d1545ad	0.0364434
82	0x3d3154c6	0.043293737
83	0x3cc50d87	0.024054302
84	0xbcea9fdb	-0.028640678
85	0xbd22a5a4	-0.03970875
86	0x3d5ec634	0.05438824
87	0x3d7c8266	0.061647795
88	0x3dba621a	0.09100743
89	0xbd4d47ee	-0.050117426
90	0xbd68179e	-0.056663148
91	0xbdb12ac5	-0.08650736
92	0x3d049b8c	0.032374904
93	0xbd5d7d20	-0.054074407
94	0xbcec5bd1	-0.028852375
95	0x3c1a13d8	0.009404145
96	0xbd605bd3	-0.05477507
97	0xbc26f3f5	-0.01019
98	0xbbb9200a	-0.0056495713
99	0x3cf3e818	0.029773757
100	0xbbba6d1c	-0.0056892764
101	0x3dc4c8e9	0.09608633
102	0x3bf710b0	0.007539831
103	0x3c405c8f	0.011740818
104	0xbc3ea411	-0.011635796
105	0x3dad732d	0.08469234
106	0x3ccd0090	0.025024682
107	0x3ccb00f4	0.024780728
108	0x3ce2ebea	0.027700383
109	0x3cd2217d	0.025650734
110	0x3d2ebed9	0.042662475
111	0x3c8661fd	0.016404146
112	0x3d656467	0.056003954
113	0x3c94bb6a	0.018155772
114	0x3c18f50e	0.009335769
115	0x3d443e86	0.04791119
116	0x3d2f6e9a	0.042830087
117	0x3dc45618	0.095867336
118	0x3dc3d4d5	0.09562079
119	0xbb6539b7	-0.0034977028
120	0x3cb0af48	0.021567956
121	0x3d23c305	0.039980907
122	0x3c73a179	0.014870041
123	0x3b1b1e08	0.0023669023
124	0xbd257753	-0.040397
125	0xbd6c7e24	-0.057737485
126	0x3ca4efc1	0.020133855
127	0xbd04cb18	-0.032420248
128	0x3d10b65d	0.035330165
129	0xbd5fdd7b	-0.05465458
130	0x3c8d79db	0.01727002
131	0x3d718952	0.05896885
132	0xbaf93600	-0.0019013286
133	0x3c101858	0.0087948665
134	0xbdd7d2dc	-0.10538265
135	0xbdb20f70	-0.08694351
136	0xbd8306a6	-0.063977525
137	0x3cc0de3e	0.023543473
138	0xbdbfbac1	-0.09361792
139	0x3d8637f1	0.06553639
140	0x3d863aa8	0.065541565
141	0x3d68a3d6	0.05679687
142	0xbca38055	-0.019958654
143	0xbbb8b412	-0.0056367004
144	0xbd967888	-0.07347208
145	0x3d0ac81e	0.033882253
146	0x3d0e7bbf	0.034785982
147	0xbdadb0aa	-0.084809616
148	0x3d336751	0.043799702
149	0xbcf40f63	-0.029792493
150	0xbd9f7847	-0.07786613
151	0x3d97d5da	0.07413836
152	0xbd28a930	-0.041176975
153	0xbc684e84	-0.014178876
154	0x3ae9c4c9	0.0017835136
155	0xbca04466	-0.019563865
156	0xbda60c31	-0.08107794
157	0x3d2e133b	0.04249881
158	0xbd2ad6bd	-0.041708697
159	0xbd5d135e	-0.053973548
160	0x3d459e0e	0.048246436
161	0x3c8374b5	0.016046861
162	0xbdd9434a	-0.106085375
163	0xbd5367d7	-0.0516127
164	0x3d748bac	0.059703514
165	0xbdd81545	-0.10550932
166	0xbd9b6dab	-0.07589277
167	0xbd5c86b9	-0.05383942
168	0xbcf5535e	-0.02994698
169	0x3c7100f7	0.014709703
170	0xbc500628	-0.01269678
171	0x3d4f0daa	0.05055014
172	0xbd476b43	-0.048686277
173	0x3d8b46cd	0.068006136
174	0x3d3de10a	0.046357192
175	0x3ca45224	0.020058699
176	0xbc90a7f7	-0.017658217
177	0xbd8a0830	-0.06739843
178	0xbdc96b47	-0.09834915
179	0x3c266953	0.010156947
180	0xbd28dd5b	-0.041226726
181	0xbc1f1f02	-0.009711983
182	0x3ca3177d	0.019908661
183	0x3cb5dd39	0.022200214
184	0xbcb9ef4f	-0.022697119
185	0xbd6e3355	-0.058154423
186	0xbdc4d73a	-0.09611364
187	0x3d960a35	0.073261656
188	0x3ccdf4a4	0.025141068
189	0x3be69717	0.0070370543
190	0x3d0228a5	0.031777043
191	0x3d74707f	0.059677597
192	0x3d90738f	0.07053291
193	0xbdb8ea74	-0.090290934
194	0xbd8eb768	-0.06968576
195	0xbda78c7f	-0.081810944
196	0xbd1491ce	-0.036271863
197	0x3d4126fc	0.04715632
198	0x3b726c6b	0.0036990892
199	0xbd9f9395	-0.07791821
200	0xbdb1bc2a	-0.086784676
201	0x3c45d0e9	0.012073734
202	0xbd8654cf	-0.06559145
203	0xbd524468	-0.05133477
204	0x3d3c0cce	0.04591065
205	0xbd3bfbd0	-0.045894444
206	0xbdaad77e	-0.08341883
207	0xbcf7819b	-0.030213168
208	0x3c550354	0.013001282
209	0xbd83dae3	-0.06438234
210	0x3a0fbbb7	0.0005482989
211	0xbcca7862	-0.024715606
212	0xbd8a490f	-0.06752216
213	0xbbad118b	-0.0052816323
214	0xbdb1adb4	-0.08675709
215	0x3d00ea2a	0.031473316
216	0xbd42ba69	-0.047541056
217	0x3d15683f	0.03647637
218	0xbc8946b4	-0.016757347
219	0xbd004ba1	-0.031322125
220	0x3d09989b	0.0335928
221	0x3db4282c	0.08796725
222	0xbd9162d4	-0.07098928
223	0xbc483c4a	-0.012221405
224	0x3d72016b	0.059083384
225	0x3c91ebc8	0.017812625
226	0xbd2fcbcb	-0.04291896
227	0xbdadfee4	-0.08495882
228	0x3ceb5f16	0.028731864
229	0x3cdca835	0.026935676
230	0xbd42c64b	-0.04755239
231	0xbcceefab	-0.025260767
232	0xbbe62ada	-0.0070241513
233	0x3d354878	0.044258565
234	0xbd9ff840	-0.07811022
235	0xbdb3d666	-0.08781128
236	0xbda5e480	-0.081002235
237	0xbd9f7604	-0.077861816
238	0x3d53f678	0.051748723
239	0x3d1c6478	0.038181752
240	0x3d429033	0.0475008
241	0x3cc4bb18	0.024014995
242	0x3d1915bc	0.037374243
243	0xbd847d60	-0.06469226
244	0x3d6d4e19	0.057935808
245	0x3ae39f28	0.0017366158
246	0x3c6930e2	0.014232846
247	0xbd0ef33c	-0.034899935
248	0x3c0359e0	0.008017033
249	0x3d7d00f1	0.061768476
250	0x3c317aad	0.010832471
251	0x3cb89c39	0.02253543
252	0xbda7d98a	-0.08195789
253	0xbd4a1060	-0.049332023
254	0xbd313e17	-0.043272104
255	0xbd15958d	-0.036519576

nn_layers.4.bias f4 [49]
0	0xbb426a64	-0.0029665465
1	0x3d8bccc2	0.06826164
2	0xbd84a17f	-0.064761154
3	0xbb9202d0	-0.0044559017
4	0xbcdf5240	-0.0272609
5	0x3daae311	0.08344091
6	0x3d8c47f8	0.068496644
7	0x3d4867a1	0.048926953
8	0xbd07825e	-0.033083312
9	0x3d39b7e5	0.04534139
10	0xbd804e84	-0.06264976
11	0x3c0dbeb2	0.008651422
12	0x3d111436	0.035419665
13	0x3cf57a22	0.029965464
14	0xbd7ddc33	-0.061977576
15	0xbd90745d	-0.070534445
16	0x3d396c85	0.045269508
17	0x3db6ab67	0.08919411
18	0xbd858925	-0.06520299
19	0xbdbc59e0	-0.0919683
20	0x3c0b8a1b	0.008516814
21	0x3d18dbbc	0.03731893
22	0xbcbf44c8	-0.023348227
23	0x3d6736b7	0.056448665
24	0xbd80d3b3	-0.062903784
25	0xbc5a2077	-0.013313404
26	0xbd6fe09d	-0.058563817
27	0xbdcf5391	-0.10123361
28	0xbc39951b	-0.011327053
29	0x3d23b84f	0.039970692
30	0xbd1b1f32	-0.037871547
31	0xbd6c953e	-0.057759516
32	0x3d8e1089	0.069367476
33	0x3d3adf5a	0.04562316
34	0xbbe455c7	-0.0069682333
35	0xbb923d26	-0.004462856
36	0xbb0f51a6	-0.0021868735
37	0x3d56f9f7	0.05248448
38	0xbc96bdb0	-0.018400997
39	0x3c918367	0.017762853
40	0xbdab3522	-0.08359744
41	0x3db12c61	0.08651043
42	0x3cd25212	0.0256739
43	0x3d526a58	0.05137095
44	0xbc8507eb	-0.016239127
45	0xbc6d1306	-0.014469868
46	0xbd89b4d4	-0.06723943
47	0xbdcb198d	-0.09916983
48	0xbc991093	-0.018684661
