jengazero_data/old_jengazero_union_featureset/checkpoints/35/model.pkl (torch_old, 139087 bytes, 6 tensors)

nn_layers.0.weight f4 [128, 90]
00000000: a44e a23d fbf8 503d 4e20 c2bd 9739 cdbb
00000010: fcc1 9b3c 77b7 26bd e48b cdbd a8cc 98bd
00000020: f4cd d83c 13d4 ed3b be7d 933d 97db e3bd
00000030: 132e 9c3d 2519 f3bd be9c d73d b460 06be
00000040: 4f4b cfbb 78d4 06bd 6749 313d 629b febd
00000050: 1dc6 243d 2c6e ba3d c843 103d ab76 b33d
00000060: 28c8 343c 765b 65bd 340d 16bd 1061 25bc
00000070: ee64 2e3d 44f6 db3c 2d11 afbd 6ca5 a83d
00000080: 8619 70bc 69f6 783d 9d7b d6bc a192 8c3c
00000090: c511 ae3d b1f6 bfbd a047 2f3b b37a cbbd
000000a0: 3162 cd3c d06b 513d 5bdb ccbd 18a8 523c
000000b0: b28b cc3d 8c8e b53c e9cf bb3c 1337 833c
000000c0: 4fb6 823d 84b4 bd3c 0151 7aba e35a 0abd
000000d0: d96f 6d3d a791 18bd 5fc5 57bd a63d a13d
000000e0: cf26 713d 2a42 2f3d 8aec 30bc c980 eabd
000000f0: 5e0c 9c3d 3b10 813d e56d 843d 3bb3 9dbd
00000100: 0521 85bd 6460 fb3c a089 9fbd 3dbc 873d
00000110: bb19 923d af82 a83d ee61 c2bd 510c 8ebd
00000120: 6989 a63d 3fb1 a13d 8217 533d 90cf 15bd
00000130: 714c 9b3d 1ef5 743d d7f2 023e 4308 b9bc
00000140: 7219 3bbd d913 933d 7f37 afbc 1495 e03d
00000150: f217 4fbc 7f75 9bbd ca39 afbd 2417 c53d
00000160: 77d4 833d 5e65 6ebd bb4b babb 6549 c0bc
00000170: e8b3 55bd 866d 34bc 524b adbd 6a73 553c
00000180: 9772 a53d df6b 2b3b bd55 913d a2ef 233d
00000190: ec3f 5bbc 7e3f eabc 1daf d43d 320d b6bd
000001a0: 9825 193d a5e5 85bd 4baf 433d 5062 28bd
000001b0: b915 a9bd 5d6d 14bc bd9a bb3d afd3 8e3d
000001c0: b2e7 713d 0a48 80bd c9c8 7cbd 30b1 aebd
000001d0: a826 88bc 001a 60bb 244c b1bc 7091 8cbb
000001e0: c6b2 323d f8be a3bd 2819 81bd dfbe 0e3d
000001f0: bc47 fa3b 157f 9cbd 6a51 88bd 2130 80bc
00000200: a935 113c b1ab 8e3c 27ee 9cbd 4815 cd3d
00000210: 028a cdbd fae4 f93c 4200 923d 0a75 abbc
00000220: 886c e7bb f6a5 2a3c 6633 c2bd fa94 79bd
00000230: 6f2c 013c 8ba5 42bb 2809 b03d 08cc 88bc
00000240: 4e0a 013d a9c2 a7bb 97e5 603d 5678 c3bd
00000250: f3e9 0bbc 7204 a83d f542 bd3d a649 103d
00000260: 95f3 713d c03b 273b 992c 953d a8fb 96bc
00000270: 8077 403c d7b5 9cbd 96c2 413d f619 333d
00000280: c826 78bc 2a16 31bd 1608 6a3d 3749 7abd
00000290: 160a 91bd 2cee 973c bf9c 7ebd 16de 943d
000002a0: 8478 b3bd c2bc b5bd 0d31 acbd f7f7 b4bd
000002b0: 10cd cf3c 6e85 cabd f85e 2dbd 8aba dbbd
000002c0: f098 ca3d 2670 7abd 743d 7cbd 7bc2 05bd
000002d0: 1de5 bdbc f353 9bbc 1e91 693d 608d fbbc
000002e0: a440 9fbd aec7 b53d ceac 6fbd 5cea 2ebb
000002f0: 5dfa f13d 84de e03a 4e9f 9e3d 5dca 9e3d
00000300: 0b44 7c3c 3432 743b 11eb 113c 317b 3b3d
00000310: 522d f6bd df16 97bd 9702 f1bd a4bc 95bd
00000320: 4192 7a3d 3c31 083b 73e1 02bd 0000 28b7
00000330: b428 903c 0040 76b7 6eb5 0f3d 406b 76bb
00000340: 985c 183c 7cfa c1bc b994 c8bd 292f 5ebd
00000350: 8585 80bd dcb8 013d f68b f3bb cb8f 603c
00000360: 2a07 4f3d 30c4 ccbd 3f8f b7bc b246 a13d
00000370: 9dac af3d de10 85bd f2a4 babd 210f bbbd
00000380: 4e92 45bd 5c37 a6bd 1296 9e3d 9ff0 92bd
00000390: 5e8e 563c f0db 593d d9b8 7cbc 19da 2b3d
000003a0: 22e9 fdbc 5abc d13d dea2 95bd 5e58 b0bd
000003b0: c92a f43d 43e2 c83c b667 30bc b879 4f3d
000003c0: cddb 03bd 47f2 95bd 6b07 c03c 067c afbd
000003d0: 4ec1 493d 69b1 98bd 8ce3 b4bd 2660 14bd
000003e0: f978 8fbd 192b 893d 40d8 c63a 5016 eabb
000003f0: 6330 943d e26c 59bd 0962 923d 8e5d 1c3d
0.07925156 0.051018696 -0.09478818 -0.0062629688 0.019013397 -0.04070231 -0.10036448 -0.0746091
0.026465394 0.007257947 0.07201718 -0.11125868 0.076259755 -0.1187003 0.10527943 -0.13122827
-0.006326116 -0.03291747 0.043282893 -0.12431981 0.040227998 0.09103045 0.03522089 0.087628685
0.011034049 -0.055995427 -0.036633685 -0.010093942 0.042576723 0.026850827 -0.08548198 0.08234677
-0.014654523 0.06078187 -0.02618199 0.017159762 0.08499483 -0.093732245 0.0026745573 -0.099355124
0.025071235 0.05112821 -0.10002776 0.0128574595 0.09987582 0.022162698 0.022926288 0.016017472
0.06382429 0.023157366 -0.00095488137 -0.033778083 0.057967994 -0.03724828 -0.052678462 0.07873087
0.0588749 0.04278771 -0.010798583 -0.11450345 0.07619546 0.06301924 0.06466273 -0.07700201
-0.065004386 0.030685611 -0.07789922 0.066277005 0.07133814 0.08228051 -0.09491335 -0.06935943
0.08131678 0.07895135 0.05153609 -0.0365749 0.075829394 0.059804074 0.12787949 -0.022586947
-0.045678563 0.0718152 -0.021388767 0.109659344 -0.012639986 -0.0759077 -0.08555944 0.09623554
0.06437009 -0.05820214 -0.0056852973 -0.023472497 -0.052173525 -0.011012441 -0.08461632 0.013028005
0.08078497 0.0026156825 0.070964314 0.040023454 -0.013381939 -0.028594729 0.10384963 -0.088892356
0.037389368 -0.06537942 0.047774594 -0.041109383 -0.082560964 -0.009059277 0.09160373 0.06973969
0.059058852 -0.0626374 -0.06171492 -0.085298896 -0.016619995 -0.0034195185 -0.021642752 -0.0042897984
0.043627523 -0.07995409 -0.06303626 0.034849998 0.007637946 -0.076414265 -0.066561535 -0.01564795
0.008862891 0.017415853 -0.076626115 0.10013825 -0.100360885 0.030504692 0.071289554 -0.020929832
-0.0070624985 0.010415545 -0.0948246 -0.06093309 0.007884129 -0.0029700722 0.085954964 -0.016698852
0.031503968 -0.005119641 0.054906454 -0.09544437 -0.008539665 0.08203973 0.09241287 0.035226487
0.05907019 0.0025517792 0.07283897 -0.018430546 0.011747241 -0.07651871 0.047304712 0.04372593
-0.015145965 -0.043234028 0.057136618 -0.06110498 -0.07082002 0.018546186 -0.062161203 0.07268922
-0.08763221 -0.08873893 -0.08407793 -0.08836358 0.025366336 -0.09888731 -0.042326897 -0.10728939
0.09892452 -0.06114211 -0.061582044 -0.032656174 -0.023180539 -0.018960929 0.05702316 -0.030707061
-0.07776001 0.088759765 -0.05851441 -0.0026689982 0.11815331 0.0017156159 0.07745229 0.077534415
0.015397082 0.0037261369 0.008906142 0.04577178 -0.12020363 -0.07377409 -0.11768072 -0.07311371
0.061174635 0.00207813 -0.031953286 -1.001358e-05 0.017597534 -1.4677644e-05 0.035085134 -0.0037600547
0.00929942 -0.02367901 -0.097939916 -0.054244194 -0.06275467 0.031670436 -0.007432456 0.013706158
0.05054394 -0.09998357 -0.022407172 0.07874812 0.08577845 -0.06497358 -0.09113492 -0.09133745
-0.04823523 -0.08116028 0.077434674 -0.07174801 0.013095466 0.053188264 -0.0154249305 0.04195604
-0.030994955 0.10241003 -0.07306455 -0.08610605 0.11922223 0.024521952 -0.010766914 0.05065319
-0.03219204 -0.07321601 0.023441037 -0.085685775 0.049256615 -0.07455713 -0.088324636 -0.036224507
-0.070054956 0.06697673 0.0015170649 -0.007143773 0.072357915 -0.053082354 0.07147605 0.03817516

nn_layers.0.bias f4 [128]
00000000: 1566 a6bd 019c 0fbc 0d8b 03bc cb7f 9dbd
00000010: 7e59 0dbd 37d1 d13c 4646 4e3d 8d74 ae3d
00000020: 3197 51bd 98f3 26bd dac7 dc3d 0777 67bc
00000030: a6dc a6bd ead4 30bd 6574 bf3d 9a6d 37bd
00000040: 2485 aabb b461 843d adbd 8e3d f4f5 f1bc
00000050: fc07 ba3d 1fa0 66bd 38e5 2ebc aa74 b9bc
00000060: 799c adbd e9c0 3e3d 513c 503d 6917 a8bd
00000070: 39d2 c8bd 5765 c53d cead 763d 684c 673d
00000080: d18e aa3d 373c 9a3d 9a1b 31bd 9caf f5bd
00000090: b2d8 27bd d88c afbd e9aa c43d c557 7fbd
000000a0: 6ab6 b6bb 9373 b13d 2189 ddbc 4320 853a
000000b0: 1093 7d3d 826f a6bd dde9 4abd 995e 193d
000000c0: 6a63 0cbd 8b58 6d3d 573c 953c cbe6 613c
000000d0: bf52 c3bd 58de 9a3d c612 813d 0037 6e3c
000000e0: 70ca 09bd c25f 343d 3795 a03d 7ef9 403d
000000f0: 2679 4dbd 18e0 ccbd 37b3 583d 8026 7a3b
00000100: e0a1 6abd 85fe 90bd a804 c8bd a5c3 763c
00000110: fd94 97bd 1ed8 1f3d e3ea 883d ea98 2e3d
00000120: 10c9 473d d47b 98bd a658 a83d b0a2 053d
00000130: 5638 823d 98cf cd3c 2dc0 a0bd 8461 a3bd
00000140: 4a91 d13d 5e66 2cbd dc98 3b3d 4a7c cebd
00000150: af82 bdbc cd9c df3d d8c2 b8bd 7ad0 713d
00000160: c6a4 463d f7df b6bc 57eb 4e3d 808b ae3d
00000170: 2660 273d 324f a2bd 011a 9bbd e6f0 523d
00000180: 61e9 e8ba ca94 9f3b c1a4 70bd 5c5a babc
00000190: d684 b0bc fe04 71bd e781 87bd 7489 02bd
000001a0: 2056 b7bb 6838 b0bd b498 e53c 9517 123d
000001b0: cf41 a63c 818b 84bd 7071 e7bc 5526 8c3d
000001c0: 5a5d 0a3d 6043 2a3d dac1 87bc 8ec1 403d
000001d0: c198 013d 2d89 913d e221 5c3c 90e3 123d
000001e0: 4127 7ebc e0ca e1bb b981 fb3b 688d a6bc
000001f0: f846 a03c 804f c3ba 2ecc 043c dd42 3bbd
-0.08124939 -0.008765222 -0.008028758 -0.0769039 -0.034509175 0.025612457 0.050359987 0.08518324
-0.051169578 -0.040759653 0.10780306 -0.014127499 -0.08147554 -0.0431718 0.09348372 -0.04478226
-0.00520386 0.06463948 0.069697715 -0.029536225 0.09083554 -0.056305047 -0.010674767 -0.022638638
-0.084771104 0.046570692 0.050838772 -0.0820759 -0.09805722 0.0963847 0.060224347 0.05646935
0.08328021 0.07531016 -0.043239214 -0.119963855 -0.04097814 -0.08571786 0.09602911 -0.062339563
-0.0055759447 0.08664622 -0.027042927 0.001015671 0.061907828 -0.08126737 -0.049539436 0.03744373
-0.034274496 0.05794577 0.018217249 0.0137879355 -0.09537267 0.0756194 0.06302409 0.01453948
-0.033640325 0.044036634 0.078409605 0.047112934 -0.050164364 -0.1000368 0.052905288 0.003816992
-0.057283282 -0.07079796 -0.09766513 0.015061294 -0.07401464 0.039024465 0.06685426 0.0426263
0.048775733 -0.07445493 0.08220033 0.032625854 0.063584015 0.025123402 -0.078491546 -0.07977584
0.1023279 -0.042089812 0.045800075 -0.100823 -0.023133604 0.10918579 -0.090215385 0.05903671
0.048496984 -0.022323592 0.050517406 0.08522701 0.04086318 -0.079252616 -0.07573319 0.05149927
-0.0017769748 0.004870032 -0.05875087 -0.022748165 -0.021547716 -0.05884265 -0.06616574 -0.031869367
-0.0055949837 -0.08604509 0.028026916 0.03566702 0.020295052 -0.06471921 -0.028252333 0.06843249
0.033780433 0.04156816 -0.016571928 0.047059588 0.031639818 0.07106242 0.013435813 0.03586155
-0.015512289 -0.0068906397 0.0076753763 -0.0203311 0.01956509 -0.0014901012 0.008105321 -0.045718063

nn_layers.2.weight f4 [128, 128]
00000000: 54dc 2c3d 6af6 c9bd 0555 8fbd 9186 7cbd
00000010: 4e6f 93bd 63c4 bf3b 28f2 e93c 60b3 4cbd
00000020: a1fe 49bd b4fb d8bc 3d7e b6bc 0a41 813d
00000030: 3af2 a6bd f6b5 353d 7693 673d c563 853d
00000040: 49ea 44bc 314c 2f3d 4ff4 b4bc 569d 4e3d
00000050: 161d fd3c 4113 b9bd 7a3d 2f3d 2ddd 8c3d
00000060: 83d2 c6bd b956 8fbc 1c0c a2bc d6b7 0cbd
00000070: 089c 3cbc f247 14bd 0156 bcbc 4fc7 ba3d
00000080: c2d0 90bd 78f9 8dbd be16 b0bd b641 57bd
00000090: 7a07 efbd 584c a9bc 603d 46bb 9ed8 f5bc
000000a0: e3ad c8bc fbe6 8f3d 04c6 583d 4be4 ccbd
000000b0: 5c8f 30bd 1794 a53c d5d4 82bd ac2d 003d
000000c0: edd0 a5bc fc10 3dbd e8a7 4fbd c866 653d
000000d0: d087 bc3b f18a 08bc 5d42 543d 22f5 6b3d
000000e0: aa80 a43d c7c9 cfbc 8a04 08bd 546c 9a3c
000000f0: a5fa 283b 867e 953d b424 6b3c 85e6 b33d
00000100: 24cc 3f3d 74a6 c53d ad6a 2bbd 71c2 2e3a
00000110: 6041 133c ca7e 66bd c4dc bb3d d3ee 713d
00000120: 0cbb c83d 4420 443d 7558 adbd 0976 98bc
00000130: cd7e 51bd 0823 82bd 5b8e 853d 23cc 5e3d
00000140: cc28 fabc d817 6e3d 5b12 a13c a2b2 9dbd
00000150: 3ea4 0abd 2cb9 be3d d9de 32bd a2d3 0bbd
00000160: ce2b c93d 52a2 5d3d 4f2f aebc a642 9fbd
00000170: c4d8 a1bc b6d8 adbc 2798 5cbd 19f5 353d
00000180: 73d6 1abd 082f 58bd c472 edba 339a 62bd
00000190: b6fe 13bd de10 abbd 26de 213d 500b e53c
000001a0: 3cfb a3bd 184a 8fbd 5a37 85bd 88d7 44bd
000001b0: bad8 f8bc aa17 6b3d cfc4 983d 1d3b 213d
000001c0: 18db 28bd ad60 8dbd 37f8 6b3d 7013 fd3c
000001d0: 16cc c23c 8e2d 3e3c 52aa 6a3d 95a0 51bc
000001e0: f34e c83d e074 633c 1cee 4ebc f7a4 f23c
000001f0: f471 a3bd 31e4 a7bd 2565 8d3d 14b2 b33d
00000200: 0aa9 3ebd 1cdd 1b3d 6ac3 343c c2da ad3c
00000210: 58e1 aabd 81c8 55bd cba3 5fbd 02f7 66bd
00000220: 1c0b 903d 3e46 203d 216e 9ebd bd89 243d
00000230: 7a89 4abc 5017 813b d066 233c 31ed 853d
00000240: 3ebb 31bd 95aa acbd c94d 6bbd 762a 3e3d
00000250: 8612 b639 3372 2b3d 2914 9c3d 9208 953b
00000260: d6ac bf3d 0fa7 aabc 523b b8bc b563 9ebc
00000270: 6ddb ac3d 3861 083c dc3b 98bc 625c 933c
00000280: 80a5 21ba a05c 843d 0424 643c 2cfa 1ebd
00000290: 8ef7 e23d 7a26 5ebd 90fd fcbc 8a53 70bd
000002a0: 8bcf 7fbd 7aa0 603d 6f10 e4bb 5907 37bd
000002b0: 45a8 583c c60e 793b e850 243c be20 8abc
000002c0: 0751 bebc c26b 7dba 8c5c 6ebc 71e3 84bc
000002d0: f66c 253d ffe0 063d 8cd6 7d3d 1f0f ac3d
000002e0: 3406 8e3d 9b5a 133d 3d50 2abd adf3 8d3d
000002f0: 68ab 793d 73f9 dd3c 80fe 3dbd 40ca 53bd
00000300: 3aa9 403d f7a8 e03c 9119 783d c413 473d
00000310: 2d52 a33d daec 29bd c9a1 5fbd 1695 31bd
00000320: 7142 13bd 05c8 87bd 61e2 e13c c536 c13c
00000330: f8a6 aa3d 974d 383d 2ebe e03c 1303 3d3d
00000340: 504a 23bd a830 97bd e9de 73bd ea67 33bd
00000350: 5a4f 22bd be4d e8bc af1e 66bd 062b 7b3d
00000360: e51d e5bc f0d0 543c b282 c63d aef8 ae3d
00000370: 5e31 b43d db17 e8bc ff26 f33c ddf8 b43d
00000380: 1f94 c13d 673f 84bc 164c aabd 6029 85bd
00000390: bb79 8ebd 6672 9cbd cd16 9b3d a5bc c2bc
000003a0: 8452 87bd 9969 a03d 3e2a 283d b8c7 b3bd
000003b0: 211a 58bd 02c7 02bd e037 493b d638 54bd
000003c0: cf24 b03d 65da 413d bcf9 0cbd 7c23 2fbd
000003d0: 5260 82bd d8f0 4a3a 8d66 b63c fdb1 e03c
000003e0: f994 9f3d 4a1c 3a3d ff33 b7bc c9e3 52bc
000003f0: 8602 73bd cf7f b0bd 4561 8c3d 7a40 cabd
0.04220231 -0.09861453 -0.06998638 -0.06165177 -0.07198964 0.0058522685 0.028557852 -0.049975753
-0.0493151 -0.026487209 -0.022276992 0.06311233 -0.0815167 0.044362985 0.056537114 0.0651317
-0.012018749 0.04279727 -0.022089152 0.050443016 0.030897658 -0.090368755 0.042783238 0.068781234
-0.09708121 -0.017497407 -0.019781165 -0.034355007 -0.01151181 -0.036201425 -0.022990229 0.09120046
-0.070710674 -0.06932348 -0.08598088 -0.0525529 -0.11671348 -0.020666286 -0.0030248985 -0.030010518
-0.024496978 0.07026478 0.052923217 -0.10004481 -0.04310547 0.020212216 -0.06388251 0.031293556
-0.020241225 -0.046158776 -0.050697237 0.056006223 0.005753495 -0.008333907 0.0518211 0.057606824
0.08032353 -0.02536477 -0.033207454 0.018850483 0.0025784161 0.07299523 0.014352012 0.087842025
0.046825543 0.09650889 -0.04184978 0.0006666547 0.008987755 -0.05627326 0.09172967 0.05906565
0.09801301 0.047882333 -0.084641375 -0.018610971 -0.051146317 -0.06354338 0.06521293 0.0543939
-0.030537032 0.058128208 0.019662073 -0.07700087 -0.03384804 0.093126625 -0.043669555 -0.034137376
0.09822808 0.05410988 -0.021262793 -0.07776384 -0.019756682 -0.0212215 -0.05385604 0.044423196
-0.03780217 -0.052779227 -0.0018115868 -0.055322837 -0.036131583 -0.083528265 0.039518498 0.027959496
-0.080069035 -0.06996554 -0.06504698 -0.04805711 -0.03037678 0.057395615 0.07459413 0.039363015
-0.04122457 -0.06903205 0.057609763 0.030893058 0.023778956 0.011607541 0.057291336 -0.012794633
0.09780683 0.013882846 -0.012630012 0.029619677 -0.07980719 -0.08197821 0.069040574 0.087742
-0.046547927 0.038052663 0.0110329185 0.021222476 -0.08343762 -0.05219317 -0.054599565 -0.05638791
0.07033369 0.03912949 -0.07735849 0.04017042 -0.0123618785 0.0039395466 0.009973243 0.06539381
-0.04339146 -0.084309734 -0.05744723 0.046427213 0.00034727546 0.041856956 0.07621033 0.004548141
0.09359138 -0.020831613 -0.022489224 -0.019334653 0.0844029 0.00832396 -0.01858323 0.017988387
-0.0006166324 0.06462979 0.013924602 -0.0388128 0.110823736 -0.054235913 -0.030882627 -0.05867342
-0.062453788 0.054840542 -0.006959967 -0.04468474 0.013223712 0.003800319 0.010029055 -0.016861316
-0.023231996 -0.0009667241 -0.014548432 -0.016221734 0.040387116 0.032929417 0.061972186 0.084013216
0.06934777 0.03597508 -0.041580427 0.06931243 0.06095448 0.027096486 -0.04638529 -0.051706553
0.047036387 0.027424319 0.060571257 0.048602834 0.07974658 -0.041485645 -0.05459765 -0.04335507
-0.035952035 -0.066299476 0.027573766 0.023585686 0.08332628 0.04499587 0.027434435 0.04614551
-0.03986579 -0.07382327 -0.059538756 -0.043800272 -0.039626457 -0.028357383 -0.056181606 0.061320327
-0.027968356 0.012989268 0.09692897 0.08543526 0.087984785 -0.028331688 0.02968168 0.088365294
0.0945208 -0.016143514 -0.083152935 -0.06502032 -0.06956812 -0.07639007 0.07572708 -0.023771593
-0.066075355 0.07832641 0.04105591 -0.08778328 -0.052759293 -0.03192807 0.003070347 -0.051812015
0.08600771 0.047327418 -0.034417853 -0.04275845 -0.06366028 0.0007741577 0.022265697 0.027428621
0.07792086 0.045437135 -0.02236366 -0.012871691 -0.05932858 -0.086181276 0.0685449 -0.09875579

nn_layers.2.bias f4 [128]
00000000: 0d53 c33d dc4b 9dbd f2a8 6bbd 9723 3fbd
00000010: 360c 133d 0ad5 8b3d d92b 16bd 645d f83b
00000020: c269 103d 4ae9 9abd 63b6 883d 120e b43d
00000030: 6148 3ebd 188d 73bd 6bc9 a93d d862 ec3c
00000040: 21da 9e3d a9ce 2e3c c03c eabc 9fef b83b
00000050: 56b0 15bd 8767 263d c4e5 d9bc 1c8d 2ebc
00000060: c052 5b3b 4bd2 483c c058 7b3c ab64 6d3d
00000070: 73a7 283c 709d a4bc d4f5 83bd 7a59 913c
00000080: 55eb adbd 301f 22bd 43ff 8c3d ca79 1cbd
00000090: e60a 153d 19ee 3a3d 26d6 773d 019c 1fbd
000000a0: 927c 413d 3ced 8abd d29d 383d ced6 f73c
000000b0: 968e 84bd dea5 afbc 81af 06bd b794 9bbd
000000c0: 0ff4 99bc 5901 9fbd ef6a 8f3d e0d2 a7bc
000000d0: 1973 a2bd cf47 abbd 5526 523c 807d 22bd
000000e0: 62fa 6dbd 4b7b a03d 30ff 8ebb 747b 693d
000000f0: 0872 4ebc fb1f a53c ba3b a0bc faa6 e1bc
00000100: dcbf aa3c 1022 4b3d 250b bdbc c49d 9fbd
00000110: 2771 54bd 4f95 62bd 15dc 433d 4b1b 20bd
00000120: 7e8e 8dbd 22f0 983c 5aae 003c 65ca 873d
00000130: 154c 82bd 5854 0d3c 35d2 463d 56f7 373d
00000140: ccae 853d fa63 4a3d 2375 243b 2bf3 e7bc
00000150: 35b9 8d3d cb7a e83c 53c2 833d 9176 0ebd
00000160: 7993 5ebd 8411 63bd 0bf3 a7bb cd1c aabd
00000170: 1813 893d 1683 103d 1653 9abd 37be ef3c
00000180: e7e5 12bc 2ae4 2cbd a7fd 01bd 0ced 583d
00000190: 2f56 953d 5cde 0abd 3aed 50bd 1183 9e3c
000001a0: a8f4 35bc 8d1a bf3c b4ba 883d 872e 4b3d
000001b0: c0ce b23c da7f 1dbc bbd9 b13c f831 9d3c
000001c0: f5ad babd ed60 51bd 8437 b8bc 87d4 833d
000001d0: 62cd 0bbd 2344 8f3d db9e 99bd 6a2c 8ebd
000001e0: 81b3 903d 5d06 91bd 1595 283d 5b8d 16bc
000001f0: c4bb 10bd 6392 df3c 7d39 a93d 8698 983d
0.09537325 -0.07680485 -0.057534166 -0.0466648 0.035900317 0.06827743 -0.03666291 0.0075794924
0.03525711 -0.075640276 0.066754125 0.08791746 -0.046455745 -0.05946073 0.082903706 0.028855726
0.077564485 0.010669389 -0.028593421 0.0056437994 -0.03654512 0.040626075 -0.026598819 -0.01065376
0.003346607 0.012257169 0.015340984 0.057957333 0.010293829 -0.020094603 -0.06443372 0.017742861
-0.08492152 -0.039580524 0.06884625 -0.038202085 0.036387347 0.045637224 0.060506962 -0.038967136
0.04723794 -0.0678353 0.045072384 0.030253794 -0.064725086 -0.021441396 -0.032882217 -0.075967245
-0.018793134 -0.07763929 0.07002818 -0.020486295 -0.079321094 -0.08363306 0.012826522 -0.039670467
-0.05810011 0.07836016 -0.004363917 0.0570025 -0.012600429 0.020156851 -0.01955973 -0.027545441
0.020843439 0.04959303 -0.023076603 -0.07793763 -0.051865723 -0.055318173 0.04781731 -0.03908853
-0.06911944 0.018669192 0.007854069 0.066304006 -0.06362168 0.008626066 0.048540313 0.044913612
0.065274805 0.04941175 0.0025094233 -0.028314194 0.06920091 0.028378865 0.06433549 -0.034781042
-0.05433986 -0.055436626 -0.0051254085 -0.083062746 0.06693095 0.035281263 -0.07535379 0.029265506
-0.008965946 -0.04220978 -0.031736042 0.05296044 0.07291829 -0.033903465 -0.051007487 0.019349607
-0.011105694 0.02332809 0.06676236 0.04960492 0.021827102 -0.009613002 0.021710267 0.019188866
-0.09115211 -0.051117826 -0.02248741 0.06437021 -0.034131415 0.06995418 -0.075010024 -0.06942065
0.07065488 -0.07081292 0.0411578 -0.009188975 -0.035335317 0.027291482 0.08262918 0.074509665

nn_layers.4.weight f4 [49, 128]
00000000: de5e bcba 2d5c 9fbd c423 bc3b 6864 6cbc
00000010: 26ed 1c3d 301b 443d be50 1fbb 0aff 92bd
00000020: 830c babd 7b6b 7f3c ee9c 1fbc 71c9 803c
00000030: 9f33 84bc f53d 803d 62db 4b3d 7b07 74bd
00000040: 8d6a 3bbd d671 a73b 7b7c adbd 2b0b 17bd
00000050: 6aac 25bd 8582 afbd 3efc e1bd 2b76 10bd
00000060: 008d 123a 2f11 26bd 934f 46bc 095c 393d
00000070: c1da 4ebc 9e2d 453d b3d7 01bd 4f47 d2bd
00000080: 0abf 3b3d 8dc1 2eba 68be 90bd bc8f 593d
00000090: 8e4a 42bc 7336 0e3d 5be7 18bd fc03 9bbc
000000a0: f49b 6ebd fd3e 9c3c d03e efbc 6e60 ebbd
000000b0: 969c 173d 3af0 253d 25c6 abbd 548c 71bd
000000c0: b651 86bd 7041 edbb f202 a7bc 5028 84bd
000000d0: 65de f6bd f36a 86bd 0b27 303d 08ca f5bc
000000e0: 9446 e43c eb44 a8bd 4f58 c9bd 2c21 abbd
000000f0: 0485 aabc 9190 083d ead1 88bd 23bf 05bd
00000100: bc0d f1bd 6b84 59bc 404c a43d a23d 69bd
00000110: 0822 84bd d7b2 90bb a96d 84bd 1ebd afbd
00000120: 74c3 48bd 12a9 35bc 2b0c bebc 2056 cd3c
00000130: c496 37bc 6e68 3e3d d893 383d 0704 b33d
00000140: a84a 4e3b 0039 78ba 16f6 dcbd 7182 593d
00000150: 9cbe 85bd a81f cfbc cc82 a23c 0f70 62bd
00000160: 86a3 19bd da0f 36bd d62e d8bc f246 6339
00000170: b3b8 7abd 0e04 5a3d 1cad 14bd f30e 353d
00000180: 8331 3abd cff3 1d3d cb89 7abc 41e0 b33c
00000190: f2a3 563d d461 6abd f627 7fbd 0999 543d
000001a0: 3f04 45bd 7b61 ef3c 1fb2 c6bd 3fef d3bd
000001b0: 68fc 5f3c 793e 36bd 3a82 a4bc b2fb 40bd
000001c0: de65 4a3a f04c e33c 6482 e03c 6c37 2abd
000001d0: b43f 143d 1dad bcbd 74e1 34bd a8ba eb3c
000001e0: 7c64 093d ec14 19bd 3435 a9ba ccba 2d3b
000001f0: a3ca b1bc abfb 353c c4c4 b2bd 2358 213d
00000200: d89b 323d 6d72 ddbc edbe 623c 96c1 403d
00000210: 1c15 923c 3e07 40bd 5e2e 8ebd 9c95 b0bd
00000220: df7b 183d 2dd1 d63a 23b5 a7bc 6119 7abb
00000230: ecb0 28bd 80d3 f7bc 2588 373d 1eda 413d
00000240: e195 a9bd 5ec5 42bd c8cd e83a b89d 933d
00000250: a478 81bb 38e7 193d 3b49 b13c 999b 1c3d
00000260: 9481 98bc 33e7 9abd d197 aa3d 58d7 c2bd
00000270: 4f3a af3d e27b 703d bb90 a83d 39be abbd
00000280: f230 0dbd 2e6c a93c bccd a13d 27d7 c03c
00000290: 95e8 a23a 58a7 8cbd 4cb1 083d 803b 87bc
000002a0: b8e2 9cbd b60d 7cbd 55a5 7e3d 7438 933a
000002b0: 3fb3 a6bd 8616 593a 0005 923d f80c b73d
000002c0: 8e0f 553b faa3 4a3d 0d06 c53c d483 95bd
000002d0: f7be babd b46a 473c 5836 60bd 98fa 073c
000002e0: 82be 633d c700 78bb 90f4 48bd ca92 4bbd
000002f0: 6088 1fbb 16dd 4f3c 2686 b9bb fa04 fcbc
00000300: a24b 0abd 1d13 14ba 16c0 763d a965 2abd
00000310: 2eaf cf3c 3df6 383d d39b cdbd bed3 77bd
00000320: 8f73 aebd 6226 a9bd 9ba7 a1bd a05f 253c
00000330: 9f6e c8bc 376b 873d e2dd 293d 012b 2ebd
00000340: 70c2 163d 61ec 9d3d a967 cbbd 2e33 d73c
00000350: 81f5 513d f39a 813d 90e3 abbd 0953 a8bd
00000360: d276 fd3c 6732 9abd 226b 58bc 0c09 24bd
00000370: 8095 da3b ce4a 7f3d 4358 3a3c 44eb f7bc
00000380: 52c3 b6ba 257f ab3c 08f5 bfbd b73f 953d
00000390: 6ef1 2c3d bf49 cdbb b7c6 6d3d 5820 cf3c
000003a0: 580e 443c 91af c5bc 7662 afbd 722e ffbc
000003b0: 0ee6 89bd f5cb 453c 9bb2 e6bb aafa 4f3d
000003c0: dac2 12bc dca4 b1bc c6c9 7a3d 75a3 a7bd
000003d0: 446d 9bbd b6d1 603d 2fb0 0cbd 6692 573d
000003e0: 8021 5bbc 7859 a03c f592 b3bd b864 1dbd
000003f0: d6db 813d 9590 8c3c 0de9 c5bc 75d6 813d
-0.0014371534 -0.07781253 0.0057415683 -0.014428236 0.0383121 0.04787749 -0.00243096 -0.07177551
-0.09084418 0.01558959 -0.009742005 0.015721055 -0.016137896 0.06261817 0.049769767 -0.059577446
-0.04575591 0.005110006 -0.084710084 -0.036875885 -0.04044763 -0.085698165 -0.110344395 -0.035268944
0.00055904686 -0.04054373 -0.012103933 0.045253787 -0.012625397 0.048139207 -0.031699847 -0.10267507
0.045836486 -0.00066664146 -0.07067567 0.05311559 -0.011858596 0.034719896 -0.037330013 -0.018922798
-0.058254197 0.019073004 -0.029204756 -0.11493002 0.037014566 0.0405123 -0.083874024 -0.058971718
-0.06558554 -0.007240467 -0.020387147 -0.064530015 -0.12054137 -0.06563368 0.043005984 -0.030003563
0.027865686 -0.0821627 -0.09831297 -0.083559364 -0.02081538 0.033340994 -0.06680663 -0.032652985
-0.11770198 -0.0132762 0.08022356 -0.056943543 -0.064518034 -0.0044158506 -0.064662285 -0.08580993
-0.049014524 -0.011087673 -0.023199162 0.025065482 -0.011205379 0.04648631 0.04506287 0.087410025
0.0031477604 -0.0009468943 -0.10789125 0.053102914 -0.065304965 -0.02528365 0.01983776 -0.05528265
-0.037509464 -0.04444871 -0.02638952 0.00021674836 -0.0612113 0.053226523 -0.036297902 0.04420371
-0.045457374 0.038562592 -0.0152916415 0.021957519 0.052402444 -0.057222202 -0.06229397 0.05190376
-0.048099753 0.029221287 -0.09701943 -0.10348367 0.013671018 -0.044493172 -0.020081628 -0.047115035
0.0007720868 0.027746648 0.027405925 -0.04155676 0.036193565 -0.09212706 -0.04416032 0.028775528
0.033543095 -0.03737347 -0.0012909533 0.0026509045 -0.02170307 0.011107366 -0.08728936 0.039390694
0.043605655 -0.027032102 0.013839466 0.047059618 0.017832331 -0.046881907 -0.069424376 -0.08622286
0.037227508 0.0016389244 -0.020472115 -0.00381621 -0.04118435 -0.030252218 0.044807572 0.047327153
-0.0828054 -0.047551505 0.0017761523 0.07207817 -0.003951149 0.037574023 0.021641364 0.038234327
-0.018616475 -0.07563629 0.08329738 -0.0951373 0.08556043 0.058711894 0.0823073 -0.083858915
-0.034470506 0.020681467 0.07900569 0.023540093 0.0012428934 -0.06867856 0.03337221 -0.016507864
-0.07660431 -0.061536513 0.06216939 0.0011232034 -0.08139657 0.00082812493 0.0712986 0.089380205
0.0032510492 0.049472786 0.024050737 -0.07300535 -0.09118455 0.012171436 -0.054739326 0.008299492
0.055601604 -0.003784226 -0.049061358 -0.049700536 -0.002434276 0.012686988 -0.0056617437 -0.030764092
-0.033763535 -0.00056486 0.06024178 -0.041600857 0.025352087 0.045156706 -0.10039487 -0.060504667
-0.08518135 -0.08259274 -0.07893296 0.0100936 -0.02446681 0.066122465 0.04147137 -0.04252148
0.036806524 0.07711101 -0.09931881 0.026269522 0.05125952 0.06328382 -0.083930135 -0.08218963
0.030940447 -0.07529145 -0.013209136 -0.04004769 0.006670654 0.0623272 0.011373582 -0.03026355
-0.0013943708 0.02093465 -0.09372908 0.07287543 0.042222433 -0.0062648947 0.058050837 0.025283977
0.01196631 -0.024131568 -0.08563702 -0.031150077 -0.067333326 0.012072553 -0.0070403344 0.05077616
-0.008957589 -0.021685056 0.061227582 -0.08185474 -0.075892 0.054887496 -0.03434771 0.05262985
-0.013374686 0.019573912 -0.08768264 -0.03842613 0.063407585 0.017158786 -0.024158979 0.063397326

nn_layers.4.bias f4 [49]
00000000: 19d2 37bd 3f0e 46bd 7d2f afbd aa0e 4bbc
00000010: 3821 08bb 69c0 573d b635 633d 2b78 a0bd
00000020: ebaf d3bb 28f8 2cbd 55a8 833c f63a 393d
00000030: 61dc 553d 8955 013d 6a42 2cbc ed48 743d
00000040: b0c2 eabc 2d10 e63d b79c 2b3d b39c 963c
00000050: 5ee0 9dbb 84c7 0a3c df9a 2e3d ab6d 53bd
00000060: 36dd 8c3c e836 ce3d 4a46 a9bd c6f4 78bd
00000070: 5056 be3c 0811 bf3c d27a 1fbd 1532 07bd
00000080: ccef 98bd eff5 813d e288 39bd 70c1 87bd
00000090: 7076 e43c c4ee 75bd c1bb 8d3d 4b60 1bbd
000000a0: cade 223d 601b 273c 9045 f43c 00fd dabb
000000b0: 9c50 8a3c aca4 513d c87f 603c 13ee cfbc
000000c0: 0463 a73a
-0.0448781 -0.04835343 -0.085539795 -0.012393633 -0.0020771753 0.05267373 0.055471145 -0.0783542
-0.00646018 -0.042228848 0.016071478 0.045222245 0.052212123 0.031575713 -0.010513881 0.05963986
-0.028657287 0.11233554 0.0418975 0.018385267 -0.0048180064 0.00847042 0.042628165 -0.05161826
0.017195325 0.10069066 -0.0826536 -0.06078031 0.023234516 0.02332355 -0.03893549 -0.033006746
-0.074676126 0.06345736 -0.045296557 -0.06628692 0.027888507 -0.060042158 0.06920577 -0.03793363
0.03976325 0.010199398 0.029818326 -0.006682992 0.01688414 0.051182434 0.01370234 -0.025382077
0.0012770598
