jengazero_data/jengazero_nim_featureset/checkpoints/70/model.pkl (torch_old, 100175 bytes, 6 tensors)

nn_layers.0.weight f4 [128, 14]
0	0x3e5c3b33	0.21506958
1	0x3e22ebca	0.15910259
2	0xbe6615c1	-0.22469236
3	0xbc07fd7f	-0.008300184
4	0x3d8ee897	0.06977957
5	0xbd97d802	-0.07414247
6	0xbe70ae06	-0.23503885
7	0xbe39b26c	-0.18134469
8	0x3dde84ff	0.10865211
9	0x3d2cd62b	0.042196434
10	0x3e61baff	0.2204399
11	0xbe894304	-0.2680894
12	0x3e479252	0.1948941
13	0xbe8a7bd1	-0.2704759
14	0x3e7f0973	0.24905948
15	0xbe86d7f2	-0.26336628
16	0xbd9623d3	-0.07331052
17	0xbd2fd814	-0.042930678
18	0x3d9e114a	0.077181414
19	0xbe861e34	-0.26194918
20	0x3d4a862d	0.049444366
21	0x3e7d78ea	0.24753156
22	0x3dd64c72	0.104637995
23	0x3e6382f7	0.22217928
24	0x3ce52eca	0.027976412
25	0xbe1161b7	-0.14197432
26	0xbdbe399f	-0.09288334
27	0xbcd1a801	-0.025592806
28	0x3e1c5b33	0.15269165
29	0x3db63dcc	0.088985056
30	0xbe4f0737	-0.20217596
31	0x3e1b1cf7	0.15147768
32	0xbd4a2439	-0.04935095
33	0x3dc52bf3	0.09627523
34	0xbd6112c3	-0.054949533
35	0x3b71697e	0.003683656
36	0x3e36404b	0.17797963
37	0xbe70cb61	-0.23515083
38	0x38ef5828	0.000114128285
39	0xbe89cc80	-0.26913834
40	0x3d8e3e12	0.06945433
41	0x3dbdb387	0.09262758
42	0xbe940b89	-0.2891505
43	0x3cfbc5a9	0.0307339
44	0x3e683558	0.22676599
45	0x3dd215f7	0.10258096
46	0x3d7f96ad	0.062399555
47	0x3d670e30	0.056410015
48	0x3e39e80b	0.18154924
49	0x3d78ef39	0.060775016
50	0xbd19bdcd	-0.037534524
51	0xbdb76c03	-0.089561485
52	0x3de5a94f	0.11213934
53	0xbd37a43d	-0.044834364
54	0xbdff824f	-0.12476026
55	0x3e37fcaf	0.17967485
56	0x3e3144c8	0.17311394
57	0x3d88bfd7	0.066772155
58	0xbd3b33f5	-0.045703847
59	0xbe759427	-0.23982297
60	0x3e4aa0aa	0.19787851
61	0x3e292629	0.16518463
62	0x3e797e1e	0.24364516
63	0xbe2535d1	-0.1613381
64	0xbe2f50ad	-0.17120619
65	0x3dbf6e23	0.09347179
66	0xbe43dc2b	-0.19126956
67	0x3e315ada	0.17319813
68	0x3e4d64a8	0.20057929
69	0x3e6c8ce1	0.23100616
70	0xbe84290b	-0.25812563
71	0xbe1e2919	-0.15445365
72	0x3e6542f8	0.22388828
73	0x3e6f9327	0.23395978
74	0x3dcf5a36	0.10124628
75	0xbd717868	-0.05895272
76	0x3e93cf77	0.2886922
77	0x3e270004	0.163086
78	0x3e90a9de	0.28254598
79	0xbd32731b	-0.043566804
80	0xbe49ba03	-0.19699864
81	0x3e5cef33	0.21575622
82	0xbe099c98	-0.13438642
83	0x3e6dbd47	0.23216735
84	0x3ca7f4fd	0.020502562
85	0xbe82d940	-0.25556374
86	0xbe77ca30	-0.24198222
87	0x3e3eadff	0.18621062
88	0x3e4d319a	0.20038453
89	0xbe5555ea	-0.20833555
90	0xbd22a934	-0.039712146
91	0xbd77be87	-0.060484435
92	0xbe2a4e4b	-0.16631429
93	0xbd01271f	-0.03153145
94	0xbe81014d	-0.25196305
95	0x3ce100be	0.027466174
96	0x3e2cb862	0.16867211
97	0x3a1ead92	0.00060530857
98	0x3e34d554	0.17659503
99	0x3dcbf924	0.09959629
100	0xbdcf1cf5	-0.10112945
101	0xbdd8d0bf	-0.1058669
102	0x3e602f89	0.21893133
103	0xbe8f2b64	-0.27962792
104	0x3d92c24c	0.071659654
105	0xbe656515	-0.22401841
106	0x3df654c9	0.1202789
107	0xbe386f50	-0.18011212
108	0xbe594aa5	-0.21219881
109	0xbda27595	-0.07932583
110	0x3e7d0c8a	0.24711815
111	0x3e03d583	0.12874417
112	0x3e25df6d	0.16198511
113	0xbe22a058	-0.15881479
114	0xbe203b36	-0.15647587
115	0xbe5d7674	-0.21627218
116	0xbd2c9a55	-0.04213937
117	0xbc0e0ce6	-0.008670067
118	0xbd60c3f9	-0.054874394
119	0xbc3233e4	-0.0108766295
120	0x3de28a9f	0.11061596
121	0xbe4bfc66	-0.19920501
122	0xbe4fab1b	-0.20280115
123	0x3dbad9d5	0.091235794
124	0xbcbc4c4e	-0.022985604
125	0xbe4c661e	-0.1996083
126	0xbe71a39c	-0.23597568
127	0xbd334dec	-0.043775484
128	0xbc9c22c5	-0.019059548
129	0x3c615d76	0.013755193
130	0xbe012981	-0.12613489
131	0x3e667982	0.22507289
132	0xbe8e698c	-0.278149
133	0x3ce52f57	0.027976675
134	0x3e60e91a	0.21963921
135	0xbe0d9fb5	-0.13830455
136	0x3c7488c9	0.01492519
137	0xbcb32b13	-0.021871125
138	0xbe8ee1d7	-0.27906677
139	0xbe2db211	-0.16962458
140	0xbd00fe47	-0.031492498
141	0xbd2c5cdd	-0.04208075
142	0x3e51c074	0.20483571
143	0xbd850387	-0.064948134
144	0x3d94540e	0.07242595
145	0xbd142ae9	-0.036173735
146	0x3de530ee	0.11190973
147	0xbe77b4bc	-0.24190038
148	0xbd3a5568	-0.045491606
149	0x3e56036d	0.20899744
150	0x3e4bed2c	0.19914693
151	0x3dc2826a	0.09497531
152	0x3e037562	0.12837747
153	0xbb88f5f9	-0.004179713
154	0x3e5c7c1d	0.2153172
155	0xbd457948	-0.048211366
156	0xbc07300f	-0.008251204
157	0xbe46aaa5	-0.19401033
158	0x3da5b772	0.0809163
159	0x3de30d6d	0.11086545
160	0xbd1d4b73	-0.038402032
161	0xbe10f3a7	-0.14155446
162	0x3e1f4567	0.15553819
163	0xbe3f59b3	-0.18686561
164	0xbe5ed1db	-0.21759741
165	0x3d52cce9	0.05146495
166	0xbe3c4208	-0.18384564
167	0x3e2f8800	0.17141724
168	0xbe835949	-0.25654057
169	0xbe60cfcf	-0.21954273
170	0xbe7cec09	-0.24699415
171	0xbe5fd654	-0.21859103
172	0x3da63c3e	0.08116959
173	0xbe6e60c9	-0.23279108
174	0xbe047103	-0.12933736
175	0xbe7a4c8b	-0.24443261
176	0x3e701036	0.23443684
177	0xbe0eff7b	-0.13964646
178	0xbe34e5f7	-0.1766585
179	0xbd675595	-0.0564781
180	0xbd8fb896	-0.07017629
181	0xbbdafd40	-0.006683022
182	0x3d42d1fd	0.04756354
183	0xbc99ac1d	-0.018758828
184	0xbe8305dc	-0.25590408
185	0x3e7e6190	0.24841905
186	0xbe57b343	-0.21064477
187	0x3c853f63	0.016265577
188	0x3e50ba59	0.20383586
189	0xbd0accac	-0.033886597
190	0x3e0b8620	0.13625383
191	0x3e76ba63	0.24094538
192	0xbaa25b03	-0.0012386743
193	0xbc7b70bf	-0.015346705
194	0xbcab542a	-0.020914156
195	0x3cf1485a	0.029453445
196	0xbe676f1d	-0.2260098
197	0xbdeabfa0	-0.11462331
198	0xbe6589fc	-0.22415918
199	0xbe08f627	-0.1337515
200	0x3e4527a2	0.192534
201	0xbc527598	-0.012845419
202	0xbdba238b	-0.090888105
203	0xb7d501d8	-2.5392437e-05
204	0x3d36c140	0.04461789
205	0xb81c14a0	-3.7212507e-05
206	0x3db62f1b	0.088957034
207	0xbc1c324a	-0.009533474
208	0x3cc12756	0.023578327
209	0xbd75e99e	-0.060037248
210	0xbe7bb07e	-0.24579045
211	0xbdfaecdf	-0.12252211
212	0xbe2a11d3	-0.16608362
213	0x3dc48667	0.09595948
214	0xbb69cb04	-0.0035673985
215	0x3d1c1689	0.03810743
216	0x3e2f3eb2	0.1711376
217	0xbe75e6dd	-0.24013849
218	0xbd58365d	-0.05278622
219	0x3e4f5e55	0.20250829
220	0x3e77c092	0.24194553
221	0xbe09963e	-0.13436219
222	0xbe532eb7	-0.20623289
223	0xbe5eca00	-0.21756744
224	0xbda1c931	-0.07899702
225	0xbe49cd01	-0.19707109
226	0x3e693703	0.22774892
227	0xbe0bac01	-0.13639833
228	0x3daa6cbe	0.08321522
229	0x3e1db880	0.15402412
230	0x3d09cc61	0.033642177
231	0x3da79f6a	0.08184703
232	0xbdb4e999	-0.08833618
233	0x3e50bda0	0.20384836
234	0xbe6a222b	-0.22864597
235	0xbe88bf49	-0.2670844
236	0x3e5eea8a	0.21769157
237	0x3cf56fd9	0.02996056
238	0xbd7dc702	-0.061957367
239	0x3da0fe22	0.07860972
240	0xbd1f0505	-0.038823146
241	0xbe4cbccd	-0.19993897
242	0xbc824baf	-0.01590523
243	0xbe6d1ce8	-0.23155558
244	0x3e283f18	0.16430318
245	0xbe2fa75e	-0.1715369
246	0xbe734de2	-0.23760179
247	0xbd95f66b	-0.07322391
248	0xbe3287b4	-0.17434579
249	0x3e407eb4	0.18798333
250	0x3cd80394	0.026368894
251	0xbbf63700	-0.0075138807
252	0x3e3bdd26	0.1834608
253	0xbe09d186	-0.13458833
254	0x3e399301	0.18122484
255	0x3dc63aba	0.0967917

nn_layers.0.bias f4 [128]
0	0x3dd7835d	0.105231024
1	0x3e1665d6	0.14687285
2	0xbe329c37	-0.17442404
3	0xbe564f1a	-0.20928612
4	0xbd4e807a	-0.050415494
5	0xbddd1bd7	-0.10796326
6	0x3e21f6e4	0.15816838
7	0x3dbebcba	0.093133405
8	0xbda60a36	-0.08107416
9	0x3e6ddbd2	0.23228386
10	0xbaf7a6da	-0.001889433
11	0x3c98027c	0.018555872
12	0xbe047125	-0.12933786
13	0x3c7959f0	0.015219197
14	0x3d973e74	0.07384959
15	0x3dc1490a	0.09437759
16	0x3e4d743a	0.20063868
17	0x3e2a78c7	0.16647635
18	0xbe21c0ca	-0.157962
19	0x3c0c67d5	0.008569677
20	0xbbb7201a	-0.0055885436
21	0xbd8a652b	-0.067575775
22	0xbd0750db	-0.033036094
23	0xbe697d14	-0.2280162
24	0x3e60e52f	0.21962427
25	0x3e7361f4	0.23767835
26	0x3e71a644	0.23598582
27	0x3d9fa023	0.077942155
28	0xbe260fc9	-0.16216959
29	0xbe26b4c3	-0.16279893
30	0x3ddcf177	0.10788243
31	0xbd0d4372	-0.03448815
32	0x3e7d1909	0.24716581
33	0x3dbf12ad	0.09329734
34	0x3d624dc0	0.05524993
35	0x3cde4cf0	0.027136296
36	0xbe6818ed	-0.22665758
37	0xbe6dd44b	-0.23225515
38	0xbd856844	-0.06514028
39	0xbe11cd65	-0.14238508
40	0xbd47de7d	-0.048796166
41	0x3dd2675e	0.10273622
42	0x3deccdbf	0.115626805
43	0xbe472a4e	-0.19449732
44	0xbbe7034d	-0.007049954
45	0xbd00634c	-0.031344697
46	0x3d5ee5e0	0.054418445
47	0xbe75de79	-0.24010648
48	0x3dea45f5	0.114391245
49	0x3e4d1749	0.20028414
50	0x3dff02a2	0.12451674
51	0xbe099fda	-0.13439885
52	0xbe28d778	-0.16488445
53	0xbdf4de41	-0.11956454
54	0xbe166d11	-0.14690043
55	0x3e3d34dc	0.18477196
56	0xbc11246c	-0.008858781
57	0x3e0633d2	0.13105705
58	0x3e1f1d33	0.15538482
59	0xbe73144c	-0.23738211
60	0xbd4abec2	-0.049498327
61	0xbdf224f9	-0.11823458
62	0x3e551e3c	0.20812315
63	0xbe6e9882	-0.23300365
64	0x3e36614a	0.1781055
65	0x3dd84360	0.10559726
66	0x3e3a2803	0.18179326
67	0xbe515ce9	-0.20445599
68	0xbe0d447e	-0.13795659
69	0x3e701e0f	0.23448966
70	0x3ded9a3e	0.11601685
71	0x3d23cc85	0.039989967
72	0x3e7a2ddd	0.24431558
73	0xbc785b20	-0.015158445
74	0x3dc6770b	0.096906744
75	0x3dfcfdc0	0.123530865
76	0xbd7602ff	-0.06006145
77	0x3e04ca3a	0.12967768
78	0x3e83e9a4	0.2576419
79	0x3d688bac	0.056773826
80	0x3e576be0	0.21037245
81	0x3d6b87aa	0.057502426
82	0xbd88efb7	-0.06686347
83	0xbe80bf8d	-0.25146142
84	0xbd3500f4	-0.044190362
85	0x3d92bdf9	0.07165141
86	0x3dc96f1c	0.098356456
87	0xbe09e9ad	-0.13468046
88	0x3e0ef75e	0.1396155
89	0x3e72e638	0.23720634
90	0x3e55e162	0.20886758
91	0xbd93ff5b	-0.072264396
92	0xbd4daf22	-0.050215848
93	0x3e3b7048	0.1830455
94	0xbd835d89	-0.06414325
95	0x3e05b544	0.13057429
96	0x3ca00fe4	0.019538827
97	0xbcdd8fb7	-0.027046068
98	0xbe043cd9	-0.12913837
99	0xbdeaa5bc	-0.114573926
100	0xbe551674	-0.20809346
101	0xbde8acd0	-0.11361086
102	0xbc5fb22c	-0.013653319
103	0x3e43a248	0.19104874
104	0xbd75562b	-0.05989663
105	0x3db4d423	0.08829524
106	0xbe02c035	-0.12768634
107	0x3e1b050b	0.15138642
108	0xbc3581c5	-0.011078303
109	0xbe44becf	-0.19213413
110	0xbe7415fc	-0.23836511
111	0xbe7e9fe0	-0.24865675
112	0xbdfcbfa9	-0.12341244
113	0x3e61033e	0.21973893
114	0xbd1e9716	-0.038718306
115	0xbd488eee	-0.048964433
116	0xbe714817	-0.23562656
117	0x3d8740c2	0.066041484
118	0x3dd7c8e0	0.10536361
119	0xbe901b2e	-0.28145736
120	0xbe604e98	-0.21904981
121	0x3cb80a26	0.022465777
122	0x3e08416f	0.13306211
123	0xbe5d73c3	-0.21626191
124	0xbdadf8f5	-0.084947504
125	0xbe4827dd	-0.19546457
126	0x3da75101	0.08169747
127	0x3db25a63	0.08708646

nn_layers.2.weight f4 [128, 128]
0	0x3d56a449	0.05240277
1	0x3d595e30	0.05306834
2	0xbd847260	-0.06467128
3	0xbd8a9354	-0.06766382
4	0x3d8325fa	0.06403728
5	0x3d75e4c4	0.06003262
6	0xbd00d5bc	-0.031453833
7	0x3d6b7a90	0.05748993
8	0xbdb2853e	-0.0871682
9	0x3d436a5a	0.047708847
10	0xbd0a85d1	-0.033819024
11	0x3da33cc8	0.079705775
12	0xbc0e80d5	-0.008697708
13	0xbd97357b	-0.073832475
14	0x3d23f557	0.040028896
15	0xbd9bd758	-0.07609433
16	0xbd7754df	-0.060383674
17	0x3d64225b	0.055696826
18	0xbcdf642a	-0.027269442
19	0x3d905773	0.070479296
20	0x3db40dbb	0.087916814
21	0xbd86eba4	-0.06587914
22	0x3cd98611	0.026553186
23	0xbd3962f4	-0.045260385
24	0xbc170505	-0.009217505
25	0xbd444447	-0.047916677
26	0xbd93bb31	-0.07213438
27	0x3d71d4c6	0.059040807
28	0xbd0bc1ef	-0.034120496
29	0x3dd0ea65	0.10200957
30	0x3b6decc3	0.003630445
31	0x3d895c53	0.067070626
32	0xbc0441a9	-0.008072295
33	0x3da85a7c	0.082203835
34	0xbd3e065f	-0.046392795
35	0x3d51dc34	0.051235393
36	0x3d4d9c6c	0.050198004
37	0xbda437e7	-0.08018475
38	0x3db751a7	0.08951121
39	0xbc925969	-0.0178649
40	0xbdca5255	-0.09878985
41	0xbbc70b47	-0.0060743424
42	0x3d88fd71	0.06688965
43	0x3cf90674	0.030398585
44	0x3c85490a	0.01627018
45	0xbd6a018e	-0.05713039
46	0x3a262953	0.0006338555
47	0x3c753ba5	0.014967834
48	0xbd695264	-0.05696334
49	0x3db4f814	0.0883638
50	0x3d8a7f77	0.06762593
51	0x3d478f54	0.048720673
52	0xbd96c986	-0.07362656
53	0xbb363ba1	-0.0027806538
54	0x3d22b966	0.03972759
55	0x3c8d1418	0.017221496
56	0x3daf95b5	0.08573476
57	0x3cdde2d2	0.027085695
58	0xbd8722e3	-0.06598451
59	0xbd681697	-0.05666217
60	0xbd98d232	-0.074619666
61	0x3dae31df	0.08505606
62	0xbd8c80d8	-0.068605125
63	0x3db085ee	0.08619295
64	0xbd1bdbcb	-0.038051408
65	0xbd5ae3d0	-0.053439915
66	0xbd2c7bcc	-0.04211025
67	0x3d3bab55	0.04581769
68	0xbca324d5	-0.019915024
69	0xbc8c520c	-0.017128967
70	0xbc637951	-0.013883905
71	0x3d217754	0.03942044
72	0xbd3bbd38	-0.04583475
73	0xbba6dd84	-0.0050923247
74	0xbdb05d7c	-0.08611581
75	0x3d7592b5	0.059954364
76	0xbd7539b7	-0.059869494
77	0x3ac0f93e	0.0014722717
78	0x3c593e42	0.013259472
79	0x3d021dd5	0.03176673
80	0x3d9f9843	0.077927135
81	0xbbcaac45	-0.006185087
82	0xbb454784	-0.003010244
83	0x3d524114	0.051331595
84	0x3d6a432c	0.057192966
85	0xbca7a30a	-0.020463485
86	0xbd4216ca	-0.047385015
87	0x3d62f522	0.055409558
88	0xbcbe11b5	-0.023201803
89	0x3d26b4b3	0.040699672
90	0x3d2bba85	0.041925926
91	0x3d19312b	0.037400406
92	0x3cf6026e	0.030030455
93	0xbb4d30cc	-0.0031309603
94	0xbd7a9df5	-0.061185796
95	0x3ca552dc	0.020181112
96	0x3d6dae68	0.058027655
97	0xbd0fd370	-0.035113752
98	0xbd4be41b	-0.049778085
99	0x3d88fea2	0.06689192
100	0xbc9d7e21	-0.019225182
101	0x3c1c289f	0.009531169
102	0x3d81a1a4	0.06329659
103	0xbc9f4fb4	-0.019447185
104	0xbd4da0c9	-0.050202165
105	0x3da604b5	0.081063665
106	0xbaaf4c57	-0.0013374191
107	0xbc9a2ded	-0.018820727
108	0x3cb51389	0.022104042
109	0xbd0453f9	-0.032306645
110	0xbdd94de0	-0.106105566
111	0x3d3418fb	0.043969136
112	0x3d9a74f6	0.0754184
113	0xbd9eb173	-0.077486895
114	0xbb5efbf2	-0.0034024683
115	0x3d55a39f	0.052157994
116	0x3d8db59b	0.06919404
117	0x3d712ae5	0.058878798
118	0x3d904618	0.07044619
119	0xbcc6c189	-0.024262207
120	0x3d9735a1	0.07383276
121	0x3d6d48ae	0.05793064
122	0x3e14a5f0	0.14516425
123	0xbc41b6ef	-0.0118234
124	0x3d255de5	0.040372748
125	0x3d9bb340	0.076025486
126	0x3d373fe6	0.044738673
127	0xbd11967c	-0.035543904
128	0x3d2cf650	0.04222709
129	0xbdb3cf57	-0.08779781
130	0x3c2e1f62	0.010627599
131	0xbd870f52	-0.06594719
132	0x3d458e8d	0.04823165
133	0xbd433b8b	-0.047664206
134	0xbd3ec6e7	-0.046576407
135	0x3d6ba78c	0.057532832
136	0xbd0e4ef8	-0.03474328
137	0xbd93a3a8	-0.07208949
138	0xbb3e63c1	-0.0029051157
139	0xbaf3d456	-0.001860271
140	0xbb88640c	-0.004162317
141	0x3d382e04	0.04496576
142	0x3d17ad63	0.03703059
143	0x3d8977eb	0.06712326
144	0xbc25801d	-0.010101345
145	0xbd5dafdc	-0.05412279
146	0xbda3a11f	-0.07989716
147	0xbc5608e8	-0.013063647
148	0xbda5a46b	-0.08088001
149	0xbd9143e3	-0.070930265
150	0xbd80c857	-0.06288212
151	0xbc272084	-0.010200623
152	0x3d9f8d6d	0.07790647
153	0x3db95dea	0.09051116
154	0xbd62f4eb	-0.055409353
155	0x3c61a327	0.013771809
156	0x3b8f6cc9	0.004376982
157	0xbda77b6c	-0.08177838
158	0x3c19d814	0.009389896
159	0xbd9884d3	-0.07447209
160	0x3d96b0b9	0.07357926
161	0x3d08c79e	0.033393495
162	0xbd98082c	-0.07423434
163	0xbd487443	-0.048939
164	0xbc8d5d37	-0.017256362
165	0xbdbbf30e	-0.091772184
166	0x3d84b126	0.06479101
167	0xbdacdf33	-0.08441009
168	0x3b076016	0.0020656637
169	0xbac75748	-0.0015208507
170	0xbd895a59	-0.067066856
171	0x3cef54af	0.029215185
172	0xbd7d806d	-0.061890054
173	0xbd21cf83	-0.03950454
174	0xbda19591	-0.07889856
175	0x3d814a99	0.063130565
176	0xbd914980	-0.07094097
177	0xbe033abc	-0.12815374
178	0xbd027803	-0.031852733
179	0xbd30c9fe	-0.043161385
180	0xbc1b4f20	-0.009479314
181	0xbaef2b96	-0.0018247243
182	0x3c78ae5e	0.015178291
183	0xbd25bcf6	-0.04046341
184	0xbd107158	-0.035264343
185	0xbcbef192	-0.02330855
186	0xbc651dd1	-0.01398416
187	0x3d98bcc2	0.07457878
188	0xbdafef13	-0.08590522
189	0x3d811cf0	0.063043475
190	0xbd9e0c94	-0.07717243
191	0xbda8eca6	-0.08248262
192	0x3d5600e2	0.052246936
193	0x3d70a688	0.058752567
194	0xbd9c7547	-0.076395564
195	0x3cff2af5	0.031148413
196	0xbcc53766	-0.024074268
197	0x3d026cb1	0.031841937
198	0xbda8cd4a	-0.08242281
199	0xbc9bfa30	-0.019040197
200	0xbc39a44b	-0.011330674
201	0x3d57fbb1	0.052730266
202	0x3cfc69b8	0.03081213
203	0x3bd5f450	0.0065293685
204	0xbd375c34	-0.044765666
205	0x3dfcff42	0.12353374
206	0xbcc0b446	-0.023523461
207	0x3cf4068a	0.029788274
208	0x3d8a0807	0.06739812
209	0xbdb6d820	-0.08927941
210	0x3da9cb63	0.08290746
211	0xbd9a3fc2	-0.07531692
212	0x3cf4b5cb	0.029871842
213	0x3d496522	0.049168713
214	0xbbe41b62	-0.006961272
215	0xbd7b4a9c	-0.06135045
216	0xbd459798	-0.048240274
217	0x3c0774c8	0.008267589
218	0xbdb51ae6	-0.08843021
219	0xbd28c486	-0.041203044
220	0xbd99a913	-0.075029515
221	0xbc59a9a3	-0.013285073
222	0x3bcaf35e	0.0061935624
223	0x3d49e6c9	0.04929236
224	0x3c905d88	0.017622724
225	0x3c84cd8a	0.01621129
226	0x3b9e70f2	0.0048352415
227	0x3d5bba3e	0.05364441
228	0xbb32ea2c	-0.0027300222
229	0xbce0d721	-0.027446331
230	0x3c38157a	0.011235589
231	0xbdab21fb	-0.08356091
232	0x3e04aa43	0.12955575
233	0xbceb146c	-0.028696261
234	0x3cf7a0ff	0.030228136
235	0x3d8ed8d7	0.06974953
236	0x3db026ae	0.086011276
237	0xbda9ec30	-0.08297002
238	0x3c6ed542	0.014577212
239	0xbbece446	-0.0072293608
240	0x3d40288b	0.046913665
241	0xb996bda5	-0.00028751526
242	0x3d076427	0.033054497
243	0x3c9cb0f0	0.01912734
244	0x3d058708	0.03259948
245	0x3da17217	0.07883089
246	0xbd143b9d	-0.036189664
247	0xbd321b66	-0.04348316
248	0x3d8dbfb6	0.069213316
249	0x3c82a5d7	0.01594822
250	0xbc72ce89	-0.01481975
251	0x3d46f56c	0.048573896
252	0x3d527990	0.051385462
253	0xbbcc8dd7	-0.0062424946
254	0xbda361fa	-0.07977672
255	0xbbdcf0e7	-0.006742585

nn_layers.2.bias f4 [128]
0	0x3d4f5f00	0.05062771
1	0x3d88fc5c	0.06688759
2	0x39860860	0.00025564712
3	0xbda50199	-0.08056945
4	0xbb73ac9b	-0.0037181738
5	0x3cc2b3e9	0.023767428
6	0xbd92d4a9	-0.07169468
7	0x3d2f36c4	0.042776838
8	0x3c3f0b4e	0.01166041
9	0xbc92102e	-0.01782998
10	0xbd8b4ae2	-0.06801392
11	0xbc61e3bb	-0.013787205
12	0x3d50ddc1	0.05099273
13	0x3d880199	0.0664093
14	0x3d866fc9	0.0656429
15	0x3d9650ab	0.07339605
16	0x3da6f455	0.081520714
17	0xbb5d4ee8	-0.0033768956
18	0xbd821a31	-0.06352652
19	0xbd2e28e6	-0.042519473
20	0xbd6721d1	-0.056428734
21	0x3d8a475d	0.06751893
22	0xbdbeec69	-0.093224354
23	0xbbc645ce	-0.006050802
24	0x3b2e9fdb	0.0026645574
25	0xbda8bb0a	-0.082388
26	0x3a04a131	0.000505942
27	0x3ca9b6fb	0.020717135
28	0xbcc2eee6	-0.023795556
29	0xbd373649	-0.044729505
30	0xbd5ed925	-0.054406304
31	0xbcd6fcbb	-0.026243558
32	0xbd75d037	-0.060013022
33	0xbd3336a7	-0.043753292
34	0xbd369137	-0.04457208
35	0x3d9533d6	0.072852775
36	0x3d0ab0c1	0.033859972
37	0xba73c4b6	-0.00092990266
38	0xbd91fb45	-0.07128004
39	0xbc64f50d	-0.01397444
40	0x3d994881	0.07484532
41	0x3d92832a	0.07153924
42	0x3ae6b353	0.001760105
43	0xbd475167	-0.048661616
44	0x3db3f640	0.08787203
45	0xbd474967	-0.048653986
46	0x3be0074f	0.0068368088
47	0x3d81fa60	0.06346583
48	0x3d12a8ee	0.035805635
49	0x3be098af	0.006854139
50	0x3db4f33e	0.08835457
51	0xbd524d9f	-0.051343556
52	0xbc69dfaf	-0.014274522
53	0x3d0d2c36	0.03446599
54	0x3c962bb3	0.018331384
55	0xbd935b85	-0.0719519
56	0x3cc21697	0.023692412
57	0xbd684fc1	-0.056716684
58	0xbd91316c	-0.070895046
59	0xbd4f25c8	-0.05057314
60	0x3d93dcb0	0.07219827
61	0xbc833e9c	-0.016021065
62	0x398f6e8b	0.00027357446
63	0x3c9608dd	0.018314773
64	0xbd43875f	-0.04773652
65	0xbd53479d	-0.051581968
66	0xbcd12412	-0.025529895
67	0x3c7ba770	0.015359744
68	0xbd62e680	-0.055395603
69	0x3ceddeb6	0.02903686
70	0xbd5bed8d	-0.053693343
71	0xbcd6b2db	-0.026208332
72	0xbb822272	-0.0039713914
73	0x3d95361e	0.07285713
74	0xbda1ec15	-0.07906357
75	0x3d44a478	0.048008412
76	0x3d245c3f	0.040127035
77	0x3db93f9f	0.09045338
78	0xbd8c968d	-0.06864653
79	0xbd35ef84	-0.044417873
80	0x3d55e97d	0.052224625
81	0xbd6e74af	-0.058216747
82	0xbb8adcd2	-0.0042377496
83	0x3d5d3e94	0.054014757
84	0x3d8e7bca	0.06957205
85	0xbda0222b	-0.07819017
86	0x3d457475	0.048206765
87	0x3c886060	0.016647518
88	0x3d0c9e7e	0.034330837
89	0x3d325b72	0.04354424
90	0xbd98cb97	-0.07460707
91	0x3d8c3a2c	0.06847033
92	0xbc17e8a9	-0.009271779
93	0xbc91c014	-0.017791785
94	0x3db4d984	0.0883055
95	0xbc2df7a6	-0.010618126
96	0x3ccebcd4	0.025236525
97	0xbc54d854	-0.01299103
98	0x3d1352c7	0.035967615
99	0xbcceaa74	-0.025227763
100	0xbd12f4c7	-0.03587797
101	0x3d2e01ed	0.042482305
102	0x3ce92e0e	0.028464343
103	0xbd8336bb	-0.064069234
104	0xbdae10c8	-0.084992945
105	0xbd910115	-0.070802845
106	0xbae99778	-0.001782163
107	0x3da14ef6	0.07876389
108	0x3dac7098	0.08419913
109	0xbd6b638c	-0.057467982
110	0x3d4197ff	0.047264095
111	0x3dc3f752	0.09568657
112	0x3d38a340	0.045077562
113	0xbc1c1576	-0.009526601
114	0x3d4804e2	0.04883278
115	0xbda8a3b4	-0.08234349
116	0xbda2213f	-0.079164974
117	0x3c5f8ed0	0.013644889
118	0xbd90c32f	-0.07068478
119	0xbd09168a	-0.03346876
120	0x3c802ba8	0.015645817
121	0x3d2f0a4f	0.04273444
122	0xbc346e81	-0.011012674
123	0x3d8b0258	0.067875564
124	0x3d9a3a8f	0.075307004
125	0xbdbcfbc9	-0.09227712
126	0x3da51ac9	0.080617495
127	0xbda14aa3	-0.07875564

nn_layers.4.weight f4 [49, 128]
0	0x3cbd7282	0.02312589
1	0xbc576a74	-0.013147939
2	0xbc950b54	-0.018193878
3	0xbca7bca4	-0.020475693
4	0xbad22e95	-0.0016035611
5	0x3c83b496	0.016077321
6	0x3d2b38df	0.041802283
7	0x3be02d67	0.00684135
8	0x3da89521	0.08231569
9	0x3dc9f40d	0.09861002
10	0x3d3878a1	0.045036916
11	0x3da6a60f	0.08137142
12	0x3da39c64	0.079888135
13	0xbc4d67bb	-0.012536938
14	0xbda9164f	-0.08256208
15	0x3ccc9830	0.024974912
16	0x3dad36cb	0.084577166
17	0xbc72ec43	-0.014826837
18	0x3d907fdb	0.070556365
19	0x3daa0620	0.083019495
20	0xbb7a9a25	-0.003823885
21	0x3cd0d20e	0.025490787
22	0xbba2bb72	-0.004966193
23	0x3a12a22d	0.0005593624
24	0xbd8a9dcc	-0.067683786
25	0x3d66976d	0.056296755
26	0x3db717df	0.089401
27	0xbd72e70d	-0.05930238
28	0xbd59b56d	-0.053151537
29	0x3db0772d	0.08616481
30	0x3ce63704	0.028102405
31	0xbcab92fa	-0.020944107
32	0xbd8f092d	-0.06984172
33	0x3d893fbe	0.06701611
34	0x3d3d24c9	0.04617766
35	0x3d576b1d	0.052592386
36	0xbc412555	-0.011788686
37	0xbc4b782e	-0.01241879
38	0x3cd47539	0.025934802
39	0x3d4a10f4	0.049332574
40	0x3b1a5ea1	0.0023554938
41	0x3d9fa0c6	0.07794337
42	0x3d42c487	0.047550704
43	0x3da274d4	0.079324394
44	0x3d697565	0.05699672
45	0x3daa9247	0.083286814
46	0xbd91ba62	-0.07115628
47	0x3dbba137	0.09161609
48	0x3d8ab34b	0.06772479
49	0x3dbe69a8	0.09297496
50	0x3c0130fb	0.007885213
51	0x3e00e967	0.12589036
52	0x3d0195d4	0.031637028
53	0x3c1ab758	0.009443127
54	0xbc9ec0e2	-0.019379083
55	0x3cd4f306	0.025994789
56	0x3cf7df06	0.030257713
57	0x3c7e4c88	0.015521176
58	0xbd8e6535	-0.069528975
59	0x3ce34f9e	0.027747925
60	0x3cb16a7e	0.021657225
61	0x3d9bc178	0.076052606
62	0x3d9894ab	0.07450231
63	0x3c65e1fb	0.014030929
64	0xbd78e389	-0.06076387
65	0xbd78287e	-0.06058549
66	0xbc9f0c23	-0.019414967
67	0x3d2ff2d9	0.042956207
68	0x3d64108f	0.055679854
69	0x3d0dc3d3	0.03461058
70	0x3d071f69	0.03298894
71	0x3b99aafa	0.0046895714
72	0xbd1269e7	-0.035745528
73	0x3c399f9c	0.011329558
74	0x3d142279	0.03616569
75	0xbd714bd3	-0.058910202
76	0x3d978bd7	0.07399719
77	0xbd5059ea	-0.050867
78	0x3cf14572	0.02945206
79	0xbd9b6bf9	-0.075889535
80	0xbd89b80b	-0.067245565
81	0x3d1545ad	0.0364434
82	0x3d3154c6	0.043293737
83	0x3cc50d87	0.024054302
84	0xbd43bbad	-0.047786403
85	0xbd7e610d	-0.062104274
86	0x3ced422c	0.028962217
87	0x3d32a53b	0.043614607
88	0x3d91c6d0	0.071179986
89	0xbd018b88	-0.031627208
90	0xbd657e97	-0.05602893
91	0xbd9a3512	-0.075296536
92	0x3d4eb404	0.050464645
93	0xbd5d7d20	-0.054074407
94	0xbd5f7f66	-0.054564856
95	0xbc14c142	-0.009079279
96	0xbdf31a88	-0.11870295
97	0xbce4be61	-0.027922811
98	0xbd0e4c0f	-0.034740504
99	0x3d60ce46	0.054884218
100	0xbbba6d1c	-0.0056892764
101	0x3d8d9792	0.06913675
102	0xbca68470	-0.020326823
103	0x3cc7dbdb	0.024396827
104	0xbc3ea411	-0.011635796
105	0x3daece16	0.085354015
106	0xbc8f9513	-0.017527139
107	0x3d851a3c	0.064991444
108	0x3ce2ebea	0.027700383
109	0x3c4e699b	0.0125984205
110	0x3c2b8144	0.010467831
111	0xbbf21c90	-0.007388659
112	0x3d0c390c	0.03423409
113	0x3c271315	0.010197421
114	0x3c18f50e	0.009335769
115	0x3d443e86	0.04791119
116	0x3c408b61	0.0117519805
117	0x3d95f591	0.07322229
118	0x3d9df316	0.077123806
119	0xbcec6e58	-0.02886121
120	0x3c7055ab	0.014668862
121	0x3d623835	0.055229384
122	0x3b75fa7f	0.003753334
123	0x3c94232c	0.018083178
124	0xbce4ad99	-0.027914809
125	0xbd91bfec	-0.07116684
126	0xbba106c8	-0.0049141385
127	0xbd3295ef	-0.04360002
128	0x3c82289e	0.015888508
129	0xbd8abfd6	-0.06774871
130	0xbc59351a	-0.013257289
131	0x3d2cc4dc	0.042179927
132	0xbaf93600	-0.0019013286
133	0xbd17a339	-0.037020896
134	0xbe0a0108	-0.13476956
135	0xbdb20f70	-0.08694351
136	0xbd8306a6	-0.063977525
137	0x3d018ce2	0.031628497
138	0xbdfa55fa	-0.1222343
139	0x3d0d7270	0.034532964
140	0x3d1bffd9	0.038085792
141	0x3d7b66a0	0.061377168
142	0xbd38b91c	-0.04509841
143	0xbcc2547a	-0.023721922
144	0xbd967888	-0.07347208
145	0x3c832453	0.016008532
146	0x3c0cea04	0.008600716
147	0xbdaf05ac	-0.08546004
148	0x3c0c3c7c	0.0085593425
149	0xbd59a4db	-0.053135734
150	0xbd8c3a33	-0.06847038
151	0x3d97d5da	0.07413836
152	0xbd81c55f	-0.06336474
153	0xbd383f2e	-0.044982128
154	0xbcbe07c5	-0.023197064
155	0xbc5acf50	-0.013355091
156	0xbe011b4b	-0.12608068
157	0x3d5365c9	0.05161074
158	0xbd4ee70e	-0.05051332
159	0xbdb761f5	-0.08954231
160	0x3d459e0e	0.048246436
161	0x3cc246de	0.023715433
162	0xbe0448fa	-0.12918463
163	0xbdb6206c	-0.08892903
164	0x3cfaa5c5	0.030596623
165	0xbe059536	-0.130452
166	0xbdc864b3	-0.09784832
167	0xbda41656	-0.08012073
168	0xbd28d145	-0.0412152
169	0x3c7100f7	0.014709703
170	0xbc500628	-0.01269678
171	0x3cf6f238	0.030144796
172	0xbd476b43	-0.048686277
173	0x3d3026b0	0.043005645
174	0x3d3de10a	0.046357192
175	0x3cc80c23	0.02441985
176	0xbd1ef43d	-0.038807143
177	0xbd8e1440	-0.06937456
178	0xbdfd4b53	-0.123678826
179	0xbcbae4fd	-0.022814268
180	0xbdac9e25	-0.08428601
181	0xbd09fa65	-0.03368606
182	0x3c0eb09f	0.008709102
183	0xbbf92c08	-0.007604126
184	0xbd793252	-0.060839005
185	0xbdb28a6b	-0.087178074
186	0xbde3e668	-0.11127931
187	0x3d960a35	0.073261656
188	0x3b2ca60c	0.002634409
189	0x3c9ce22c	0.019150816
190	0x3d37b749	0.04485253
191	0x3d71b707	0.05901244
192	0x3cb7bca1	0.022428812
193	0xbde1d32d	-0.11026607
194	0xbd8eb768	-0.06968576
195	0xbdb45aac	-0.08806357
196	0xbd1491ce	-0.036271863
197	0x3d3fb142	0.046799906
198	0xbd246768	-0.04013768
199	0xbdd01eec	-0.10162148
200	0xbdff326f	-0.12460791
201	0x3c45d0e9	0.012073734
202	0xbd680fc8	-0.056655675
203	0xbd81fc69	-0.063469715
204	0x3c41c3b5	0.011826445
205	0xbd906b69	-0.07051737
206	0xbdaad77e	-0.08341883
207	0xbc839de2	-0.016066495
208	0xbc0664ee	-0.008202774
209	0xbd83dae3	-0.06438234
210	0x3a0fbbb7	0.0005482989
211	0xbcca7862	-0.024715606
212	0xbdbc920c	-0.09207544
213	0xbcaf3880	-0.021389246
214	0xbddd0da2	-0.10793616
215	0x3cef6edf	0.029227672
216	0xbd8cf769	-0.06883127
217	0x3c804062	0.0156557
218	0xbc8e613a	-0.017380346
219	0xbd38f11d	-0.04515182
220	0xbc2f1388	-0.010685809
221	0x3db4282c	0.08796725
222	0xbdc89485	-0.09793953
223	0xbd2bba59	-0.04192576
224	0x3ca11fc4	0.019668467
225	0x3b9036ae	0.0044010496
226	0xbd9e2dee	-0.07723604
227	0xbde3ac61	-0.11116863
228	0x3ceb5f16	0.028731864
229	0x3b929a17	0.0044739353
230	0xbdb591d4	-0.08865705
231	0xbd1b5a91	-0.037928168
232	0xbbe62ada	-0.0070241513
233	0x3d3280d4	0.04357989
234	0xbddcb2f8	-0.10776323
235	0xbdf5a8a3	-0.119950555
236	0xbda5e480	-0.081002235
237	0xbdc558e0	-0.09636092
238	0x3d041e4c	0.032255456
239	0x3c1a9a07	0.009436137
240	0x3cbfc440	0.023409009
241	0x3c2f4596	0.010697743
242	0x3d1915bc	0.037374243
243	0xbd847d60	-0.06469226
244	0x3d0c4bd6	0.03425201
245	0xbc9f937b	-0.019479504
246	0xbbfaf115	-0.0076581337
247	0xbd6d1e9f	-0.05789053
248	0x3c80cf26	0.015723776
249	0x3d54a6f9	0.05191705
250	0xbcd27b68	-0.02569361
251	0xbad0aa2c	-0.0015919856
252	0xbdc8c34f	-0.09802877
253	0xbd15350c	-0.036427543
254	0xbda8c341	-0.08240367
255	0xbd861faa	-0.06549008

nn_layers.4.bias f4 [49]
0	0xbcbb76ef	-0.02288386
1	0x3d40fbe3	0.047115218
2	0xbe025287	-0.12726794
3	0x3d443d40	0.047909975
4	0xbd3c42db	-0.045962196
5	0x3de4c9da	0.11171313
6	0x3ced35c2	0.028956298
7	0x3d16491d	0.03669082
8	0xbd946159	-0.0724513
9	0x3ca2171e	0.019786414
10	0xbdabd110	-0.08389485
11	0xbc9b27fa	-0.01893996
12	0xbc007358	-0.00784
13	0x3c770f1f	0.015079289
14	0xbdb0d18e	-0.086337194
15	0xbb9d0a76	-0.004792507
16	0x3ce4f1d2	0.02794734
17	0x3df77af1	0.12083996
18	0xbd734102	-0.05938817
19	0xbddc86b7	-0.10767882
20	0x3cd5a4e1	0.026079597
21	0x3d766f96	0.06016501
22	0xbd1b270d	-0.03787904
23	0x3d9b71de	0.07590078
24	0xbd3e0c7c	-0.046398625
25	0xbcb21557	-0.021738691
26	0xbc0bb8f2	-0.008527981
27	0xbdf37523	-0.118875764
28	0x3ba732b8	0.0051024817
29	0x3ccb9cba	0.024855006
30	0xbd1b1f32	-0.037871547
31	0xbd6c953e	-0.057759516
32	0x3d8e1089	0.069367476
33	0x3d3adf5a	0.04562316
34	0xbbe455c7	-0.0069682333
35	0xbb923d26	-0.004462856
36	0xbb0f51a6	-0.0021868735
37	0x3d56f9f7	0.05248448
38	0xbc96bdb0	-0.018400997
39	0x3c918367	0.017762853
40	0xbdab3522	-0.08359744
41	0x3db12c61	0.08651043
42	0x3cd25212	0.0256739
43	0x3d526a58	0.05137095
44	0xbc8507eb	-0.016239127
45	0xbcd4323a	-0.025902856
46	0xbd93a7a5	-0.0720971
47	0xbdb15751	-0.086592324
48	0xbc914286	-0.017731916
