jengazero_data/jengazero_nim_featureset/checkpoints/320/model.pkl (torch_old, 100121 bytes, 6 tensors)

nn_layers.0.weight f4 [128, 14]
0.23872544 0.16114357 -0.23106866 -0.041710522 0.073675506 -0.10755284 -0.23149762 -0.22015727
0.11130978 0.04948037 0.19212978 -0.27248484 0.18473828 -0.28846052 0.24905948 -0.26336628
-0.07331052 -0.042930678 0.077181414 -0.26194918 0.049444366 0.24753156 0.104637995 0.22217928
0.027976412 -0.14197432 -0.09288334 -0.025592806 0.20458998 0.07742618 -0.24171545 0.16506504
-0.10390301 0.109862745 -0.007784309 0.03406158 0.20427461 -0.30542955 0.0034048287 -0.33106405
0.0027764528 0.12982292 -0.25469384 0.023568943 0.23389658 0.14600782 0.064600915 0.099836886
0.1324959 0.060833987 -0.03623879 -0.1210867 0.13306955 -0.067424215 -0.10950591 0.17750262
0.19414386 0.06425171 -0.037989907 -0.22785518 0.17108564 0.17715243 0.23609082 -0.1684468
-0.17517471 0.08644717 -0.16195376 0.18301162 0.20910129 0.2435594 -0.215553 -0.17441672
0.26269174 0.2178096 0.05304116 -0.07510286 0.27227673 0.10555286 0.24634528 -0.05051416
-0.20791616 0.20429586 -0.1575484 0.24906917 0.020502562 -0.25556374 -0.24198222 0.18621062
0.20038453 -0.20833555 -0.039712146 -0.060484435 -0.16631429 -0.03153145 -0.25196305 0.027466174
0.16867211 0.00060530857 0.18237318 0.09901337 -0.09547865 -0.12977383 0.20803875 -0.30353492
0.045646425 -0.26829395 0.10941262 -0.21009427 -0.25156668 -0.10573371 0.24953847 0.12893453
0.16198511 -0.15881479 -0.15647587 -0.21627218 -0.04213937 -0.008670067 -0.054874394 -0.0108766295
0.11061596 -0.19920501 -0.20280115 0.091235794 -0.022985604 -0.1996083 -0.13711104 -0.05196147
-0.08104395 0.08321698 -0.024531461 0.29453486 -0.26087898 0.11392903 0.2341079 -0.26823482
0.046415176 -0.09693304 -0.25145647 -0.14283329 0.0074853403 -0.037219197 0.20274429 -0.08774843
0.058032047 -0.058973983 0.1079231 -0.31461248 -0.0178701 0.23021673 0.19339249 0.100992076
0.129651 -0.038984556 0.2665275 -0.009976815 0.08203255 -0.19456598 0.042901445 0.11030977
-0.06384369 -0.25240836 0.12710413 -0.21726553 -0.08788695 0.12656224 -0.21720529 0.25307575
-0.25654057 -0.21954273 -0.24699415 -0.21859103 0.08116959 -0.23279108 -0.12933736 -0.24443261
0.23443684 -0.13964646 -0.1766585 -0.0564781 -0.07017629 -0.006683022 -0.057079017 -0.03235393
-0.28984866 0.2407952 -0.21974242 0.008641861 0.15698946 -0.035117734 0.1367301 0.27521506
-0.03472997 -0.019001696 -0.021305958 0.02586671 -0.2260098 -0.11462331 -0.22415918 -0.1337515
0.192534 -0.012845419 -0.090888105 -2.5392437e-05 0.04461789 -3.7212507e-05 0.088957034 -0.009533474
0.023578327 -0.060037248 -0.24578486 -0.122559756 -0.16608362 0.095921956 -0.0035673985 0.0380699
0.17110011 -0.24013849 -0.05282382 0.2024708 0.24190801 -0.13439968 -0.20623289 -0.21756744
-0.07899702 -0.19707109 0.22774892 -0.13639833 0.08321522 0.15402412 0.033642177 0.08184703
-0.08833618 0.20384836 -0.22864597 -0.2670844 0.21769157 0.02996056 -0.09764302 0.097610004
-0.033081617 -0.2177555 0.025132326 -0.2493721 0.18685254 -0.15290289 -0.20986898 -0.09800135
-0.12988903 0.18358287 0.04545514 0.028453896 0.1834608 -0.13458833 0.18122484 0.0967917
00000000: 7174 743e d202 253e 439d 6cbe a7d8 2abd
00000010: 2fe3 963d aa44 dcbd b60d 6dbe e870 61be
00000020: 62f6 e33d eeab 4a3d abbd 443e 2283 8bbe
00000030: 082c 3d3e 19b1 93be 7309 7f3e f2d7 86be
00000040: d323 96bd 14d8 2fbd 4a11 9e3d 341e 86be
00000050: 2d86 4a3d ea78 7d3e 724c d63d f782 633e
00000060: ca2e e53c b761 11be 9f39 bebd 01a8 d1bc
00000070: 0980 513e 9e91 9e3d 4184 77be cf06 293e
00000080: 1acb d4bd b8ff e03d 8413 ffbb 2884 0b3d
00000090: 5d2d 513e 4361 9cbe 8c23 5f3b 3a81 a9be
000000a0: 26f5 353b 4df0 043e 3b67 82be a813 c13c
000000b0: 9682 6f3e 1383 153e 7c4d 843d 4877 cc3d
000000c0: 01ad 073e 0f2d 793d 206f 14bd 4efc f7bd
000000d0: 6243 083e b515 8abd a244 e0bd 3fc3 353e
000000e0: a6cd 463e 6796 833d 4e9b 1bbd de52 69be
000000f0: 1331 2f3e 7267 353e cbc1 713e 517d 2cbe
00000100: 0061 33be 370b b13d 35d7 25be 6667 3b3e
00000110: a61e 563e a367 793e edb9 5cbe 4c9a 32be
00000120: 887f 863e 7b09 5f3e b041 593d 87cf 99bd
00000130: db67 8b3e 192c d83d f041 7c3e f0e7 4ebd
00000140: f9e7 54be ef32 513e 5e54 21be fd0b 7f3e
00000150: fdf4 a73c 40d9 82be 30ca 77be ffad 3e3e
00000160: 9a31 4d3e ea55 55be 34a9 22bd 87be 77bd
00000170: 4b4e 2abe 1f27 01bd 4d01 81be be00 e13c
00000180: 62b8 2c3e 92ad 1e3a 09c0 3a3e 86c7 ca3d
00000190: 4f8a c3bd 6ee3 04be 1c08 553e ee68 9bbe
000001a0: bff7 3a3d d35d 89be b913 e03d f422 57be
000001b0: 59cd 80be ea8a d8bd 0387 7f3e 6a07 043e
000001c0: 6ddf 253e 58a0 22be 363b 20be 7476 5dbe
000001d0: 559a 2cbd e60c 0ebc f9c3 60bd e433 32bc
000001e0: 9f8a e23d 66fc 4bbe 1bab 4fbe d5d9 ba3d
000001f0: 4e4c bcbc 1e66 4cbe d666 0cbe 8dd5 54bd
00000200: 5ffa a5bd aa6d aa3d 34f6 c8bc 46cd 963e
00000210: ee91 85be a053 e93d fbb9 6f3e 1356 89be
00000220: d71d 3e3d d484 c6bd e7be 80be e442 12be
00000230: 9647 f53b 2873 18bd 339c 4f3e 73b5 b3bd
00000240: 03b3 6d3d b48e 71bd c906 dd3d e314 a1be
00000250: 5164 92bc efbd 6b3e ae08 463e efd4 ce3d
00000260: 3bc3 043e 45ae 1fbd 4b76 883e cc75 23bc
00000270: ae00 a83d 4e3c 47be 6db9 2f3d 17ea e13d
00000280: 7bc0 82bd ab3b 81be 9627 023e db7a 5ebe
00000290: 13fe b3bd 8899 013e 106b 5ebe 2593 813e
000002a0: 4959 83be cfcf 60be 09ec 7cbe 54d6 5fbe
000002b0: 3e3c a63d c960 6ebe 0371 04be 8b4c 7abe
000002c0: 3610 703e 7bff 0ebe f7e5 34be 9555 67bd
000002d0: 96b8 8fbd 40fd dabb b0cb 69bd 8e85 04bd
000002e0: 0b67 94be 0493 763e 2804 61be 9896 0d3c
000002f0: d8c1 203e 9dd7 0fbd fa02 0c3e fde8 8c3e
00000300: 0341 0ebd 72a9 9bbc d589 aebc 6ce6 d33c
00000310: 1d6f 67be a0bf eabd fc89 65be 27f6 08be
00000320: a227 453e 9875 52bc 8b23 babd d801 d5b7
00000330: 40c1 363d a014 1cb8 1b2f b63d 4a32 1cbc
00000340: 5627 c13c 9ee9 75bd 07af 7bbe 9c00 fbbd
00000350: d311 2abe bb72 c43d 04cb 69bb 2fef 1b3d
00000360: de34 2f3e dde6 75be ca5d 58bd 8154 4f3e
00000370: bcb6 773e 12a0 09be b72e 53be 00ca 5ebe
00000380: 31c9 a1bd 01cd 49be 0337 693e 01ac 0bbe
00000390: be6c aa3d 80b8 1d3e 61cc 093d 6a9f a73d
000003a0: 99e9 b4bd a0bd 503e 2b22 6abe 49bf 88be
000003b0: 8aea 5e3e d96f f53c 10f9 c7bd c1e7 c73d
000003c0: 9780 07bd 4cfb 5ebe 4fe2 cd3c 665b 7fbe
000003d0: 4656 3f3e 9392 1cbe e5e7 56be efb4 c8bd
000003e0: a101 05be 26fd 3b3e 2b2f 3a3d 2518 e93c
000003f0: 26dd 3b3e 86d1 09be 0193 393e ba3a c63d

nn_layers.0.bias f4 [128]
0.09973764 0.14687285 -0.17888547 -0.21162198 -0.050972153 -0.123512365 0.15816838 0.083861224
-0.08107416 0.23964885 -0.00041208515 0.060010318 -0.12933786 0.009310264 0.07384959 0.09434007
0.20063868 0.18885845 -0.157962 0.008569677 0.019449122 -0.067575775 -0.039759595 -0.24506311
0.21962427 0.24185115 0.23598582 0.06555138 -0.16216959 -0.1730193 0.10788243 -0.006782029
0.23596188 0.102382585 0.05524993 0.027136296 -0.22665758 -0.21971756 -0.059773553 -0.13895287
-0.028023845 0.10386129 0.115626805 -0.19587724 -0.007049954 -0.030964164 0.050094422 -0.23418315
0.114391245 0.25765964 0.12451674 -0.12076832 -0.16497709 -0.13209285 -0.14690372 0.18708599
-0.0012427338 0.12425134 0.13480619 -0.23738211 -0.02039819 -0.11823458 0.20812315 -0.23300365
0.16812782 0.11374827 0.18291385 -0.20584118 -0.11487687 0.23247832 0.1153019 0.039989967
0.24431558 -0.016939236 0.08331424 0.123530865 -0.071954094 0.15669353 0.27491033 0.056773826
0.20910847 0.05978014 -0.07380525 -0.25550658 -0.044190362 0.07165141 0.10154394 -0.12856042
0.14244774 0.23720634 0.1835606 -0.072264396 -0.056402195 0.19068985 -0.07307693 0.13057429
0.019538827 -0.027046068 -0.12396232 -0.114573926 -0.21129036 -0.13517074 -0.010013047 0.19251087
-0.06326879 0.08829524 -0.12836854 0.15138642 -0.011078303 -0.19213413 -0.24773066 -0.25588986
-0.12935431 0.21973893 -0.035592068 -0.05550712 -0.23562656 0.06968707 0.10536361 -0.29094687
-0.22780024 0.022465777 0.15484053 -0.21966524 -0.092509955 -0.19824578 0.13037626 0.08707872
00000000: 3f43 cc3d d665 163e c12d 37be 6fb3 58be
00000010: 2dc8 50bd 0df4 fcbd e4f6 213e 6fbf ab3d
00000020: 360a a6bd 8266 753e 220d d8b9 61cd 753d
00000030: 2571 04be 148a 183c 743e 973d 5e35 c13d
00000040: 3a74 4d3e 1c64 413e cac0 21be d567 0c3c
00000050: c453 9f3c 2b65 8abd f5da 22bd d3f1 7abe
00000060: 2fe5 603e d4a7 773e 44a6 713e cd3f 863d
00000070: c90f 26be f92b 31be 77f1 dc3d c83b debb
00000080: fe9f 713e f6ad d13d c04d 623d f04c de3c
00000090: ed18 68be a4fd 60be 1dd5 74bd a949 0ebe
000000a0: 4392 e5bc 3ab5 d43d bfcd ec3d 0b94 48be
000000b0: 4d03 e7bb 8fa8 fdbc cf2f 4d3d b5cd 6fbe
000000c0: f545 ea3d f7eb 833e a202 ff3d 6255 f7bd
000000d0: c1ef 28be 5943 07be ee6d 16be 7893 3f3e
000000e0: 3ae3 a2ba 7d77 fe3d a20a 0a3e 4c14 73be
000000f0: 1b1a a7bc f924 f2bd 3c1e 553e 8298 6ebe
00000100: b329 2c3e daf4 e83d c54d 3b3e 08c8 52be
00000110: 9044 ebbd cc0e 6e3e 6723 ec3d 85cc 233d
00000120: dd2d 7a3e 27c4 8abc a8a0 aa3d c0fd fc3d
00000130: ab5c 93bd 4574 203e 0cc1 8c3e ac8b 683d
00000140: 8820 563e 05dc 743d 3527 97bd c2d1 82be
00000150: f400 35bd f9bd 923d 45f6 cf3d 58a5 03be
00000160: d2dd 113e 38e6 723e 4ff7 3b3e 5bff 93bd
00000170: fd05 67bd 3344 433e 5ca9 95bd 44b5 053e
00000180: e40f a03c b78f ddbc f5df fdbd bca5 eabd
00000190: 805c 58be 336a 0abe c30d 24bc 9221 453e
000001a0: 1193 81bd 23d4 b43d 0b73 03be 0b05 1b3e
000001b0: c581 35bc cfbe 44be 1bad 7dbe ff03 83be
000001c0: 7575 04be 3e03 613e fdc8 11bd 6f5b 63bd
000001d0: 1748 71be 18b8 8e3d e0c8 d73d fdf6 94be
000001e0: 7744 69be 260a b83c 848e 1e3e edef 60be
000001f0: dc75 bdbd f100 4bbe 5b81 053e 5456 b23d

nn_layers.2.weight f4 [128, 128]
0.05901637 0.05306834 -0.07048786 -0.07483074 0.058036674 0.075273454 -0.031453833 0.060499165
-0.0871682 0.11939044 -0.027668513 0.123889215 -0.008697708 -0.09325888 0.040028896 -0.07612907
-0.060383674 0.057455216 -0.027269442 0.070479296 0.18677075 -0.06587914 0.026306253 -0.07382487
-0.009217505 -0.04724844 -0.07213438 0.10104109 -0.034120496 0.11614272 0.003630445 0.06179971
-0.004939904 0.08517282 -0.046392795 0.051235393 0.050198004 -0.09715467 0.1073058 -0.021200484
-0.13126057 -0.006624182 0.06688965 0.029851578 0.01627018 -0.057779685 -0.0027187432 0.016014718
-0.05696334 0.08960579 0.06762593 -0.035735704 -0.07371337 0.002356706 0.042003214 0.022087714
0.08653706 0.0246561 -0.06308922 -0.05666217 -0.17257915 0.08505606 -0.068605125 0.08619295
-0.019625029 -0.055515975 -0.04045709 0.042922422 -0.0048054922 -0.014423263 -0.008073725 0.03942044
-0.04583475 -0.0073538525 -0.109007 0.059954364 -0.060988504 -0.017908806 0.017059349 0.03176673
0.07829895 -0.003674568 0.0007017792 0.047005877 0.057192966 -0.020463485 -0.046292823 0.055312604
-0.02252876 0.040699672 0.04431815 0.037400406 0.03483837 0.010241885 -0.07354021 0.020181112
0.058027655 -0.035113752 -0.052141163 0.06689192 0.010922329 0.004816471 0.06621406 -0.017846925
-0.05660002 0.081063665 0.0024121231 -0.018820727 0.022104042 -0.032306645 -0.13356853 0.03928002
0.07463475 -0.077486895 0.0039509083 0.05065839 0.06919404 0.059211854 0.07044619 -0.025466748
0.07792002 0.05793064 0.17145593 -0.0036724093 0.043307137 0.082912125 0.0884301 -0.035536874
0.034948748 -0.08779781 -0.00032568103 -0.083338946 0.048653293 -0.028564047 -0.046576407 0.056960892
-0.03474328 -0.13891031 -0.008787726 0.003342006 -0.004162317 0.05634071 0.03703059 0.06715759
-0.010101345 -0.053881824 -0.07989716 -0.013063647 -0.10065037 -0.070930265 -0.069992825 -0.0003705295
0.07790647 0.09185497 -0.055409353 -0.018267872 0.004376982 -0.11974112 0.009389896 -0.08891238
0.06541276 0.026875103 -0.07423434 -0.048939 -0.017256362 -0.11877242 0.07605444 -0.08955183
-0.014048978 -0.004186714 -0.067066856 0.022867708 -0.061890054 -0.04368278 -0.08884739 0.05439335
-0.07094097 -0.14062488 -0.031852733 -0.018074777 -0.009394995 -0.006143284 0.010147756 -0.051050197
-0.040516146 -0.036286686 -0.020775758 0.07457878 -0.088527575 0.063043475 -0.07717243 -0.08248262
0.042972367 0.055039145 -0.07834204 0.02531492 -0.03027025 0.026156528 -0.083189584 -0.019040197
-0.011330674 0.044425208 0.031044828 0.0065293685 -0.055571377 0.14124846 -0.029147109 0.029788274
0.061542697 -0.095792525 0.07994563 -0.084145576 0.029871842 0.049168713 -0.013519749 -0.06956215
-0.055824514 0.008267589 -0.09836673 -0.041203044 -0.07661436 -0.00979368 0.016070357 0.04929236
0.017622724 0.01621129 -0.0027068732 0.05364441 -0.010730878 -0.021273552 0.001362159 -0.08623661
0.11453291 -0.028696261 0.016946841 0.06974953 0.086011276 -0.08297002 0.018832136 2.1121317e-05
0.038369272 -0.00028751526 0.03366779 0.0007616259 0.03259948 0.07266727 -0.036189664 -0.044635337
0.051716372 0.01594822 -0.058674157 0.046348725 0.05269569 -0.008552431 -0.12422441 -0.006748088
00000000: 26bb 713d 305e 593d f05b 90bd dc40 99bd
00000010: ddb7 6d3d f828 9a3d bcd5 00bd f9cd 773d
00000020: 3e85 b2bd fa82 f43d 14a9 e2bc a1b9 fd3d
00000030: d580 0ebc 83fe bebd 57f5 233d 8fe9 9bbd
00000040: df54 77bd 2956 6b3d 2a64 dfbc 7357 903d
00000050: d540 3f3e a4eb 86bd 3680 d73c 7e31 97bd
00000060: 0505 17bc 9587 41bd 31bb 93bd a2ee ce3d
00000070: efc1 0bbd 3cdc ed3d c3ec 6d3b b121 7d3d
00000080: ebde a1bb 166f ae3d 5f06 3ebd 34dc 513d
00000090: 6c9c 4d3d 07f9 c6bd 25c3 db3d a3ac adbc
000000a0: 2c69 06be ab0f d9bb 71fd 883d 4c8b f43c
000000b0: 0a49 853c 64aa 6cbd f12c 32bb 4c31 833c
000000c0: 6452 69bd 3e83 b73d 777f 8a3d 9a5f 12bd
000000d0: 09f7 96bd f772 1a3b 900b 2c3d 4bf1 b43c
000000e0: 583a b13d 97fb c93c ec34 81bd 9716 68bd
000000f0: 97b8 30be df31 ae3d d880 8cbd ee85 b03d
00000100: abc4 a0bc b864 63bd 55b6 25bd 6ccf 2f3d
00000110: 6477 9dbb 8d4f 6cbc a847 04bc 5477 213d
00000120: 38bd 3bbd 96f8 f0bb 103f dfbd b592 753d
00000130: 15cf 79bd 7db5 92bc 0cc0 8b3c d51d 023d
00000140: 335b a03d 05d1 70bb 9bf7 373a 3c89 403d
00000150: 2c43 6a3d 0aa3 a7bc 8b9d 3dbd 788f 623d
00000160: 3c8e b8bc b3b4 263d f386 353d 2b31 193d
00000170: aeb2 0e3d 94cd 273c 409c 96bd dc52 a53c
00000180: 68ae 6d3d 70d3 0fbd f991 55bd a2fe 883d
00000190: 91f3 323c 7dd3 9d3b 3d9b 873d b733 92bc
000001a0: 6cd5 67bd b504 a63d b614 1e3b ed2d 9abc
000001b0: 8913 b53c f953 04bd 30c6 08be 16e4 203d
000001c0: 1bda 983d 73b1 9ebd 9f76 813b 2c7f 4f3d
000001d0: 9bb5 8d3d 2188 723d 1846 903d a49f d0bc
000001e0: 8894 9f3d ae48 6d3d 2592 2f3e ceac 70bb
000001f0: d362 313d d5cd a93d d71a b53d 1d8f 11bd
00000200: 6b26 0f3d 57cf b3bd 2bc0 aab9 9cad aabd
00000210: ad48 473d 26ff e9bc e7c6 3ebd d34f 693d
00000220: f84e 0ebd 813e 0ebe 65fa 0fbc 8e05 5b3b
00000230: 0c64 88bb 84c5 663d 63ad 173d eb89 893d
00000240: 1d80 25bc 30b3 5cbd 1fa1 a3bd e808 56bc
00000250: c821 cebd e343 91bd 6658 8fbd a143 c2b9
00000260: 6d8d 9f3d 751e bc3d ebf4 62bd 81a6 95bc
00000270: c96c 8f3b d53a f5bd 14d8 193c b217 b6bd
00000280: 20f7 853d 2d29 dc3c 2c08 98bd 4374 48bd
00000290: 375d 8dbc f43e f3bd 6ec2 9b3d f366 b7bd
000002a0: af2d 66bc b430 89bb 595a 89bd 0f55 bb3c
000002b0: 6d80 7dbd b7ec 32bd 9ff5 b5bd 90cb 5e3d
000002c0: 8049 91bd f8ff 0fbe 0378 02bd 8e11 94bc
000002d0: 77ed 19bc 9a4d c9bb c642 263c 031a 51bd
000002e0: 42f4 25bd 59a1 14bd ec31 aabc c2bc 983d
000002f0: f24d b5bd f01c 813d 940c 9ebd a6ec a8bd
00000300: cb03 303d ba70 613d cb71 a0bd 3c61 cf3c
00000310: 51f9 f7bc 3746 d63c 4d5f aabd 30fa 9bbc
00000320: 4ba4 39bc 35f7 353d b951 fe3c 50f4 d53b
00000330: d09e 63bd 70a3 103e ebc5 eebc 8a06 f43c
00000340: 3214 7c3d df2e c4bd 89ba a33d 8454 acbd
00000350: cbb5 f43c 2265 493d f081 5dbc 9a76 8ebd
00000360: 3fa8 64bd c874 073c 7f74 c9bd 86c4 28bd
00000370: fde7 9cbd ac75 20bc fba5 833c c9e6 493d
00000380: 885d 903c 8acd 843c cc65 31bb 3eba 5b3d
00000390: 91d0 2fbc df45 aebc 798a b23a d29c b0bd
000003a0: 3b90 ea3d 6c14 ebbc 1ad4 8a3c d7d8 8e3d
000003b0: ae26 b03d 30ec a9bd da45 9a3c af2d b137
000003c0: 1929 1d3d a5bd 96b9 3de7 093d d9a7 473a
000003d0: 0887 053d 94d2 943d 9d3b 14bd 8bd3 36bd
000003e0: 8cd4 533d d7a5 823c 5054 70bd 29d8 3d3d
000003f0: 70d7 573d 7f1f 0cbc 5e69 febd 111f ddbb

nn_layers.2.bias f4 [128]
0.05109771 0.057095855 -0.0006376773 -0.07765771 -0.0037181738 0.025269808 -0.04582502 0.042776838
0.01166041 -0.01783487 -0.07326243 -0.01552442 0.044009782 0.06443568 0.06682019 0.0761911
0.081520714 -0.012397599 -0.06575586 -0.042525157 -0.06251897 0.069187924 -0.09323465 -0.006050802
0.0018826524 -0.0830295 -0.0028971483 0.01914585 0.060452558 -0.04473559 -0.059508868 -0.027360156
-0.060013022 -0.043761756 -0.04318466 0.06617369 0.029716004 0.012013461 -0.06760919 -0.013345165
0.07029624 0.07153924 0.001760105 -0.05112154 0.08787203 -0.049434472 0.0068368088 0.06346044
0.12700918 0.0068468847 0.09408716 -0.056417033 -0.012894264 0.033652708 0.031584278 -0.06752317
0.030805107 -0.06244625 -0.07473161 -0.05057314 0.07141804 -0.01602643 0.00026815405 0.018309101
-0.04599281 -0.051426325 -0.025529895 0.015345904 -0.055395603 0.038684998 -0.05015275 -0.023215525
0.0031460226 0.07285713 -0.07907255 0.04998336 0.04917244 0.09495002 -0.06864653 -0.044423558
0.0550623 -0.020273948 -0.0042377496 0.054014757 0.072624065 -0.07348858 0.048754096 0.008513847
0.03673108 0.04062906 -0.07461435 0.06844572 0.0002433068 -0.02689895 0.093186945 -0.0058631143
0.030795192 0.012303156 0.10387635 -0.030040985 -0.03587797 0.043823373 0.031543873 -0.064082496
-0.084992945 -0.07085141 0.0053600124 0.08061365 0.08419913 -0.057250384 0.04626052 0.095348775
0.049557127 -0.006121932 0.04883278 -0.08234349 -0.077598244 0.016773388 -0.06744208 -0.030289667
0.011323172 0.042658705 -0.013678062 0.06886513 0.06739632 -0.09228619 0.08230196 -0.0789108
00000000: d54b 513d 58dd 693d cd29 27ba 010b 9fbd
00000010: 9bac 73bb a102 cf3c 04b3 3bbd c436 2f3d
00000020: 4e0b 3f3c 6f1a 92bc 9d0a 96bd 235a 7ebc
00000030: 9a43 343d dbf6 833d 06d9 883d 140a 9c3d
00000040: 55f4 a63d 4d1f 4bbc 02ab 86bd dc2e 2ebd
00000050: f209 80bd 66b2 8d3d cff1 bebd ce45 c6bb
00000060: 55c3 f63a 5f0b aabd 15de 3dbb c2d7 9c3c
00000070: 1a9d 773d ab3c 37bd 92bf 73bd 6822 e0bc
00000080: 37d0 75bd 873f 33bd 66e2 30bd 1286 873d
00000090: fa6e f33c 1cd4 443c b076 8abd aea5 5abc
000000a0: 7af7 8f3d 2a83 923d 53b3 e63a d264 51bd
000000b0: 40f6 b33d cd7b 4abd 4f07 e03b 8cf7 813d
000000c0: b20e 023e d55b e03b c5b0 c03d 8c15 67bd
000000d0: 7742 53bc 6cd7 093d 845e 013d 9649 8abd
000000e0: fe5a fc3c a4c7 7fbd e30c 99bd c825 4fbd
000000f0: 9f43 923d dc49 83bc 0797 8c39 f8fc 953c
00000100: f562 3cbd 69a4 52bd 1224 d1bc 636d 7b3c
00000110: 80e6 62bd 2974 1e3d f86c 4dbd 7c2e bebc
00000120: 802d 4e3b 1e36 953d caf0 a1bd 5abb 4c3d
00000130: 0a69 493d 2875 c23d 8d96 8cbd 7af5 35bd
00000140: 0289 613d 8d15 a6bc d2dc 8abb 943e 5d3d
00000150: edbb 943d 2e81 96bd 60b2 473d aa7d 0b3c
00000160: 5473 163d a86a 263d 69cf 98bd 452d 8c3d
00000170: 2c20 7f39 305b dcbc ccd8 be3d 5e1f c0bb
00000180: 3346 fc3c 2d93 493c 20bd d43d 8318 f6bc
00000190: c7f4 12bd 2380 333d 2634 013d af3d 83bd
000001a0: c810 aebd 8b1a 91bd 0ba3 af3b c518 a53d
000001b0: 9870 ac3d 617f 6abd ac7b 3d3d 3846 c33d
000001c0: 6afc 4a3d 7d9a c8bb e204 483d b4a3 a8bd
000001d0: d4eb 9ebd 5868 893c 131f 8abd 0922 f8bc
000001e0: d384 393c e5ba 2e3d f319 60bc 2909 8d3d
000001f0: 1507 8a3d 8b00 bdbd ee8d a83d fc9b a1bd

nn_layers.4.weight f4 [49, 128]
0.003887495 -0.018067362 -0.02746519 0.014183525 -0.0016035611 -0.02054709 0.014131798 0.00684135
0.08231569 0.098623656 0.024010839 0.05942325 0.08066609 -0.0125009725 -0.10486656 -0.0034915938
0.084577166 0.019001663 0.07389496 0.083025016 -0.050371237 0.020303253 -0.0049566547 0.0005593624
-0.05199622 0.07668885 0.049776692 -0.059612125 -0.09161585 0.08617638 0.02088618 0.046479646
-0.06984172 0.067030914 0.051476203 0.066219985 -0.060449746 -0.14229642 0.014167304 0.03005471
0.014610222 0.07794337 0.047550704 0.11167096 0.05699672 0.080155216 -0.07115628 0.09162201
0.026695048 0.09298662 -0.012914393 0.15032573 -0.0014902594 0.0419664 -0.14447159 -0.004206257
-0.02265121 0.054209508 -0.10479384 0.027747925 0.040289488 0.07605976 0.074508764 0.014035796
-0.12325924 -0.048235536 -0.019414967 0.04293986 0.055679854 0.045316424 0.023924688 -0.018258933
-0.058308557 0.011329558 0.036176253 -0.11081506 0.0027396653 -0.070195906 0.02945206 -0.07588848
-0.22825657 -0.3121211 0.043293737 0.024054302 -0.06829583 -0.06694224 -0.006575541 0.039877642
0.054334052 -0.0068048607 -0.056024037 -0.075279355 -0.054269936 -0.05461579 -0.08057476 -0.022794874
-0.16551465 -0.07344114 -0.06760294 0.0910071 -0.0056892764 0.04113978 -0.055347443 0.024423622
-0.011635796 0.08535923 -0.043643214 0.016663106 0.027700383 -0.014553953 -0.034710817 -0.039373837
0.013904908 0.008949127 0.009335769 0.04791119 -0.01644661 0.07313415 0.0685717 -0.044321224
0.009116214 0.055214234 -0.020526465 0.04007453 -0.029797517 -0.07115976 -0.033918764 -0.020179076
-0.006619108 -0.06834062 -0.04692759 0.033359546 -0.0019013286 -0.08377134 -0.22537352 -0.08694351
-0.063977525 0.03161474 -0.1515068 -0.0021345215 0.008852939 0.061355367 -0.08242902 -0.03199261
-0.07347208 0.0024069906 -0.007245571 -0.085465126 -0.009513652 -0.07980114 -0.06848012 0.07413836
-0.11212669 -0.064342536 -0.04968131 -0.013385299 -0.25492558 0.0515991 -0.053896837 -0.13311212
0.048246436 0.02370027 -0.13765343 -0.11798103 -0.020211184 -0.16568564 -0.12444324 -0.11542667
-0.048441112 0.014709703 -0.01269678 0.018217502 -0.048686277 0.025305683 0.046357192 0.024413496
-0.12999998 -0.06938563 -0.15255173 -0.094056726 -0.13350593 -0.05452114 -0.20884073 -0.062775955
-0.15736929 -0.10954324 -0.12636639 0.073261656 -0.04024572 0.019143779 0.044846017 0.059007164
-0.040484026 -0.12659107 -0.06968576 -0.08807917 -0.036271863 0.029810622 -0.09329667 -0.13010871
-0.14771256 0.012073734 -0.056667656 -0.077519335 -0.053796634 -0.11758461 -0.08341883 -0.016069168
-0.085343726 -0.31278574 0.0005482989 -0.024715606 -0.12153599 -0.044988602 -0.12918805 0.0328841
-0.09142545 -0.012610459 -0.017385118 -0.045182846 -0.12107549 0.08792167 -0.14225738 -0.0887099
-0.031831425 -0.18130618 -0.15181488 -0.11804333 0.028731864 -0.02092883 -0.15512425 -0.037955634
-0.0070241513 0.04357443 -0.16849437 -0.12907545 -0.081002235 -0.1103449 0.015585733 -0.029356478
-0.0073380205 0.01036358 0.037374243 -0.06469226 0.008198598 -0.04217538 -0.03450237 -0.08969973
0.01569554 0.05189178 -0.09799434 -0.08410758 -0.09862153 -0.036435325 -0.11457147 -0.090419255
00000000: 58c5 7e3b 0102 94bc aefe e0bc 0462 683c
00000010: 952e d2ba 5f52 a8bc 0f89 673c 672d e03b
00000020: 2195 a83d 33fb c93d 61b2 c43c cb65 733d
00000030: 4334 a53d e1d0 4cbc 47c4 d6bd 39d3 64bb
00000040: cb36 ad3d 60a9 9b3c 3e56 973d 0509 aa3d
00000050: 1252 4ebd 0253 a63c 6f6b a2bb 2da2 123a
00000060: fdf9 54bd 0b0f 9d3d a5e2 4b3d d82b 74bd
00000070: 17a1 bbbd 3e7d b03d 7f19 ab3c 7161 3e3d
00000080: 2d09 8fbd 8147 893d b6d8 523d 589e 873d
00000090: 279a 77bd 27b6 11be fb1d 683c 4c35 f63c
000000a0: b65f 6f3c c6a0 9f3d 87c4 423d bfb3 e43d
000000b0: 6575 693d 6b28 a43d 62ba 91bd 52a4 bb3d
000000c0: 93af da3c c56f be3d e496 53bc fdee 193e
000000d0: cf54 c3ba f6e4 2b3d 5cf0 13be a4d4 89bb
000000e0: 088f b9bc ca0a 5e3d 279e d6bd 9e4f e33c
000000f0: 9706 253d 38c5 9b3d 0d98 983d 65f6 653c
00000100: 576f fcbd a092 45bd 230c 9fbc b5e1 2f3d
00000110: 8f10 643d b79d 393d b5fd c33c c293 95bc
00000120: f4d4 6ebd 9c9f 393c 8d2d 143d 02f3 e2bd
00000130: f58b 333b dfc2 8fbd 7245 f13c 6b6b 9bbd
00000140: 17bc 69be 56ce 9fbe c654 313d 870d c53c
00000150: afde 8bbd 0319 89bd a377 d7bb bd56 233d
00000160: 628d 5e3d 4ffb debb 7679 65bd 102c 9abd
00000170: 274a 5ebd ceb4 5fbd 6104 a5bd 51bc babc
00000180: ac7c 29be 4f68 96bd 6973 8abd ee61 ba3d
00000190: 1c6d babb 3082 283d 00b4 62bd 0c14 c83c
000001a0: 11a4 3ebc d2d0 ae3d 3ac3 32bd 1181 883c
000001b0: eaeb e23c b473 6ebc ee2c 0ebd 7646 21bd
000001c0: 69d1 633c 5c9f 123c 0ef5 183c 863e 443d
000001d0: 0bbb 86bc 5bc7 953d 526f 8c3d 2c8a 35bd
000001e0: 2c5c 153c 5228 623d 1e27 a8bc 3125 243d
000001f0: ec19 f4bc 35bc 91bd 67ee 0abd 974e a5bc
00000200: 1ae5 d8bb 2bf6 8bbd 2537 40bd 05a4 083d
00000210: 0036 f9ba 4f90 abbd 51c8 66be 700f b2bd
00000220: a606 83bd 757e 013d 9924 1bbe 54e3 0bbb
00000230: eb0b 113c c44f 7b3d 8cd0 a8bd af0a 03bd
00000240: 8878 96bd 9abe 1d3b 416c edbb 5708 afbd
00000250: 26df 1bbc c86e a3bd 4e3f 8cbd dad5 973d
00000260: aea2 e5bd 05c6 83bd a17e 4bbd 034e 5bbc
00000270: 9b85 82be 9459 533d eec2 5cbd 8b4e 08be
00000280: 0e9e 453d 1227 c23c 05f5 0cbe 0aa0 f1bd
00000290: ed91 a5bc 7fa9 29be 19dc febd d164 ecbd
000002a0: 306a 46bd f700 713c 2806 50bc df3c 953c
000002b0: 436b 47bd dd4d cf3c 0ae1 3d3d d0fe c73c
000002c0: b71e 05be 0e1a 8ebd 8536 1cbe d0a0 c0bd
000002d0: c7b5 08be 8f51 5fbd 58da 55be ae90 80bd
000002e0: 6a25 21be 3558 e0bd 3166 01be 350a 963d
000002f0: b2d8 24bd 6ad3 9c3c 75b0 373d 7fb1 713d
00000300: 94d2 25bd 17a1 01be 68b7 8ebd da62 b4bd
00000310: ce91 14bd 6835 f43c 5312 bfbd 383b 05be
00000320: f641 17be e9d0 453c 581c 68bd 75c2 9ebd
00000330: dc59 5cbd 33d0 f0bd 7ed7 aabd 7da3 83bc
00000340: b1c8 aebd 7425 a0be b7bb 0f3a 6278 cabc
00000350: dce7 f8bd f845 38bd df49 04be 7ab1 063d
00000360: 443d bbbd 199c 4ebc 3c6b 8ebc a611 39bd
00000370: 6df6 f7bd 4710 b43d ebab 11be 89ad b5bd
00000380: ab61 02bd 54a8 39be 5c75 1bbe b4c0 f1bd
00000390: 165f eb3c f072 abbc e4d8 1ebe 5e77 1bbd
000003a0: da2a e6bb 1a7b 323d ca89 2cbe 5b2c 04be
000003b0: 80e4 a5bd 82fc e1bd 4d5b 7f3c ff7c f0bc
000003c0: c773 f0bb 01cc 293c bc15 193d 607d 84bd
000003d0: 6a53 063c 17c0 2cbd 5b52 0dbd 7eb4 b7bd
000003e0: ef93 803c 7a8c 543d 42b1 c8bd 9840 acbd
000003f0: 16fa c9bd 353d 15bd 72a4 eabd bb2d b9bd

nn_layers.4.bias f4 [49]
-0.053975325 0.027866028 -0.08706878 0.040076513 -0.05894774 0.10665615 -0.030144256 0.09098354
-0.12143608 0.04754536 -0.10879325 0.060660746 -0.040893573 -0.028313335 -0.11649448 0.013494712
0.024549875 0.14005654 0.039453443 -0.11634349 0.1040109 0.06741481 -0.04116908 0.08407756
-0.088442735 0.053012174 -0.07074091 -0.12157298 0.0074170716 0.02294882 -0.037871547 -0.057759516
0.069367476 0.04562316 -0.0069682333 -0.004462856 -0.0021868735 0.05248448 -0.018400997 0.017762853
-0.08359744 0.08651043 0.0256739 0.05137095 -0.016239127 -0.020035796 -0.08037189 -0.08407721
-0.017078947
00000000: 3b15 5dbd 4c47 e43c 1e51 b2bd 4527 243d
00000010: 2f73 71bd 8a6e da3d 16f1 f6bc 9455 ba3d
00000020: 7bb3 f8bd ecbe 423d ffce debd 6777 783d
00000030: 0580 27bd 5ef1 e7bc a894 eebd ed18 5d3c
00000040: d21c c93c fb6a 0f3e ef99 213d 7f45 eebd
00000050: ab03 d53d c710 8a3d e9a0 28bd db30 ac3d
00000060: 7721 b5bd 4b23 593d 9ce0 90bd 41fb f8bd
00000070: e80a f33b 2aff bb3c 321f 1bbd 3e95 6cbd
00000080: 8910 8e3d 5adf 3a3d c755 e4bb 263d 92bb
00000090: a651 0fbb f7f9 563d b0bd 96bc 6783 913c
000000a0: 2235 abbd 612c b13d 1252 d23c 586a 523d
000000b0: eb07 85bc 1c22 a4bc 049a a4bd ac30 acbd
000000c0: 26e9 8bbc
